encoder_decoder.pth (torch, 11561 bytes, 3 tensors)

pre_embedding.weight f4 [256, 4]
00000000: 72f1 2ec0 fd9d 3e40 46aa e0c0 28e5 4e40
00000010: 193f 12c1 afb5 8dc0 7dc5 b840 1be0 d8bf
00000020: 3255 aabf 8557 9940 568c fec0 8b99 8cc0
00000030: e156 15bf 33c2 06c0 608b 8140 eac6 34c0
00000040: 2044 46be 73b2 3540 9dbf d740 85f3 c7c0
00000050: 6b4d fd40 8b1e 05c0 636f 903f 87f2 8d40
00000060: 64f3 b5c0 dadd c240 02a0 e040 63b5 dfbf
00000070: 7828 21c0 0679 33c0 ad77 cfbf 71d1 1c3f
00000080: 9c25 5240 4ef5 923d 1b3d b2c0 bad5 873f
00000090: 324e e8bf 54c9 ca3f 2522 c440 f988 14c0
000000a0: c41f c540 f311 0a40 ef1c f83f 145a e8c0
000000b0: 150f bdc0 44bc a9bf a722 4cbf 03c9 c0c0
000000c0: dcaf a4bf eec0 5b40 ce98 0440 f866 e740
000000d0: a3ee e5c0 1a3e ce40 0290 82c0 ea75 d43f
000000e0: b71b e040 6890 f6bf f15b b340 a04e be40
000000f0: f8c3 9540 f1cf 0741 79aa 803f 9e25 dcbf
00000100: a433 85c0 a589 d1bf 87af f440 e050 f7bf
00000110: e96e c540 c3d8 a0c0 2586 1441 87c5 8f40
00000120: e150 f83f 10b3 2e40 9b16 193f bc76 b340
00000130: 0ee1 c040 ebe2 cc40 fc1d 44bf afb8 e840
00000140: fb2d bec0 0ef1 56c0 173f 1640 31ac ef40
00000150: 1125 82be 49d6 d6c0 962b 6740 1528 c540
00000160: 65a1 3640 a383 1240 7a9a d8c0 fc93 e7c0
00000170: 79de be3f 0d7f e9c0 db34 84c0 c8e4 3dc0
00000180: 0f67 d83f 5c82 af3f d765 0bc0 d663 dec0
00000190: f14b 75be a5df 09c0 b503 cc40 e6f9 3d40
000001a0: 98e7 c8c0 827a d13f ea91 28be 317a 22c0
000001b0: ded9 e040 9ed9 b6c0 4796 94be 0a1d 90c0
000001c0: 560f 4640 194a 1c40 b4e0 8f3e edaf 3ec0
000001d0: c5f6 9fc0 1052 01c1 eb99 4540 455f da40
000001e0: b73e 80bf 30db d6bf 07e6 d4c0 2327 dc40
000001f0: a873 4d3f 3a5f 0ebd 41a3 d740 d9e7 d040
00000200: 089c ecc0 c103 cdc0 98ee 6fc0 2567 cabf
00000210: 9fa0 dd40 eb6b 6fc0 3697 84c0 2bd0 e6c0
00000220: 4aa4 05c1 7353 c5c0 3b3b 1d3d 35c7 8c40
00000230: f8cd c63e ee08 89c0 13a5 27bf e517 5fbe
00000240: 3330 2140 3ef8 eec0 c864 71be a955 6340
00000250: def7 673d bc2f 0bc0 a199 2ac0 d64b 2b40
00000260: 4b42 3fc0 5389 d440 3782 a6bf 8c9f 2640
00000270: 78ed 0040 79ef 52c0 d5d2 f9c0 3b16 4740
00000280: 3ff9 3540 f741 6ac0 9766 0141 2056 1ebe
00000290: 443e f63f 8477 fb3f f376 5e40 4117 ae3f
000002a0: 0247 d540 fde7 1d40 9639 c140 745f 9940
000002b0: eaba a440 debb b23f e2c3 09c0 25d0 aabf
000002c0: 5808 e9c0 0681 9f3f 56dd 7b40 2239 a4c0
000002d0: 5820 db40 f75c 8f40 b40d d840 0e5e 6dc0
000002e0: 38f3 51c0 1a88 0940 0041 64bf da35 b63e
000002f0: a270 0140 4209 73c0 9026 bd40 26cf db40
00000300: b4bc b1c0 9bcd b6c0 7546 1bc0 0c49 0241
00000310: 22f6 fbc0 a2e8 f83d eaf5 6ac0 68fc 0c40
00000320: ba3c b340 0a56 e7c0 32d2 ebc0 973e fa3e
00000330: cd73 2240 4dc8 cbc0 57fe bc40 75f0 34c0
00000340: 2543 81c0 7ca0 a2c0 d827 ddbe 40d9 fec0
00000350: e14e dc40 f88f d8c0 833f 92c0 cb65 54c0
00000360: ccff 22c0 2884 7140 1b26 ad3f f17c d8bf
00000370: 1c36 c740 d896 b9c0 9f33 52bf 5f49 d140
00000380: 5df3 fa40 72dd be40 aae9 acbf b2c5 1ec0
00000390: 9b7d 1ec0 ec58 333f 1f00 29c0 dcbb 11c0
000003a0: d571 05c0 ee64 e13e 0c92 e03f 4638 46c0
000003b0: 2c3d 0bbe 8522 b240 31cf 1e3d 241f 5cbe
000003c0: 401e d340 9392 fe3e a0f4 bfc0 3748 95c0
000003d0: 066c 8dc0 18ce d340 e66a 58be 2a1f 0941
000003e0: c5f4 07bf 73a6 f7bf c654 4fc0 e456 b5bf
000003f0: 6f24 a3c0 7516 8fc0 18f7 cac0 5d53 ce40
-2.7334867 2.9783928 -7.0207853 3.2327366 -9.140405 -4.428428 5.7741075 -1.6943392
-1.330725 4.7919335 -7.954631 -4.393743 -0.5833569 -2.105603 4.0482635 -2.8246408
-0.19361925 2.8390167 6.7421403 -6.2484765 7.9157004 -2.0799892 1.1283993 4.4358554
-5.685961 6.0895815 7.019532 -1.747723 -2.518095 -2.8042617 -1.6208397 0.6125708
3.2835455 0.071756944 -5.569959 1.0612099 -1.8148863 1.584269 6.129168 -2.3208601
6.1601276 2.1573455 1.938383 -7.260996 -5.908091 -1.3260579 -0.79740375 -6.0245376
-1.2866168 3.4336505 2.0718265 7.2313194 -7.1853805 6.4450808 -4.080079 1.6598485
7.003383 -1.9262819 5.6049733 5.947098 4.680172 8.488267 1.0052024 -1.719898
-4.162554 -1.6370131 7.6464267 -1.9321556 6.169789 -5.02646 9.28275 4.492862
1.9399682 2.729679 0.5980012 5.608244 6.0274725 6.4027 -0.7660825 7.2725444
-5.943113 -3.3584628 2.3476007 7.4897695 -0.25418904 -6.713658 3.6120353 6.161143
2.8536007 2.2892845 -6.768857 -7.2368145 1.4911643 -7.296759 -4.131452 -2.9670887
1.6906451 1.3711658 -2.1780908 -6.949687 -0.2395475 -2.1542752 6.3754525 2.9683776
-6.2782707 1.6365511 -0.16461912 -2.538708 7.026595 -5.7140646 -0.29020903 -4.503545
3.094686 2.4420226 0.28101122 -2.9794877 -4.998873 -8.082535 3.0875194 6.8241296
-1.0019139 -1.6785641 -6.6530795 6.8797774 0.802546 -0.034758784 6.7386785 6.5283017
-7.394047 -6.4067082 -3.7489376 -1.5812727 6.925857 -3.7409618 -4.1434584 -7.212911
-8.35261 -6.1664367 0.038386565 4.3993173 0.38829017 -4.28234 -0.6548626 -0.21786459
2.5185668 -7.467803 -0.23573601 3.5521033 0.05663287 -2.1747885 -2.6656268 2.6765037
-2.9884212 6.641763 -1.3008488 2.603488 2.014494 -3.2958663 -7.8069863 3.1107318
2.8433378 -3.6602762 8.087546 -0.15462542 1.9237752 1.9645848 3.47601 1.3600847
6.664918 2.4672844 6.0382795 4.792902 5.1478167 1.3963583 -2.1525807 -1.3344771
-7.2822685 1.246125 3.9353843 -5.131974 6.847698 4.4800982 6.7516727 -3.7088656
-3.28047 2.148932 -0.8916168 0.3558796 2.0224996 -3.79744 5.9109573 6.8690367
-5.554285 -5.7125983 -2.4261754 8.142834 -7.8737955 0.12153746 -3.6712594 2.2029057
5.601163 -7.229253 -7.3694086 0.48875877 2.538318 -6.368201 5.9060473 -2.8271763
-4.0394464 -5.0820904 -0.4319446 -7.96402 6.884629 -6.7675743 -4.570253 -3.318713
-2.5468626 3.7736912 1.3527254 -1.6913129 6.225355 -5.7996635 -0.8211002 6.5402064
7.8422074 5.964532 -1.3508809 -2.4808164 -2.4764163 0.7005756 -2.6406324 -2.277091
-2.0850728 0.44022316 1.754457 -3.0971847 -0.13597554 5.566714 0.038771812 -0.21496254
6.5974426 0.49721202 -5.9986115 -4.6650653 -4.4194365 6.618908 -0.21134529 8.570108
-0.53107864 -1.9347671 -3.2395492 -1.4167142 -5.0981975 -4.4714913 -6.342663 6.447676

decoder.weight f4 [256, 4]
00000000: 92fe 0ec0 4f30 2040 76a7 d3c0 4196 1340
00000010: adef 9ec0 4eb9 4bc0 9eb7 8440 798e a3bf
00000020: 8558 7bbf 3716 6940 ac0c a6c0 39c0 40c0
00000030: 299d 2abf 543c 2cc0 a2d7 8f40 dd13 49c0
00000040: 2901 73be 71e0 0840 e3a9 9440 7b1e a0c0
00000050: 99b5 b040 8729 13c0 6645 813f 27ef 6b40
00000060: 6d04 82c0 cb2e 8140 49ee 8f40 9180 b3bf
00000070: c8dd 43c0 ef0b 90c0 97ea 08c0 d82b 5b3f
00000080: 4401 4640 fd77 043e 85f2 b8c0 60ab 363f
00000090: 2081 e7bf 8516 b53f a328 ae40 1f99 12c0
000000a0: 3c70 9440 da63 aa3f fe8c a83f e256 a8c0
000000b0: 609b 9ec0 b8a7 5dbf e296 79be 6e42 a2c0
000000c0: 62e8 9abf 12ac 2e40 a5de 1b40 7d04 bb40
000000d0: 41f7 99c0 c7b9 9340 29ff 4dc0 901c 623f
000000e0: f302 9440 ea8d d2bf 7551 7240 a621 8840
000000f0: a683 4a40 8b4e b040 8f87 2c3f e780 a7bf
00000100: d5b6 5fc0 c8a6 d4bf 9e7b ad40 00a7 cdbf
00000110: abe3 6d40 9697 6ac0 88ee 9840 9b5e 1f40
00000120: 702a 0040 8f45 2c40 12a1 413f 7a33 a040
00000130: fc2e 7740 fd3b 7f40 bc0c 6cbf 8f5f 8c40
00000140: fc5c 96c0 b465 12c0 c323 f83f 4c7f a740
00000150: 69af a23e 8b9d bdc0 2df2 2240 8447 8c40
00000160: bc61 1140 4e81 c83f 0865 a1c0 cbd5 96c0
00000170: 557a a43f 165a bac0 f058 5ac0 6093 02c0
00000180: 1903 c93f 1a7a a03f 94d2 06c0 73c7 b5c0
00000190: f89b aabe 15d6 10c0 1086 ad40 aa29 3440
000001a0: 43f8 c4c0 c4c7 da3f ccde 30be 8a1b 27c0
000001b0: 342f ac40 5492 96c0 e944 c93d b967 49c0
000001c0: ef4a 6240 1b00 2640 eb3d 2f3e c5e1 66c0
000001d0: 0a20 4ac0 6b0b 9fc0 21b7 f93f 2332 8c40
000001e0: 0777 25bf 84e9 c8bf ec18 b0c0 b6ca 9740
000001f0: 58c7 cc3e f53f b43d 4722 ad40 742a a640
00000200: 8043 8fc0 22fa abc0 cd6c 30c0 b76d 64bf
00000210: 9ec3 8e40 160e 34c0 08e7 2ac0 b903 92c0
00000220: 317e 9dc0 ee94 90c0 5221 3c3e ebd6 4540
00000230: 69f9 473f b60f b9c0 09aa 51bf 643b 27be
00000240: c3d1 1d40 eecd c5c0 acc1 a4bd 0626 3540
00000250: c3c8 6e3e 516a 62c0 0b69 6fc0 34cc 4c40
00000260: be05 1fc0 4ef0 cb40 4889 c4bf 891e 1040
00000270: 9935 d93f d3a6 44c0 04c6 bdc0 be4c 1440
00000280: ee7c 1d40 d2ba 6dc0 d901 ae40 9031 cfbd
00000290: 1099 1840 c707 1640 c6fd 8440 e134 d73f
000002a0: a345 9140 5be1 b93f c892 8f40 6439 5f40
000002b0: 63f8 9b40 8633 9a3f 5a71 23c0 57cb cebf
000002c0: 8c70 adc0 5829 8b3f e439 3c40 0a80 81c0
000002d0: 49df 7f40 0087 2440 0d7b 9d40 9f07 26c0
000002e0: 8a46 95c0 0c52 3a40 ade6 9cbf 54b0 253f
000002f0: 4191 c73f ac87 4ec0 2c1e 8540 77e9 9f40
00000300: a24c 5cc0 2bae 8fc0 40ca b5bf 0b83 9440
00000310: 4244 b3c0 62eb 9d3e 99a2 3bc0 c178 d93f
00000320: 7862 6c40 bf88 9ac0 eb68 99c0 68f3 803e
00000330: 01fa 0240 13ed b9c0 00ca 8940 fd6d 08c0
00000340: 9a79 43c0 8618 87c0 9d58 c53d 7f7a a1c0
00000350: 1024 9240 528e 9ec0 069b 40c0 c2a6 09c0
00000360: 11fa 51c0 ed22 8940 836b d33f 5fde 0ac0
00000370: ce29 9140 e910 96c0 c971 debe 4b4d 8b40
00000380: abda a140 c666 8540 831b b8bf 6817 fbbf
00000390: 5605 5ec0 7ba8 873f 354d 6bc0 aeac 49c0
000003a0: fac6 39c0 1294 0c3f 8148 1c40 815a 8dc0
000003b0: 12ce b3be b95a c440 87eb dfbe bb23 63bd
000003c0: fc06 9240 6daa 933e 0c32 a1c0 fe97 53c0
000003d0: 4d3a 49c0 116b 9340 632a e43c c024 8d40
000003e0: f3eb d6be 0693 3ec0 5a0e 93c0 7368 fbbf
000003f0: 9eb6 49c0 6450 52c0 0e2f 8dc0 dfb9 7440
-2.2342877 2.5029485 -6.614192 2.3060458 -4.9667573 -3.183185 4.147414 -1.2777854
-0.98181945 3.641981 -5.189047 -3.0117323 -0.6664606 -2.6911821 4.4950724 -3.1418374
-0.23730911 2.1386988 4.645738 -5.0037208 5.5221677 -2.2994096 1.0099304 3.6864717
-4.0630403 4.036962 4.4978375 -1.402361 -3.0604115 -4.5014567 -2.1393182 0.85613775
3.0938272 0.12936397 -5.7796044 0.7135525 -1.8086281 1.4147497 5.4424605 -2.2905958
4.6387005 1.3311722 1.3168027 -5.260606 -4.9564667 -0.86584044 -0.24373963 -5.070609
-1.2102168 2.7292523 2.4354641 5.844298 -4.8114324 4.616428 -3.2186987 0.8832483
4.62536 -1.6449559 3.7862217 4.2541075 3.1642852 5.509588 0.67394346 -1.3086213
-3.4955342 -1.6613398 5.42134 -1.6066589 3.7170208 -3.665502 4.7791176 2.4901493
2.0025902 2.6917455 0.756364 5.0062838 3.8622427 3.9880364 -0.9220693 4.386665
-4.6988506 -2.2874575 1.9385914 5.234289 0.31774452 -5.9254813 2.5460312 4.38373
2.2715902 1.5664461 -5.043583 -4.713598 1.2849833 -5.823497 -3.4116783 -2.040245
1.570407 1.2537262 -2.1066027 -5.680597 -0.3332212 -2.2630665 5.422615 2.815043
-6.1553054 1.7092214 -0.1727249 -2.6110559 5.380762 -4.7053623 0.09827597 -3.1469557
3.5358236 2.5937564 0.17113464 -3.6075299 -3.1582055 -4.970144 1.9509012 4.38112
-0.64634746 -1.5696263 -5.503042 4.743495 0.39995837 0.08801261 5.4104342 5.1926823
-4.4769897 -5.374284 -2.7566407 -0.8922991 4.461379 -2.8133597 -2.670351 -4.5629544
-4.921654 -4.51818 0.18372086 3.0912426 0.78114945 -5.783168 -0.8190008 -0.1633125
2.4659278 -6.181388 -0.080447525 2.8304458 0.23318772 -3.537739 -3.7407863 3.1999636
-2.4847255 6.373084 -1.5354395 2.2518637 1.6969482 -3.0726821 -5.930422 2.317184
2.46075 -3.7145276 5.4377255 -0.10116875 2.3843422 2.3442247 4.155978 1.6813012
4.5397506 1.4521898 4.4866676 3.4878778 4.8740706 1.2046974 -2.5537934 -1.6155804
-5.4199886 1.0871992 2.9410334 -4.04688 3.9980032 2.5707397 4.921271 -2.5942152
-4.6648607 2.9112577 -1.2257897 0.6472218 1.5591203 -3.2270308 4.159933 4.997249
-3.4421773 -4.4900107 -1.4202347 4.6409965 -5.6020823 0.30843645 -2.9317992 1.6989976
3.69351 -4.8291926 -4.7940574 0.25185704 2.046509 -5.8101897 4.305908 -2.1317132
-3.054297 -4.2217436 0.09636042 -5.046203 4.566902 -4.954873 -3.0094619 -2.150803
-3.2808878 4.2855134 1.6517185 -2.1698225 4.536353 -4.689564 -0.43446186 4.353185
5.057943 4.1687956 -1.4383396 -1.9616518 -3.4690757 1.0598291 -3.6765873 -3.1511645
-2.9027696 0.5491344 2.4419253 -4.417298 -0.35118157 6.1360745 -0.4373438 -0.055453997
4.5633526 0.28840962 -5.037359 -3.3061519 -3.1441834 4.6068196 0.027852243 4.410736
-0.4197689 -2.9777236 -4.595502 -1.964125 -3.151771 -3.2861567 -4.411994 3.8238447

decoder.bias f4 [256]
00000000: 4bb3 b8c0 c5af a0c0 3bfd f4bf 4d06 c540
00000010: ef4a 39c0 d45f 0fc0 32d3 c9c0 f5bc ec40
00000020: a441 6f40 c0bb 5e40 8551 93c0 09a5 08c0
00000030: 95a7 f8bf 60c2 94c0 e891 cdc0 dec1 88be
00000040: 8179 30bd 888e b4c0 8490 9140 d71f 94c0
00000050: b956 c6c0 b4ab c4c0 18ad a6c0 791c 18bf
00000060: c5e7 3d40 0c29 3240 9850 4a3f 6bf3 bcc0
00000070: 8915 ec40 8c8b d5c0 d0c7 bac0 5149 b7c0
00000080: 8f80 b7c0 30aa a6c0 248a 92c0 e5ff 0b41
00000090: fb30 afbe c83b d840 cb14 35c0 26f8 0cc0
000000a0: 4a42 12bf 5059 fe40 7baf cec0 7e16 d040
000000b0: 4cd8 89c0 df04 c0c0 5d89 0341 c891 96c0
000000c0: b26a b9c0 7b26 0240 93fd d8c0 94cd a2c0
000000d0: 39d2 57c0 66cf bfc0 318b b940 19cb f8c0
000000e0: 35b3 80c0 b05c bd40 8dfe f640 99a4 a340
000000f0: bbf6 b6c0 56c3 80c0 6585 fe40 2ede a9c0
00000100: 9f76 1f40 62d0 cac0 1c2b fa40 f954 79c0
00000110: e97d b9c0 bc6e 1ac0 cbf3 d440 bb02 9ac0
00000120: 312e 21c0 80b9 3540 c817 bcc0 1ef4 53bf
00000130: cb1a 70c0 4f89 fbbf c75e 46c0 227b ddc0
00000140: 1d68 74c0 c4d3 b8c0 b6ec bac0 cb34 d2c0
00000150: 0112 4840 dfa2 02c1 802c 923f cfd6 7940
00000160: 663f 89c0 3d59 83c0 998d a640 8a92 fe40
00000170: 4fd5 47c0 5643 a3c0 f292 97c0 8c11 d9c0
00000180: 1707 ab40 df15 adc0 5245 c13f 3fda 09c0
00000190: 80e1 bac0 41fc 56c0 1d14 07c0 2a31 4ec0
000001a0: 1272 41c0 21d2 0ac0 7922 47c0 61af 00c1
000001b0: b3b0 57bf 87e6 19c0 7c9b 093f 51d4 66c0
000001c0: 6218 acc0 be55 ad40 7ea6 ff40 0c6f 5940
000001d0: 60db 9dc0 922e cabf a826 96c0 503c 81c0
000001e0: 6dbb 8bc0 835a 9cc0 618b 63c0 4866 2c40
000001f0: 2078 0741 585c 6c40 c769 afc0 792b db40
00000200: 84ca 0241 9973 45c0 9c95 0141 de20 7fc0
00000210: a870 b0c0 d235 78c0 49b8 a9c0 964b c5c0
00000220: 96be b4c0 6a92 8140 9cd8 a1c0 6d5e 9ec0
00000230: 0343 a7c0 ba2d a9bf b9a3 87c0 4b37 fe40
00000240: e5f8 96c0 e367 c3c0 e75a c540 c591 0641
00000250: 5d7e 88c0 a976 aac0 57cc fe3f f05d cac0
00000260: a506 87c0 8b2d 2d40 9b27 e540 c5ee 8fc0
00000270: 1591 8ec0 91c4 d340 9c9a bec0 fe3f fdbf
00000280: e16f 4540 8d8f 5bc0 d47e ac40 b138 c1c0
00000290: a394 bf3d 41d0 3b40 70dd 04bf 3708 ba40
000002a0: 29e0 b2c0 f4e4 debf 958a c3c0 784a fd40
000002b0: e26d 0f3e 3f29 bac0 0d29 b73f d537 aa40
000002c0: 22f1 67bf e48a c4c0 f76d aac0 267b edbf
000002d0: dbbf a9c0 90f5 bbc0 087d 77bf 254c 57bf
000002e0: 1864 a4c0 6ce2 16c0 6f22 8cc0 d524 05c0
000002f0: c7be 6ec0 0bb1 5dbf 2ff0 bb3e 1077 a7c0
00000300: e491 583f 0565 513f ee6a 8cc0 e716 93c0
00000310: 1903 9fbf 3ccc 82c0 637a e340 b1da ae40
00000320: 43a5 8cc0 b261 70c0 702a 5bc0 9c8d 4fc0
00000330: 43f9 afc0 fb43 b740 e345 9740 900b e940
00000340: 9eff b2c0 b849 70c0 17e5 a740 2446 bcc0
00000350: e51c 96c0 a669 a3c0 0b4d 80c0 51a6 acc0
00000360: f223 e540 6fd8 8bc0 0e64 8dbf 386d adc0
00000370: c086 a7c0 b3cf b840 361c a1bf 97ad 96c0
00000380: 37fc 3bc0 73d0 b440 f123 353f 4d10 b840
00000390: 8d14 e640 8753 c0c0 c828 0441 bd88 34c0
000003a0: cfe4 17c0 8347 3bc0 a837 27c0 f1a2 933e
000003b0: 0e0f f540 1731 83c0 9fca c6c0 4123 68c0
000003c0: 574a ecbf 5ba7 8cc0 9fab d8c0 326f 3240
000003d0: fa4f 8dbf f3e6 8bc0 8021 eebf 0546 b2c0
000003e0: 5463 8ec0 13f6 43bf 2947 a4c0 d6d6 c1c0
000003f0: ecd9 82c0 4eaa 4ec0 f7bd b9c0 73a8 7dc0
-5.7718863 -5.0214562 -1.913978 6.157019 -2.8951986 -2.240224 -6.3070307 7.398066
3.7383814 3.4802094 -4.603701 -2.135073 -1.9426142 -4.6487274 -6.424061 -0.2671041
-0.043084625 -5.642399 4.548891 -4.6288867 -6.1980863 -6.14596 -5.2086296 -0.59418446
2.967271 2.7837553 0.79029226 -5.904714 7.377629 -6.6732845 -5.836891 -5.7276998
-5.734443 -5.208275 -4.579363 8.749974 -0.34217057 6.7572975 -2.829394 -2.2026458
-0.571324 7.9484024 -6.458921 6.5027456 -4.3076534 -6.0005946 8.221036 -4.7052956
-5.7942743 2.0335987 -6.780954 -5.087595 -3.372206 -5.994067 5.798241 -7.774792
-4.021876 5.9175644 7.718573 5.1138425 -5.7176185 -4.0238447 7.9537835 -5.3083715
2.491615 -6.3379374 7.8177624 -3.8958113 -5.79662 -2.4130087 6.65476 -4.8128333
-2.5184443 2.839447 -5.877903 -0.8279437 -3.7516353 -1.9651278 -3.0995347 -6.921281
-3.8188546 -5.7758503 -5.8413954 -6.5689445 3.1260989 -8.164763 1.141983 3.9037359
-4.288989 -4.1046433 5.204785 7.955388 -3.1223943 -5.1019697 -4.7366877 -6.783392
5.3446155 -5.40892 1.509928 -2.1539457 -5.840027 -3.3591464 -2.1106026 -3.2217507
-3.0225873 -2.1690753 -3.111479 -8.042817 -0.84253997 -2.4046953 0.53752875 -3.6067088
-5.3779764 5.4167166 7.9890738 3.3974028 -4.933029 -1.5795462 -4.692219 -4.0386124
-4.366629 -4.886049 -3.555382 2.6937428 8.466827 3.6931362 -5.4816623 6.8490567
8.174442 -3.0851805 8.099026 -3.986381 -5.513752 -3.878285 -5.3037457 -6.165477
-5.648265 4.049123 -5.0576916 -4.9490266 -5.22693 -1.321708 -4.2387357 7.9442496
-4.7178826 -6.1064315 6.1673465 8.410588 -4.265425 -5.326985 1.990611 -6.323967
-4.219561 2.7059047 7.1610847 -4.4978967 -4.45521 6.617745 -5.956373 -1.9785154
3.0849535 -3.4306366 5.390482 -6.0381703 0.09354522 2.9345858 -0.51900387 5.813503
-5.5898633 -1.7413621 -6.1106668 7.9153404 0.1400676 -5.817535 1.4309403 5.3193154
-0.90602314 -6.1419544 -5.3259234 -1.8553207 -5.30467 -5.873726 -0.9667516 -0.8410056
-5.1372185 -2.3575697 -4.3792033 -2.080373 -3.7303941 -0.8659827 0.36706683 -5.233284
0.8459761 0.8179477 -4.388053 -4.5965457 -1.242282 -4.087431 7.10869 5.4641957
-4.3951735 -3.7559628 -3.4244652 -3.2430182 -5.4991775 5.7270484 4.727281 7.2826614
-5.5937033 -3.7544994 5.246715 -5.883562 -4.691027 -5.1066465 -4.0094047 -5.3953023
7.160638 -4.37017 -1.1046159 -5.4195824 -5.235199 5.775354 -1.2586734 -4.70869
-2.937269 5.6504455 0.7075797 5.75199 7.1900086 -6.010196 8.259956 -2.8208458
-2.3733404 -2.9262397 -2.612772 0.28835252 7.6580877 -4.0997424 -6.212234 -3.6271517
-1.8460187 -4.395429 -6.77095 2.7880368 -1.1040032 -4.371942 -1.8603973 -5.5710473
-4.449625 -0.76547354 -5.1336865 -6.057475 -4.089102 -3.2291446 -5.804439 -3.9634063
