encoder_decoder.pth (torch, 11561 bytes, 3 tensors)

pre_embedding.weight f4 [256, 4]
000000 36 7f 62 40 c4 cf aa 40 9f e2 65 c0 17 07 e9 c0
       3.5390143 5.337862 -3.5919569 -7.2821155
000010 24 10 f1 c0 4e 41 d2 40 e7 2d e4 40 88 2b 22 3f
       -7.5332203 6.570472 7.1306033 0.63347673
000020 64 c2 db c0 98 9b d2 be 62 0e da 40 fc ad 90 c0
       -6.8674793 -0.41134334 6.8142557 -4.5212383
000030 5d 6b 22 40 ec 3a c8 40 ad c1 c5 bf b5 0b 07 c0
       2.537803 6.2571926 -1.544973 -2.1100895
000040 14 6a 0c c0 d4 c7 cb bf 3f f2 3d c0 e2 02 26 40
       -2.1939745 -1.5920358 -2.9679105 2.593926
000050 4e c6 09 c1 0c 75 14 40 7e 76 93 c0 77 72 a2 40
       -8.610914 2.319644 -4.6082144 5.0764728
000060 cd e2 ec bd 56 a6 97 c0 5d ff ad 3f 6f 8c da c0
       -0.11566696 -4.7390547 1.3593556 -6.829643
000070 3e 94 31 40 fa 3d e2 40 98 05 b0 c0 9a 47 be bd
       2.774673 7.0700655 -5.500683 -0.09291001
000080 27 1b 8a 40 0b 4b be c0 b1 39 0d bf 9a de 1b 40
       4.3158145 -5.9466605 -0.55166155 2.4354615
000090 6e 16 4a 40 d0 5e c4 c0 5c 4e bc 40 db f6 43 3f
       3.157619 -6.136574 5.8845654 0.76548547
0000a0 74 b8 3d c0 0a 00 d5 bf 99 c8 e2 c0 70 32 b1 c0
       -2.9643831 -1.6640637 -7.086987 -5.537407
0000b0 22 95 73 bf 62 2d d4 40 34 24 10 c0 37 62 51 40
       -0.95149434 6.63054 -2.2522097 3.2716196
0000c0 1b 0b d3 40 68 52 b5 40 b6 17 24 40 d2 73 43 3f
       6.5951056 5.6663094 2.5639472 0.763486
0000d0 26 fd c9 40 88 2a e2 bf 57 49 02 40 be 0f e3 bf
       6.312152 -1.766923 2.0357263 -1.7739179
0000e0 0d ab a2 c0 57 0a db bd d4 a5 27 c0 97 f0 2a 3f
       -5.08338 -0.106953315 -2.6194963 0.6677336
0000f0 1a ea 97 3e ea e3 b7 3f f3 11 fc c0 aa c3 b7 c0
       0.29670793 1.4366429 -7.877191 -5.742635
000100 0f de 16 40 f4 a7 7b bf b6 88 f9 3f f5 59 8e c0
       2.3573034 -0.9830315 1.9494846 -4.448481
000110 4a 39 a6 40 1d 4e 3d 3f e9 92 c6 40 8c 0a bf 40
       5.1944933 0.73947316 6.2054334 5.9700375
000120 b0 55 be bf 58 93 fe bf 56 b0 ab c0 1a 3a dd 40
       -1.48699 -1.9888716 -5.3652754 6.9133425
000130 34 25 5d c0 89 01 c7 c0 dd e1 be c0 0a a1 a5 c0
       -3.4553957 -6.2189374 -5.965071 -5.175908
000140 f7 b0 a9 c0 63 62 97 40 f9 60 f9 c0 fd ea 89 40
       -5.302852 4.73076 -7.7930875 4.309935
000150 4d 36 f9 c0 42 d3 d9 c0 63 4c 78 c0 ba 44 88 40
       -7.7878785 -6.8070383 -3.8796623 4.2583895
000160 2b 3c 4f c0 84 b4 a7 40 5a 94 ef 40 62 7c 0c c0
       -3.2380474 5.2407856 7.4868593 -2.1950917
000170 af 38 c8 bf 8c 98 bf be 2a 08 5a bf 48 20 d0 c0
       -1.5642298 -0.37421072 -0.8516871 -6.5039406
000180 26 22 78 c0 3b 0b 0f bf 5e b2 58 bf f9 68 13 c0
       -3.8770843 -0.5587651 -0.84647167 -2.303282
000190 bb 1e 5b 40 37 71 a5 c0 7e 5b 02 41 50 2b 4e c0
       3.4237506 -5.17007 8.147337 -3.2213936
0001a0 4f 84 c0 40 a2 22 99 bf 23 90 01 c0 12 0b c2 c0
       6.016151 -1.1963694 -2.0244224 -6.0638514
0001b0 27 ee 16 40 b6 4f 91 3f a5 52 9c c0 11 06 0d c0
       2.3582857 1.1352451 -4.8850884 -2.2034953
0001c0 16 78 ea c0 80 a4 8a c0 12 3c 99 c0 fd 17 69 c0
       -7.327159 -4.3325806 -4.788583 -3.6420891
0001d0 4e 76 0f be 5b 9a f0 40 a4 94 5c 40 b8 73 49 3f
       -0.14009973 7.518842 3.4465723 0.786922
0001e0 c7 5a ff c0 bc b7 72 c0 96 4b 85 40 fc ea ad c0
       -7.979831 -3.7924643 4.165477 -5.4349346
0001f0 5b 46 ba 40 19 92 b0 40 c7 9d 02 c0 cc 9c 78 3e
       5.8210883 5.517834 -2.04088 0.24278563
000200 3c fc bf 40 bd 26 f3 c0 d3 e1 b9 c0 37 f5 87 40
       5.9995403 -7.598479 -5.8088164 4.2486835
000210 03 0b bf 40 67 5e 4b 40 b7 30 69 bf 97 40 e2 c0
       5.970094 3.1776369 -0.9108996 -7.0703845
000220 bf 70 e5 40 84 d4 81 c0 3c 1f 30 c0 80 6b e8 40
       7.170013 -4.057192 -2.7519064 7.2631226
000230 99 aa e8 c0 39 fb db 40 04 aa 39 c0 1b 04 9e 40
       -7.270825 6.874417 -2.901002 4.938001
000240 6f 18 b7 3f 35 7f dd 40 79 b2 b2 c0 7d 35 de 40
       1.4304332 6.921778 -5.584286 6.9440293
000250 55 aa 7d 40 2e 2e 26 c0 bf 75 9b 40 82 2f 07 41
       3.9635212 -2.5965686 4.8581233 8.449099
000260 33 de 37 bf ce 92 ce bf a9 13 13 40 f2 0f b6 40
       -0.71823424 -1.6138551 2.298075 5.6894464
000270 30 1b ca c0 c3 f4 95 40 50 84 ba 3f a7 63 ae c0
       -6.315819 4.686128 1.4571629 -5.4496646
000280 fe 43 d1 40 62 1a dc 40 01 be db 3e 26 66 6c c0
       6.53955 6.8782206 0.429184 -3.6937346
000290 f4 87 c0 3f 77 61 24 c0 d0 d1 ca 3f 18 49 35 40
       1.504149 -2.5684488 1.584528 2.8325863
0002a0 61 69 f1 3f 73 b0 e4 bf 35 6e 4f bf aa 98 da c0
       1.8860284 -1.7866348 -0.8102754 -6.8311357
0002b0 a9 5d d9 40 f0 d4 98 c0 a4 f1 92 3f 50 33 b4 c0
       6.792683 -4.7759933 1.1479993 -5.6312637
0002c0 a5 e5 de 3f ec e3 9b 3f ee 06 7a 3f 9c 82 ba 40
       1.7413832 1.2178931 0.97666824 5.8284435
0002d0 15 1e d1 40 8e cf 04 c0 1d 7c f0 bf 83 20 c8 bf
       6.534922 -2.0751681 -1.8787876 -1.5634922
0002e0 63 5b 27 c0 e6 86 2b 40 3f fa 97 c0 78 4f 63 3e
       -2.6149528 2.6801085 -4.7492976 0.22198284
0002f0 4c 4e f6 c0 05 a1 f5 40 ef 9c 82 c0 bf 49 cd bf
       -7.6970577 7.6759057 -4.081657 -1.603813
000300 82 1a 07 c1 9c c5 61 c0 ac 83 15 bf 41 2c 8f c0
       -8.443972 -3.527686 -0.5840404 -4.474152
000310 77 81 6d 40 4c ca e0 c0 ac b3 d4 bf 09 cd d2 40
       3.711027 -7.0246944 -1.6617332 6.5875287
000320 a2 97 40 c0 a5 e3 c5 40 08 7c 8e bf 71 1f e6 c0
       -3.009255 6.1840386 -1.1131601 -7.191338
000330 0f 3d b5 c0 c1 4e 22 c0 59 f4 85 3f 97 cb 02 c1
       -5.6637034 -2.5360568 1.0465194 -8.174705
000340 bf 44 a7 c0 22 8c c2 40 7f 7a 6e 40 8d 65 c4 40
       -5.227142 6.079606 3.7262266 6.1373963
000350 9f d4 57 c0 ad 2d 77 40 a0 e1 0a 40 8c b3 89 3f
       -3.3723524 3.8621628 2.170021 1.0757918
000360 f3 33 97 40 3e 29 65 3f 6b 5a db 40 00 22 e4 c0
       4.7250915 0.89516056 6.8547873 -7.1291504
000370 c8 1d 81 c0 bf 99 b2 3f 07 3e b5 c0 e2 fb d7 40
       -4.0348854 1.395317 -5.6638217 6.7494974
000380 ba 94 bb bf 43 fa d2 c0 c4 b7 0e c0 23 e2 e3 c0
       -1.4654763 -6.5930495 -2.2299662 -7.1213546
000390 2c 92 32 c0 23 f4 b1 40 c9 a9 97 c0 3b 82 cf 40
       -2.7901716 5.561052 -4.7394757 6.4846473
0003a0 b4 63 2c bf cb 19 bc 40 9b e3 d7 c0 d5 59 38 40
       -0.67339635 5.8781486 -6.746534 2.880483
0003b0 51 0e c6 40 37 5f e0 40 f3 e3 a3 c0 9e 03 82 c0
       6.1892476 7.011623 -5.121576 -4.0629416
0003c0 a5 bb c1 c0 93 92 c0 c0 ca 45 10 40 9d 8c 91 3f
       -6.054156 -6.0178924 2.2542596 1.1371037
0003d0 32 f4 f1 40 2f 99 c8 c0 42 df 33 c0 ea 82 81 3e
       7.561059 -6.268699 -2.8105016 0.25295192
0003e0 ee e7 ac c0 fd 5d 90 40 ee 77 c7 40 cf d3 ca c0
       -5.4033117 4.511473 6.23339 -6.3383555
0003f0 f3 f5 d9 c0 4c d7 04 be 8d 2e dc c0 bf df e3 bf
       -6.811273 -0.12972754 -6.8806825 -1.7802657

decoder.weight f4 [256, 4]
000000 a5 e5 36 40 03 36 74 40 a9 d4 29 c0 ee df a3 c0
       2.8577664 3.8157966 -2.6536047 -5.121085
000010 c5 fc 8d c0 e0 b1 82 40 ab 43 8d 40 90 36 12 3f
       -4.4371057 4.0842133 4.4145103 0.57114506
000020 fe 02 92 c0 50 5b 4a be ae 40 99 40 8b 52 4c c0
       -4.5628653 -0.19761395 4.7891455 -3.192538
000030 ae 9e 2f 40 73 54 c1 40 59 7d b5 bf 1c 3f f5 bf
       2.74406 6.0415587 -1.4178878 -1.9159884
000040 83 1f 34 c0 78 c4 07 c0 11 8b 76 c0 8e d0 5d 40
       -2.8144233 -2.1213665 -3.852238 3.4658542
000050 71 a3 a6 c0 c4 e2 bf 3f 34 6b 46 c0 8f 46 87 40
       -5.2074513 1.4991078 -3.1002932 4.227363
000060 ad 1e 5e 3e 01 2c 80 c0 04 42 85 3f 85 2a b5 c0
       0.2169139 -4.0053716 1.0410771 -5.6614404
000070 37 8f 22 40 ed fc b8 40 1b f7 85 c0 d3 d6 53 bd
       2.5399911 5.7808747 -4.1864142 -0.051718544
000080 ee b6 71 40 5d e5 b0 c0 69 0c 95 be f8 09 0e 40
       3.7767901 -5.5279984 -0.2911103 2.2193584
000090 d3 7e 24 40 da 78 a7 c0 2a 67 8a 40 95 20 3b 3f
       2.5702407 -5.2335024 4.3250933 0.7309659
0000a0 81 a9 22 c0 2a 94 bc bf d0 d3 ac c0 38 71 8e c0
       -2.5415957 -1.4732716 -5.400856 -4.4513206
0000b0 8b 1c 23 bf 50 87 b5 40 51 b4 f9 bf e2 5d 5a 40
       -0.6371543 5.6727676 -1.9508153 3.4119802
0000c0 dd 33 b2 40 df 10 9c 40 e5 d3 f6 3f 65 ee 2b 3f
       5.568831 4.8770595 1.9283415 0.67160636
0000d0 7d db bb 40 b6 35 b6 bf de b9 ea 3f f7 07 ff bf
       5.870543 -1.4235141 1.8337972 -1.9924306
0000e0 22 98 a2 c0 1d 0d 8b be eb 08 3d c0 dc df 37 3f
       -5.081071 -0.27158442 -2.9536693 0.7182596
0000f0 88 8e 9f 3e b2 05 86 3f 8c 8a aa c0 10 ad 96 c0
       0.3116343 1.0470488 -5.3294125 -4.708626
000100 1a 03 3c 40 66 d0 a3 bf ee 5b 06 40 1b 7f a1 c0
       2.9376893 -1.2797973 2.099361 -5.046766
000110 dd 69 6c 40 67 17 49 3f f9 2b 96 40 bb a2 8b 40
       3.6939614 0.78551334 4.6928678 4.3636146
000120 da a8 b7 bf 5b 89 cf bf e3 7c 7c c0 c7 e4 c9 40
       -1.4348404 -1.6213793 -3.9451225 6.309177
000130 b2 f9 1b c0 0d 0f 89 c0 1d df 8b c0 ab 9a 71 c0
       -2.4371152 -4.2830873 -4.3709855 -3.7750652
000140 4f a8 58 c0 11 d5 3d 40 90 52 9b c0 9c 65 52 40
       -3.3852727 2.9661295 -4.8538284 3.2874517
000150 32 75 94 c0 71 25 87 c0 47 c8 25 c0 6f 15 44 40
       -4.639306 -4.2233205 -2.590349 3.0638082
000160 d7 60 14 c0 02 a4 7c 40 0b 6d af 40 9a ca bc bf
       -2.3184106 3.9475102 5.482061 -1.4749329
000170 b9 7f b6 bf db 35 c4 be ab 0e 87 bf a3 67 cc c0
       -1.4257728 -0.38322338 -1.0551351 -6.387651
000180 8c fa 99 c0 84 b1 1e bf 25 c9 b0 bf dd 5e 44 c0
       -4.8118343 -0.6198962 -1.3811384 -3.06829
000190 9c dc 0e 40 f9 e0 71 c0 2c 7f a2 40 c3 9a 17 c0
       2.232215 -3.7793562 5.078024 -2.368821
0001a0 c5 56 ae 40 42 f0 58 bf 66 bf e8 bf 78 77 a0 c0
       5.448092 -0.84741604 -1.818341 -5.0145836
0001b0 0e b1 35 40 b5 d2 93 3f 53 cd a3 c0 af ad 17 c0
       2.8389316 1.1548678 -5.118814 -2.3699758
0001c0 cc cb a3 c0 17 79 45 c0 cf d3 6a c0 d1 4d 2c c0
       -5.1186275 -3.0855157 -3.6691778 -2.6922495
0001d0 be 24 91 3e db cf be 40 b8 fb 56 40 a7 ce 85 3f
       0.28348345 5.962873 3.3591137 1.045369
0001e0 34 68 a1 c0 db 8c 30 c0 b3 4c 33 40 6a 2b 5b c0
       -5.04397 -2.7585971 2.8015563 -3.4245248
0001f0 14 36 b7 40 2a e5 95 40 31 ff dd bf cf 36 26 3e
       5.7253513 4.684224 -1.7343503 0.16231845
000200 df ab 6f 40 b1 e7 90 c0 db 68 69 c0 8b 6f 41 40
       3.7448652 -4.5282826 -3.6470249 3.022433
000210 6b 9d ab 40 e2 bd 1d 40 d0 84 41 bf 7d 50 9a c0
       5.362966 2.4647145 -0.7559328 -4.822325
000220 ef 97 98 40 20 62 3b c0 6b 1f 02 c0 ec f7 97 40
       4.7685466 -2.927864 -2.0331676 4.749014
000230 fe 63 89 c0 e0 1f 89 40 c8 16 e4 bf b0 c8 76 40
       -4.293456 4.285141 -1.7819452 3.855999
000240 44 ba 87 3f 08 0f 94 40 c1 5d 5f c0 a7 78 9f 40
       1.0603719 4.626835 -3.4900973 4.983478
000250 3f 98 2e 40 cd b2 fa bf c3 88 5c 40 ee f7 ad 40
       2.7280424 -1.9585816 3.4458473 5.436515
000260 7e a8 60 bf 6a b8 bf bf 6f 2a 19 40 13 3d c2 40
       -0.877571 -1.4978154 2.393215 6.0699553
000270 74 0c a7 c0 37 d8 65 40 ef 6c 81 3f 2c 51 87 c0
       -5.22027 3.5913217 1.0111369 -4.2286587
000280 b9 f3 ad 40 cc 03 96 40 dd b1 09 3e 0e b9 33 c0
       5.4360013 4.6879635 0.13446756 -2.8081698
000290 a5 49 02 40 36 68 53 c0 a1 af 05 40 70 2c 82 40
       2.035745 -3.3032355 2.0888445 4.0679245
0002a0 7d 26 f8 3f 2b 10 d4 bf 32 a0 30 bf ed d1 dd c0
       1.9386746 -1.6567434 -0.6899444 -6.9318757
0002b0 ea fa 94 40 ce 49 54 c0 72 ce 29 3f ba 94 94 c0
       4.655629 -3.3170047 0.66330636 -4.643155
0002c0 60 65 b8 3f 58 10 c4 3f 19 57 8b 3f 99 6e cd 40
       1.4405937 1.5317488 1.0885955 6.4197507
0002d0 9f 28 c4 40 bc 53 d0 bf 1e 6a fc bf c2 bd e1 bf
       6.1299586 -1.6275554 -1.9719884 -1.7636034
0002e0 74 76 25 c0 73 6f 23 40 f5 78 9d c0 78 6d ef 3e
       -2.5853548 2.5536773 -4.9210153 0.46763206
0002f0 64 9a 9c c0 80 c7 93 40 43 95 21 c0 8c 23 8d bf
       -4.8938465 4.618103 -2.5247352 -1.1026473
000300 ec de bc c0 5b e2 26 c0 10 7f 2c bf 93 9e 63 c0
       -5.902212 -2.6075656 -0.6738138 -3.5565536
000310 a3 ef 26 40 ed c0 a2 c0 5c dc 94 bf a2 31 a5 40
       2.6083763 -5.0860505 -1.1629748 5.1623087
000320 18 79 0f c0 26 a2 8b 40 fb 59 7f bf 97 77 a7 c0
       -2.241766 4.3635435 -0.99746674 -5.2333484
000330 58 75 87 c0 ce c7 ef bf f5 79 c3 3e f9 0d ac c0
       -4.233074 -1.873285 0.38178983 -5.3767056
000340 f8 8d 58 c0 f8 cd 89 40 44 70 2d 40 40 a7 94 40
       -3.383665 4.3063927 2.7099771 4.6454163
000350 b9 91 65 c0 93 9a 87 40 13 95 2b 40 7a 39 bc 3f
       -3.5870192 4.237619 2.6809738 1.470504
000360 be 05 66 40 ba ec 3e 3f df a9 8c 40 34 ad 92 c0
       3.5941005 0.74579966 4.395736 -4.583643
000370 5a 4f 49 c0 93 c1 7b 3f cd 9c 7a c0 a8 db b7 40
       -3.1454682 0.98342246 -3.9158204 5.7455635
000380 6a 04 5b bf 83 b6 98 c0 0f da f6 bf de 42 ad c0
       -0.8555361 -4.7722793 -1.9285296 -5.4144125
000390 6f 2c 05 c0 2f ff 77 40 4b 8e 4c c0 24 0e ab 40
       -2.080837 3.8749502 -3.1961849 5.345476
0003a0 80 6e de be e0 3a 88 40 11 62 a6 c0 19 12 24 40
       -0.4344368 4.257187 -5.199471 2.5636046
0003b0 08 04 99 40 01 5d 91 40 19 f7 51 c0 20 6f 30 c0
       4.781742 4.542603 -3.2807066 -2.7567825
0003c0 cb 70 a1 c0 2c 12 9f c0 c7 32 e2 3f 95 e9 88 3f
       -5.0450187 -4.9709682 1.7671746 1.0696284
0003d0 d0 40 b3 40 b6 dc 95 c0 66 62 05 c0 e4 ab 81 3e
       5.6016617 -4.6831923 -2.0841308 0.25326455
0003e0 be 5f 62 c0 46 dd 3a 40 5f 38 8b 40 29 63 81 c0
       -3.5370936 2.9197555 4.350631 -4.0433545
0003f0 9e fe a2 c0 17 32 09 bf 53 97 a3 c0 94 bf bd bf
       -5.093581 -0.53592056 -5.112222 -1.482409

decoder.bias f4 [256]
000000 b6 d4 84 c0 9d d2 b1 c0 8c df 92 c0 90 6a 81 3e
       -4.1509657 -5.5569596 -4.5897884 0.25276613
000010 20 2d c6 40 4b 79 a9 c0 bc 98 8d bd 98 44 a1 c0
       6.1930084 -5.2960563 -0.069138974 -5.0396233
000020 51 ad b2 3e 24 28 0a c0 78 de 9f c0 cb fd 67 3f
       0.34897855 -2.1587 -4.995907 0.9062163
000030 1e f4 8a c0 b1 b3 52 40 92 af df 40 90 e7 1c c0
       -4.3422995 3.2922175 6.990182 -2.4516335
000040 06 07 ae 40 ba 8c 73 c0 bf c8 90 c0 ff 18 ac c0
       5.4383574 -3.8054643 -4.524505 -5.3780513
000050 27 55 89 c0 a0 c6 88 c0 e2 30 32 c0 bd 8e 3b 40
       -4.2916446 -4.274246 -2.7842336 2.930587
000060 63 3b e8 40 e2 76 f7 bf d9 92 84 c0 a0 a7 9a 40
       7.2572494 -1.9333155 -4.1429257 4.832962
000070 1d d3 9d c0 2d 47 67 3f 8d 2c 77 c0 c4 6b 36 c0
       -4.9320207 0.9034298 -3.8620942 -2.8503275
000080 e7 95 b0 c0 15 7c 7c c0 fe aa ac c0 f4 8c 7c c0
       -5.5182986 -3.9450734 -5.395873 -3.946103
000090 1e d5 c5 c0 c1 4a 31 c0 2c e6 6f 40 65 84 df c0
       -6.1822653 -2.7701876 3.7484236 -6.9849114
0000a0 4f aa 96 c0 52 aa f5 40 ad 19 03 c0 d0 c2 4a c0
       -4.7082896 7.677041 -2.0484421 -3.1681404
0000b0 0f c4 4b 40 ef 6c 04 40 14 95 c1 40 0a 3e a1 c0
       3.1838415 2.0691488 6.049448 -5.038823
0000c0 1d 2e 92 c0 a7 85 cd c0 29 49 4f c0 77 19 12 c0
       -4.568129 -6.422565 -3.2388403 -2.2828043
0000d0 27 c0 a1 c0 cc 76 a4 40 6c 61 66 c0 38 af 90 c0
       -5.054706 5.1395016 -3.5996962 -4.521389
0000e0 b9 23 99 c0 b5 88 8e c0 55 d9 14 c0 de c8 e7 c0
       -4.7856107 -4.454188 -2.325765 -7.24327
0000f0 d5 91 38 c0 59 a7 b7 c0 34 e1 be c0 eb 8f 86 c0
       -2.883901 -5.739178 -5.9649906 -4.205068
000100 08 5e b7 c0 d9 9a be c0 94 4b ab 3f ae 69 0a 41
       -5.7302284 -5.9564023 1.338244 8.650801
000110 6c 53 53 c0 a5 e9 f5 3f 77 ce 88 be 45 eb 95 c0
       -3.3019667 1.9211928 -0.2672002 -4.6849694
000120 aa e4 6e c0 9d 21 a1 40 b8 6d a7 c0 71 5f 9d c0
       -3.7327065 5.035353 -5.2321434 -4.9179006
000130 83 61 fe bf c4 83 c1 3f a7 36 fc bf c5 5c 73 c0
       -1.9873508 1.5118337 -1.9704179 -3.8025372
000140 15 69 94 c0 f6 97 36 c0 fa f4 80 c0 34 13 b6 c0
       -4.6378274 -2.853025 -4.0299044 -5.689844
000150 3d 38 8f c0 55 71 9d c0 f5 68 b8 40 f7 0b 86 c0
       -4.475615 -4.9200845 5.762812 -4.1889606
000160 06 b0 9b c0 ea c3 fe 40 e0 af 63 c0 db 02 d8 c0
       -4.865237 7.9614153 -3.5576096 -6.7503486
000170 69 16 ba 40 f0 8b f1 c0 60 86 25 3f 51 05 7e c0
       5.8152356 -7.548332 0.64658165 -3.9690745
000180 30 2a 68 c0 54 23 a0 c0 8d 36 c6 40 15 f2 6c c0
       -3.627575 -5.0043125 6.194159 -3.7022755
000190 80 ac a2 40 c2 c5 97 c0 dc 53 6e c0 17 a9 07 c0
       5.083557 -4.7428904 -3.7238684 -2.1196954
0001a0 e0 a8 63 3f 7f 91 82 c0 5b 21 31 40 05 5d 95 be
       0.8892956 -4.0802608 2.7676609 -0.2917253
0001b0 20 db 8d 3f c5 f0 77 40 c0 0b ae 40 e0 28 b5 c0
       1.1082497 3.8740704 5.4389343 -5.6612396
0001c0 f5 d0 10 c0 fa 46 a1 c0 8c 44 06 41 dc 0d 16 40
       -2.2627537 -5.039914 8.391735 2.344596
0001d0 1e f5 93 c0 40 72 e5 c0 69 f9 78 3f fc 15 3a 40
       -4.6236715 -7.1701965 0.9725557 2.9075918
0001e0 59 6e 8d c0 59 51 07 41 ab 7c 5e c0 2c 58 7d c0
       -4.41972 8.45736 -3.4763591 -3.9585066
0001f0 b2 ff a7 c0 fb b2 fa 40 d3 77 d9 3f dd 78 3c 41
       -5.249963 7.834348 1.6989692 11.779508
000200 8b fc 00 41 f4 0a ad c0 1c 04 07 41 89 e2 6d c0
       8.061656 -5.407587 8.438503 -3.7169516
000210 62 a1 ad c0 a3 f3 92 c0 24 ab b6 be 1c e7 7b be
       -5.42595 -4.592241 -0.35677445 -0.2459988
000220 3d 92 2f c0 50 09 88 c0 d9 b8 2b 40 a5 6f 64 c0
       -2.7433007 -4.251137 2.6831572 -3.5693142
000230 38 0d a8 bf ca 00 bb 40 89 b4 c6 bf be 50 ab c0
       -1.3129034 5.8438463 -1.5523845 -5.353606
000240 fa 2b c6 be bb 4d dc 40 63 d1 01 41 7b be 73 40
       -0.38705426 6.8844886 8.11362 3.808501
000250 02 37 37 c0 e8 83 91 c0 bd a0 79 3d ae c1 bc c0
       -2.8627324 -4.547352 0.060944308 -5.8986425
000260 85 38 6d c0 9a a8 06 41 00 da 18 41 63 d3 6b 40
       -3.7065747 8.4161625 9.553223 3.684777
000270 d3 bb 68 c0 95 15 b3 c0 9b 70 92 3f 44 0b 93 c0
       -3.6364639 -5.5963845 1.1440614 -4.595125
000280 a9 69 be c0 91 e7 77 c0 7d 42 65 40 28 9e 88 c0
       -5.950398 -3.8735087 3.5821831 -4.269306
000290 e7 4e 0e 40 69 5d 2d bf 2b fd 3c c0 d3 ff 72 c0
       2.2235658 -0.6772066 -2.9529521 -3.7968643
0002a0 69 a9 02 41 f1 3f cb c0 00 32 86 bf e0 1b 04 c0
       8.16636 -6.3515553 -1.0484009 -2.0642014
0002b0 c8 b5 a6 c0 da 7b 4b c0 fa 5a af c0 b2 a0 5f c0
       -5.20969 -3.1794343 -5.4798555 -3.494183
0002c0 cc 9f 21 40 db ca 86 c0 36 50 79 c0 02 30 a4 c0
       2.5253782 -4.2122626 -3.8955207 -5.1308603
0002d0 51 77 28 c0 42 ad 8c c0 39 37 a0 c0 f4 4b 9f c0
       -2.6322825 -4.3961496 -5.006741 -4.9780216
0002e0 27 68 e5 40 60 e6 c6 3f 83 e2 fe 40 53 57 ec c0
       7.168964 1.5539055 7.9651504 -7.3856597
0002f0 11 6f 2e bf 7f b5 e2 40 57 c9 ec 40 5a ce 39 bf
       -0.68138224 7.0846553 7.3995776 -0.7258049
000300 6c 00 ec c0 90 73 bc c0 a9 ee 90 c0 04 05 8b c0
       -7.3750515 -5.8891068 -4.5291333 -4.3443623
000310 19 31 53 40 8d aa c3 c0 6b 9c 3a c0 35 eb 1d c0
       3.2998717 -6.114569 -2.915797 -2.467481
000320 0d 8c 6c c0 23 1b c5 3f fe b6 8c c0 f3 74 b2 bf
       -3.696048 1.5398906 -4.397338 -1.394194
000330 00 4a d1 c0 78 b4 de c0 97 7d a1 c0 f3 d6 7c c0
       -6.540283 -6.95953 -5.046581 -3.9506195
000340 99 e4 30 c0 c7 55 8a c0 95 44 08 c0 64 e4 19 40
       -2.7639525 -4.322971 -2.129186 2.4045649
000350 d3 f3 1c bc 53 f9 82 3f ec d0 0e 3f 6b ca 0e 41
       -0.009579617 1.0232338 0.5578754 8.924418
000360 5f 1f 8f c0 5f 9c 81 c0 11 8a 5b c0 db a9 8e c0
       -4.4725795 -4.0503383 -3.430302 -4.4582343
000370 84 6c 7c 40 e0 31 97 c0 d6 47 02 41 0d cb 04 c0
       3.9441233 -4.7248383 8.142538 -2.0748932
000380 56 a5 32 bf 0e c7 3c 3e 44 3c 0e 41 7f de 44 c0
       -0.6978353 0.18435308 8.889713 -3.07608
000390 e2 76 eb 40 97 ce 95 bd c6 cc e6 40 3d 61 a4 40
       7.358262 -0.073147945 7.2124968 5.13687
0003a0 f5 04 de 40 5c b0 ec 40 eb ff 7b c0 c1 8b 3b c0
       6.938105 7.3965282 -3.937495 -2.930405
0003b0 69 68 5a 40 a7 a4 7b 3f 11 7a ae 40 6e 9b 9f c0
       3.4126227 0.98298115 5.4524007 -4.9877234
0003c0 1c 82 0d 41 d4 a5 fb c0 a2 15 9a c0 d3 9d 58 3d
       8.844265 -7.8639927 -4.8151407 0.052884888
0003d0 bd 6c 77 bf 38 04 a9 c0 f3 f1 b8 3f d2 7b 8d c0
       -0.96650296 -5.281765 1.4448837 -4.421365
0003e0 e0 2e 12 c0 4c 95 76 c0 76 ba 38 c0 13 53 96 c0
       -2.284111 -3.8528624 -2.8863807 -4.697641
0003f0 7f e0 c6 c0 f0 9a 25 bf 51 e4 9b c0 2d b6 18 c0
       -6.2149043 -0.6468954 -4.8716207 -2.3861191
