lang_model.pth (torch, 336053 bytes, 10 tensors)

adaptor_1.0.weight f4 [128, 256]
00000000: dfbd 963d ab6c 023e aa88 fe3b fae6 2abe
00000010: 4f89 2a3e a4b6 4e3d 8b70 2e3e fc82 5bbd
00000020: 422a 35bd 96b4 503e 3587 4e3d 0c6c 9dbd
00000030: 2940 993c fedd 8b3c 9257 163e 7083 11be
00000040: 319e 8fbe 3c9a 393d 345c a2bd f2bd 163c
00000050: 8d3e dcbc 5c6b a3be 9036 dbbd 96e1 21be
00000060: 6fd2 033e a0bb debd 7097 42be 2a24 44bd
00000070: 9c64 63bd 9d63 acbd fa93 93bd d5ca 9dbe
00000080: c6ff 853e 4209 a23b fbee 0f3e 1410 643d
00000090: a9bc bfbd 0ca8 a73c 1d5e 603d bee0 82be
000000a0: 89b5 b53e 74f0 d6be 3596 a63d 797d 26bd
000000b0: 50d5 76bd 548c da3d 7878 bc3d c1ef 853e
000000c0: d783 adbc 46ab e53d 474a 003e 7b29 133b
000000d0: f97a 2a3b 989a cebc 8fe9 d9bd ae06 6f3e
000000e0: a5bd 8fbc c8c6 92bd 0b73 a6bd b7da 523b
000000f0: 051e 02be 4a3f 713d 959c ecbc 4d76 073e
00000100: 9c82 093d 15fc ca3d 2f12 2d3d 78fa 5abe
00000110: a24b a23c cb05 7cbe f138 893e b4e0 bd3d
00000120: 74b8 f4bd 8fac 43be 17b9 943e 34de da3c
00000130: 63a5 0dbe 166f cd3c 880b 13be bc76 ba3d
00000140: f9e3 4a3e 3933 fabb abc6 953c 5ba1 913c
00000150: ab90 2a3a 1e7c ca3d 1661 eabd 8b00 593e
00000160: eb56 0bbe ed83 0a3e d9b7 ef3c 4162 1c3e
00000170: 060a 2d3e 4253 89bd 5091 10be 5570 09bd
00000180: 7221 10be 1b74 cfbd 3036 0fbb 1342 1bbe
00000190: c383 183e a5eb 38be 6ef3 613e e795 d33d
000001a0: b273 123e 15c0 7b3e 93d2 013d 1fb6 61bd
000001b0: 6b4b 92bc 2aa2 803e d486 033d 7621 87be
000001c0: 854b 9b3b 7405 37be a270 a5bd 39c1 7abd
000001d0: 9bfe 143d d1f7 aabd df0c 52be 033d 173c
000001e0: 8555 773d b622 02bf d3ac e73d bf6b 203a
000001f0: 0ad2 6bbd 8cde f53d 1ebf c2bd 0e67 d13d
00000200: 5e3f 69be 785f 05be 48ea 9dbe 2795 d43d
00000210: 3a22 11be d282 913c de22 30bd 289d bdbb
00000220: 6f08 4e3d ed62 063e 7712 283e 8126 22be
00000230: 00d8 f83d 2033 3e3e 0b3b 22be cf31 edbd
00000240: c023 4d3e fa7b 283e 1d5f 2b3e 463d a2ba
00000250: 4359 413b 9b44 53be d3a5 2e3b b45f 23be
00000260: 2abf e0bd 690e 503e 8ded 383c f9f3 9a3c
00000270: 5321 38be bba0 a03c 9b8e 9d3d 7209 3fbe
00000280: ed96 febc 9d98 80bd d5c9 283e 7637 aabd
00000290: 9a26 83be 2c29 fa3c c4e1 12be f9e0 0ebc
000002a0: be5f 44be 4e25 44be ad51 b43e 0590 173e
000002b0: b7e8 82bd 92db 9dbd 072e 5dbd d0e4 a53e
000002c0: 3c4e 21bd 3325 10bd 2bcd c13d 29e7 39be
000002d0: afac 3a3e 07da 0cbe a62c 373e 822c 2d3e
000002e0: 6820 6d3e fee4 e73e 18e7 aaba 40a4 44be
000002f0: e9b6 b4bd 8a9c 0b3e dbc5 ddbd 3ee4 19be
00000300: d76a 923e 62ee 323e 7b63 04bd 62db 803d
00000310: 739b c53d 783f 2b3d 9ebb c93d 556a 94be
00000320: 5588 4f3e 2a89 edbd e221 99be 4fef 2cbd
00000330: 0365 9abd 0d9a 49be faf7 e43d 5e18 35be
00000340: 6821 bc3d 11fe 643e cbba 843e a845 cd3d
00000350: 8128 a3bc 7c53 b9bd c5c6 d83c 1791 2a3d
00000360: bd2a a0bd 55df 08bc b3f4 9cbe 293b 583e
00000370: 93b4 74bd 0c5e 853c a394 cdbb cf28 a43a
00000380: 0f07 0bbe c11e 113e 3b23 843d 4459 9c3e
00000390: 6ce1 323e 583b a13e 601f 6e3e 8740 76b9
000003a0: 43ec acbc 2cbc 80bd 051b 323e 46da 3fbe
000003b0: 2dcb a4bd dcf5 b13b b71c 9c3c 2c32 fb3d
000003c0: 28ff 92bd 3f87 10be 490a 2b3e cc61 3a3d
000003d0: b804 16be 13e0 f63d 3e75 ec3d 3948 d1bd
000003e0: 266f 64bd b3ba d6bd d7e1 d5bd 997b e3bc
000003f0: 5267 e13e cb87 3cbe 68b3 15bf 179a 44bd
0.07360434 0.12736766 0.0077677565 -0.16689673 0.16653942 0.05046715 0.17035119 -0.053591713
-0.044229753 0.20381388 0.050421912 -0.07686624 0.018707352 0.017073628 0.14681843 -0.14210296
-0.28050378 0.045313105 -0.079277426 0.00920056 -0.026885295 -0.31917846 -0.10703766 -0.1580871
0.12873243 -0.108756304 -0.19003081 -0.04788605 -0.05551587 -0.08417437 -0.07205959 -0.3081881
0.26171702 0.0049449513 0.14056008 0.055679396 -0.09362156 0.020465873 0.054777253 -0.2556209
0.35490063 -0.41980326 0.081341185 -0.040647004 -0.060262024 0.10671297 0.09202665 0.2615948
-0.02118103 0.112143084 0.12528335 0.0022455144 0.0026013239 -0.0252202 -0.10640251 0.23342392
-0.017546484 -0.07166821 -0.081274115 0.0032173821 -0.12706764 0.058898248 -0.028883258 0.13228722
0.033571824 0.09911362 0.04225367 -0.21384609 0.019811455 -0.24611585 0.26801255 0.09271374
-0.11949244 -0.19108795 0.29047462 0.026717283 -0.13832621 0.025077384 -0.14359868 0.09104678
0.19813527 -0.0076355007 0.018283209 0.017777136 0.00065065426 0.09886955 -0.11444299 0.21191613
-0.13607375 0.13526888 0.02926247 0.15271856 0.16898355 -0.06705333 -0.14117932 -0.033554394
-0.14075258 -0.10129567 -0.0021852367 -0.15161924 0.14894013 -0.18058641 0.22065517 0.10331326
0.14301947 0.24584992 0.03169496 -0.055105325 -0.017858228 0.2512372 0.032111004 -0.26392716
0.0047392272 -0.17873174 -0.08078124 -0.061219428 0.036375623 -0.083480485 -0.20512722 0.009230855
0.060384292 -0.50834215 0.113122605 0.0006119571 -0.057573356 0.12005338 -0.09509109 0.10224734
-0.22778079 -0.130247 -0.30842805 0.10380011 -0.14173213 0.017762575 -0.043002002 -0.0057865568
0.05030101 0.13123675 0.16413294 -0.15835 0.12150574 0.1857419 -0.15842836 -0.11581766
0.20033169 0.16453543 0.16735502 -0.001237788 0.0029502667 -0.2063164 0.0026649132 -0.15954477
-0.10973962 0.20317997 0.011287105 0.018915163 -0.17981462 0.019607892 0.076932155 -0.18655947
-0.031077826 -0.06279109 0.16483243 -0.083113596 -0.25615388 0.03053721 -0.14343935 -0.00872063
-0.19177148 -0.19154856 0.35218564 0.14801033 -0.06392043 -0.07707895 -0.053998973 0.32401133
-0.03938125 -0.035191726 0.09462961 -0.18154587 0.18229936 -0.13755046 0.17888126 0.1691151
0.23156893 0.45291895 -0.0013038842 -0.19203281 -0.0882395 0.13633934 -0.108287536 -0.15028474
0.28597137 0.17473748 -0.032321434 0.06291844 0.0964879 0.041808575 0.09850238 -0.28987375
0.2026685 -0.115984276 -0.29908663 -0.04222041 -0.07538798 -0.19687672 0.1118011 -0.17685077
0.09186059 0.22362544 0.25923762 0.100230515 -0.019916775 -0.090491265 0.026461968 0.041642275
-0.07820652 -0.008354028 -0.3065544 0.21116318 -0.05974252 0.016280197 -0.0062738224 0.0012524369
-0.13576911 0.14171888 0.06452032 0.30536854 0.17468804 0.31490588 0.23254156 -0.00023484426
-0.021108752 -0.06285891 0.1739312 -0.18735608 -0.08046565 0.00543092 0.019056661 0.12265429
-0.071775734 -0.14114092 0.16703142 0.045503423 -0.14650238 0.120544575 0.115458 -0.102188535
-0.055770062 -0.10484829 -0.10443466 -0.027768897 0.4402414 -0.18411176 -0.5847688 -0.047998514

adaptor_1.0.bias f4 [128]
00000000: aa14 01be aee9 1d3d 8578 4ebd 24d4 90bb
00000010: 8ffd 8d3d 0d87 a5bd a843 f9bc f327 be3d
00000020: 77ce e53b c3e6 dfbc 45a2 d8bb 4cb6 963c
00000030: 6d3a de3c 0e2f 1fbd 2ce5 bfbd cd5c 8a3c
00000040: 5f9b b0bc 1619 173c 890a babd 0530 3c3d
00000050: dd45 5c3c c7f1 523c b99a 383d 4603 8a3d
00000060: 8232 a5bc 13b3 9cbc 9126 ca3b 2599 a83c
00000070: 92f9 463d 8c5e 413d 35e8 3c3b a4b0 d53c
00000080: 4799 e83c f2e3 6abd 9c1f 78bd 335b 883c
00000090: a78b 81bd 42dc 9abc 84a0 77bc 5b45 a8bd
000000a0: 2012 86bc 8055 163d 8064 773d cfc9 8f3d
000000b0: dca1 eb3c 3ea8 30bd ec79 78bd 4ef8 8b3d
000000c0: 01e6 193d 0cb6 e43c 0338 71bd aecb 7b3d
000000d0: fcb4 a13c 1123 773d f605 c9bc 11d6 83bd
000000e0: 14d6 16bc 8c5b 3fbd 8d8d 053d 1aa7 dc3d
000000f0: e9f2 85ba edc3 f73c 1f31 073c 4c10 663c
00000100: db29 b2bd 0557 3b3d 7907 ac3c 88dc 6c3c
00000110: ac10 8dbb 4570 0f3d 22d6 e5bb 0a1c 653c
00000120: 3250 5ebd 9d5c cc3d c6a7 abbd cd48 a4bd
00000130: 44f0 913b d298 d7bd 42c2 5cbd 40d2 36bc
00000140: 00d2 e5bd 18dd 753d b7e0 79bd 7443 87bd
00000150: 18a1 9abd 220a 06bd f13f 35bc 8cde 69bd
00000160: 06a8 b1bb cda1 2ebd 21b2 d53a c233 bd3c
00000170: 38a0 bbbd 12f4 003c f9ab 1b3c 9796 2cbd
00000180: 4c5a dd3b e691 fbbd 88db f03c 7460 95bc
00000190: 85bd 95bd 3e14 ba3c 1856 05bd 0cc5 a53d
000001a0: 620a b0bc 45f8 893d 6faf 44bd ff03 d33c
000001b0: 4c30 913d 72f8 80bd ee68 abbd 79c4 4dbd
000001c0: d9c2 0f3d 2212 83bc 5a39 b5bd f398 51bb
000001d0: ae5b aebd 96c8 62bd 6aa1 893d 7778 833d
000001e0: 770c 97bd 0d96 85bd b897 36bd 0e7e c63d
000001f0: 839b c73c be01 2bbc 8c65 bcbb b50b 90bc
-0.12605539 0.038552932 -0.050407905 -0.0044198204 0.06933128 -0.080823995 -0.030427769 0.092849635
0.007013138 -0.027331715 -0.006611141 0.018397473 0.027127469 -0.038863234 -0.09369883 0.016889954
-0.021558462 0.00922229 -0.09084041 0.045944232 0.013444391 0.012875027 0.04506943 0.067389056
-0.020165686 -0.019128358 0.0061691483 0.020580838 0.048577853 0.047209308 0.002882493 0.026085205
0.0283934 -0.05734629 -0.06057702 0.01664505 -0.06325465 -0.018903855 -0.0151139535 -0.082163535
-0.016366065 0.036702633 0.06039858 0.07020914 0.028763704 -0.0431292 -0.06066315 0.0683447
0.037572864 0.027918838 -0.058891308 0.06147354 0.01973962 0.060336176 -0.024538975 -0.06437314
-0.009206314 -0.046718165 0.032605696 0.107740596 -0.0010219488 0.030244792 0.0082514575 0.014041971
-0.086993895 0.045737285 0.020999657 0.014456876 -0.004304966 0.035019178 -0.007014052 0.013983736
-0.0542757 0.09978602 -0.083816096 -0.08021698 0.0044536907 -0.10527195 -0.053896196 -0.011158526
-0.11221695 0.060025305 -0.06100532 -0.066046625 -0.075502574 -0.032724507 -0.011062608 -0.057097003
-0.0054216413 -0.042634774 0.0016303697 0.02309597 -0.09161419 0.007870691 0.009501451 -0.0421358
0.006755149 -0.12283687 0.029401556 -0.018234469 -0.073115386 0.02271473 -0.03255281 0.08094224
-0.021489326 0.06736807 -0.04801887 0.025758741 0.0708929 -0.06297387 -0.08369623 -0.0502362
0.03509793 -0.015999857 -0.088488296 -0.0031982034 -0.0851358 -0.055367075 0.067202404 0.06419461
-0.07375424 -0.065227605 -0.044578284 0.09692012 0.024366146 -0.010437427 -0.00574941 -0.017583707

mlp.0.weight f4 [128, 128]
00000000: 205a 9c3d bcdf 10bd 9bfb 663d 250d d6bd
00000010: fe47 fabc 0400 b53d 82ce ac3d 1d66 5dbd
00000020: 464c 893b 36d0 07be bcc7 433c ff28 58be
00000030: f78c 7bbe b37b a53e 7265 acbd 32e7 7c3e
00000040: b089 2fbe 2b3d f8bd 6be1 71be 7579 70bb
00000050: bb66 383e 06a0 4ebe 23cb e23c 0548 97bc
00000060: ee06 ba3d 639d 05be 2ff2 8b3e 214c 363e
00000070: 6e22 e2bb b423 5e3d 4c69 1d3e d949 3a3e
00000080: 08c3 973e 5f9e 033c 3230 1ebe 6306 33be
00000090: 686b 88bd c695 b33b 27c5 b13d 1163 413d
000000a0: f9ae b8bd 49b4 0bbd b9a1 7fb9 e537 05be
000000b0: 8be0 fc3d e70f 40bd 3abd a7bd 7464 49bd
000000c0: 7809 d4bd 7694 48bd 60b5 de3c 65f8 51bc
000000d0: 3576 79be e8a9 5d3c 8b17 e6bd e147 22be
000000e0: b97f c43d c715 e2bd 7d61 d4bc 747e ae3b
000000f0: f201 093e 8330 39be 45a8 2fbe 3108 00be
00000100: 9234 d53c d297 11bd 9cff 063e bf62 ac3c
00000110: 74f8 8a3c 30eb 6fbe 6906 f23d 1320 3b3e
00000120: 0248 b73c cfff 243d 9f65 e3bd f2ef 4a3d
00000130: 820f 00be 4429 9bbd 921b dcbb 826b a53d
00000140: c571 203e 0678 963d 4a57 40bd 2928 543e
00000150: fcfe 993d 7859 99be 23f3 dcbd 477f b73d
00000160: 85ed 24bd 3332 bdbd 9051 3cbd ddb6 5d3e
00000170: a4df 08bc 2d50 0a3d 94ee 993d 1f47 acbc
00000180: c631 dfbd 9b73 01be 9627 c33d e4d8 6bbb
00000190: 94b5 f6bd 8277 983d c054 df3d 8f31 09bd
000001a0: edc6 923c 60f3 79bd b8f2 103e 0d69 e0bc
000001b0: 7473 01bd b175 efbd 376d 63be 6898 debc
000001c0: 97c4 a63d 9d20 1dbe e778 843d 9f4c 80be
000001d0: 7375 49be 7390 44be 1167 8a3e 0a65 45be
000001e0: 8889 853d 3e3d d6bc 4cfd 9c3e d872 b53e
000001f0: 72a3 e03d cd19 203e 25a4 dfbd 8fcf ffbc
00000200: dcb1 ae3d 5c9b 7fbe 2078 b13d a1bd ff3b
00000210: 38fc 113c e840 f13d acd3 4dbe 5c9a 463d
00000220: 8462 9bbd bf8d c6bd 5357 ae3e f37e 3f3d
00000230: eb18 01bb e41a 793d 86db 26bc c33d f53d
00000240: 3489 d4bd 9dfe 0a3e db0a b03c 6db5 f73d
00000250: 5e6d 42be 6dcd 223e fb31 373d b314 2e3e
00000260: 0b52 6d3e 2a01 d7bd a0ec 003e f499 16be
00000270: 9497 c3bc c331 b1bd e93f 37be c3c8 553d
00000280: dd9a 513e bc26 06be 856a 933c 2cac 32bc
00000290: 2777 a5bc 368a c53b 089b 5f3d 9289 803d
000002a0: 6160 07bc d216 193e a528 413d a0d7 0bbc
000002b0: 489b b73d 67b5 11be 7786 973c fe71 8bbd
000002c0: aa21 673d a429 94be 9058 0d3d 9ff2 1fbe
000002d0: c27e f7bd 0bdf 9e3d 15af 543c c9f9 2c3e
000002e0: 9d41 c13d f81c 0abd 5305 bbbe 99a2 f4bd
000002f0: f86e 44be c699 693c 4bcb f03d 0c94 10be
00000300: 4aa6 d1bc 1b0b 85be 1498 b73b ca0e 2b3e
00000310: 1abc 313d e18b 2ebd 0cab d6bb f232 8bbc
00000320: b7ed 40bc 2e1b 053d 4da9 853d 0d75 da3c
00000330: 7eae 0a3e 20d5 ea3d 5d97 a6bc 20e5 d73d
00000340: 7584 85bd 49fe b8bd 7456 43be 4856 713d
00000350: cfc6 b63b 8f31 ac3d 7fec 19be d88d 2bbe
00000360: 23ee ba3b 5a64 7cbe b7c3 98bc 10a7 e03d
00000370: 62fa 9fbe ebaa 3f3e b6ca c33c 4491 3c3e
00000380: 3b30 713c c31e 97bb a619 113e 733a 9abc
00000390: 7e98 30be 9733 68bd a84d a73c 0402 7e3d
000003a0: ae90 e6bb a55d 1b3e 4b2c fd3d dd5e 7fbc
000003b0: bd31 59bd 059c 24bd 16ff 6ebe 6d23 3cbd
000003c0: beb9 80bd 1d7a f83c 478b e43d 8fb7 0bbe
000003d0: 65e7 25bd 3b18 f43d 3223 843d 01e9 dbbd
000003e0: 979b 763d 2a79 88be ed0c e5bd ea6b bc3d
000003f0: 0ce1 f73d 6da7 3f3e b494 123e 7018 213d
0.076343775 -0.03536962 0.056392293 -0.10451726 -0.030551907 0.088378936 0.08437826 -0.05405246
0.0041900007 -0.1326302 0.011949476 -0.21109389 -0.24565493 0.32320938 -0.08417787 0.24697569
-0.17142367 -0.12121042 -0.23621146 -0.0036693488 0.18007939 -0.20178232 0.027684754 -0.018466959
0.09083353 -0.1304832 0.2733321 0.17802478 -0.006901077 0.054233268 0.15372199 0.18192233
0.29640985 0.008033364 -0.15448073 -0.17482905 -0.06661111 0.005480501 0.08680182 0.047213618
-0.090177484 -0.03410748 -0.00024378941 -0.13009603 0.12347516 -0.046890166 -0.08190389 -0.049168065
-0.103533685 -0.04896971 0.027186096 -0.0128155695 -0.24361499 0.013529278 -0.11234959 -0.15847732
0.09594674 -0.1103931 -0.025925392 0.005325133 0.13379648 -0.18084912 -0.17154033 -0.12503125
0.026026044 -0.035545178 0.13183445 0.02104318 0.016964175 -0.2342956 0.11817629 0.18273954
0.022373203 0.04028302 -0.11103367 0.049545236 -0.12505916 -0.0757623 -0.006717154 0.08077146
0.156684 0.073471114 -0.046958245 0.20718445 0.075193375 -0.29951072 -0.10788562 0.08959823
-0.04026558 -0.0923809 -0.04597622 0.21651788 -0.008354101 0.033767868 0.07516208 -0.021030007
-0.108981654 -0.12641756 0.09529035 -0.0035987431 -0.12046352 0.07444669 0.10904837 -0.03349453
0.01791712 -0.061023116 0.1415509 -0.027393842 -0.031604245 -0.1169237 -0.22209631 -0.027172282
0.08142965 -0.15344472 0.06468373 -0.25058457 -0.1967371 -0.19195728 0.27031758 -0.19276825
0.06520373 -0.02615225 0.30662 0.3543918 0.10968675 0.15634842 -0.1091998 -0.031226901
0.08530018 -0.24961609 0.0866549 0.007804588 0.008910231 0.11779958 -0.20100278 0.048487052
-0.0758715 -0.09695005 0.34050998 0.046751928 -0.001969869 0.06081666 -0.010184174 0.11974671
-0.10377732 0.1357369 0.021489551 0.12095151 -0.18987033 0.15898676 0.0447254 0.17000084
0.23175828 -0.10498269 0.12590265 -0.14707166 -0.023875989 -0.086520694 -0.17895474 0.052193414
0.20469232 -0.13100713 0.017995128 -0.010905307 -0.020198418 0.006028439 0.05459121 0.062762395
-0.008262725 0.14950112 0.047157902 -0.008535296 0.089651644 -0.14229356 0.018496735 -0.06808852
0.05642859 -0.2893802 0.034508288 -0.15619896 -0.12084724 0.07757386 0.012981196 0.1689216
0.09436343 -0.033719033 -0.365275 -0.119450755 -0.19182956 0.014257854 0.11757525 -0.14118975
-0.025591988 -0.25985035 0.005602846 0.1670486 0.04339228 -0.042613868 -0.006551152 -0.016992066
-0.011775426 0.032496624 0.06526432 0.026667142 0.13543126 0.114664316 -0.020335848 0.10541749
-0.06519405 -0.09032876 -0.19075948 0.058920175 0.005577899 0.0840789 -0.15031622 -0.16753328
0.0057046576 -0.24647656 -0.018648012 0.10969365 -0.31245714 0.18717544 0.023900371 0.1841479
0.014720972 -0.0046118214 0.1416994 -0.018826699 -0.17245671 -0.056689825 0.020422772 0.06201364
-0.00703629 0.15172441 0.12361964 -0.015586582 -0.05302595 -0.040187854 -0.23339495 -0.045932222
-0.062854275 0.030331666 0.111593775 -0.13644241 -0.04050388 0.11918684 0.064520255 -0.10737801
0.060206976 -0.2665494 -0.11184106 0.092002705 0.12103471 0.18716212 0.14314538 0.039329946

mlp.0.bias f4 [128]
00000000: ba92 c03d e0ab ce3d 2253 203c c642 c73c
00000010: b52b ac38 569d 1f3d 9bbb 23bd ebfe ed3c
00000020: 78dd 703d 5884 9fbd 463a 863c 691a 793c
00000030: 5de0 b6bd 5604 00be 751e b63d 1ea1 babb
00000040: 01c8 753d ab93 babc 16cf e73d cd70 793d
00000050: fb20 b0bd 443c 8b3c 941c 0c3b 64d8 a63d
00000060: f742 83bc c1ea 723b 28ed 083c fbb7 bf3c
00000070: cccc aabc 7735 b2bd 47d5 31bd 9253 febc
00000080: 394b 79bd 568d a8bd 79bf 223d bb03 debc
00000090: f018 d9bc 7c77 4f3c ad2b 43bd 7711 2b3d
000000a0: 7395 b1bd 8571 4abc 836b 273c 06a4 8cbd
000000b0: 3d84 3a3c 2f4b a83d ecfa 3ebd e025 e53d
000000c0: 931a ca3b 4fa5 4f3c e3a2 173b 3a28 62bc
000000d0: aa79 10bc ab70 a53d 0484 c7bc fcfb c53c
000000e0: f65d 62bc 9d68 03bd 2018 553d 2c06 bfbd
000000f0: ffbf 913d d71e 8bbb 43b9 ebbc ed38 c73d
00000100: ff13 9abd 4c81 9c3d 5932 443d 989d b4bd
00000110: 8935 0bbd 8f94 153e 0786 d9bc b436 24bc
00000120: 2c08 a5b9 2e38 c43c 51f4 c9bd 254c 77bd
00000130: c926 f1bd 3df9 2dbc f08b a93d ef29 88bd
00000140: 5f92 853d bcbe 64bd 5af7 e6bc 7c35 213d
00000150: 6c80 513b 2812 313d e3fb 053d fe2a 093d
00000160: 9eac 8ebd 2833 073e 2dc3 c7bd 77a5 7e3d
00000170: 35c2 a43d f113 4fbd f091 2fbc dec8 b0bd
00000180: 2a5c 62bd 6d83 853d dde8 33bd 2f7d c5bd
00000190: a8b1 be3d 4282 363d 883b 05be 46fe b23c
000001a0: 626f e13d 2475 6dbd fa87 14bd 6fa7 27be
000001b0: 0162 da3d 28ec ea3b 600e 7d3d 6c90 6cbd
000001c0: 5ffd 67bd aafa efbc 4e04 54bd b80d d43d
000001d0: 5ae6 6fbd a365 dfbd 42fa 92bd b89d 183d
000001e0: 3ee4 18bd 4aba 683d 4011 df3c a4aa c0bd
000001f0: e56f 17bd 07b7 28bd 830f a6bd 42a6 543c
0.09402986 0.10091376 0.009785445 0.024323832 8.20974e-05 0.038968407 -0.039973836 0.029052218
0.05880496 -0.077889144 0.016385209 0.015204051 -0.08929513 -0.12501654 0.08892528 -0.005695476
0.06000519 -0.022775492 0.113187954 0.06089859 -0.086000405 0.01699651 0.0021379339 0.08146742
-0.016023142 0.0037066194 0.008357324 0.023403158 -0.020849608 -0.08701604 -0.043416288 -0.031045709
-0.060862754 -0.08230083 0.039733384 -0.027101388 -0.026501149 0.012662765 -0.047649074 0.041764703
-0.08671083 -0.012356167 0.010218504 -0.068672225 0.011384067 0.08217465 -0.046626016 0.11188865
0.0061677187 0.01267369 0.002313786 -0.013803536 -0.0088180695 0.0807813 -0.024354942 0.024168007
-0.013816347 -0.03208219 0.05202496 -0.09327349 0.071166985 -0.0042456198 -0.028774863 0.097276546
-0.07523345 0.07641849 0.047899578 -0.08819121 -0.033986602 0.14607452 -0.026553167 -0.010022808
-0.0003147734 0.02395257 -0.09861053 -0.06037535 -0.11774976 -0.010618505 0.08278644 -0.06648623
0.06522059 -0.05584596 -0.028194118 0.039357647 0.0031967415 0.043230206 0.03271092 0.033488266
-0.06966518 0.13203108 -0.09754024 0.06216952 0.080448546 -0.050556127 -0.010715947 -0.086320624
-0.055263676 0.06519208 -0.043923248 -0.096430175 0.09311229 0.044557817 -0.1301099 0.021849763
0.11007573 -0.057973042 -0.03626249 -0.16372465 0.10663224 0.0071692653 0.061781287 -0.05775492
-0.056638118 -0.02929433 -0.051761918 0.10354179 -0.05856929 -0.109080575 -0.07176639 0.037259787
-0.037327044 0.056818284 0.027229905 -0.09407547 -0.036971945 -0.041190173 -0.081084274 0.012979092

mlp.2.weight f4 [128, 128]
00000000: 0b19 e13d 2bb7 31be 9549 3dbd b872 e7bc
00000010: b831 28be f881 983d 2cf1 bfbd cd8f a53c
00000020: ae50 433e 6d23 b1bd 12da 9e3d 38cb 333c
00000030: aefa a5bc 0a6e f1bd 9842 b73d bffb 0abd
00000040: 9723 edbd f918 113e 7577 e2bb 60d2 b1bc
00000050: 2fae 89bc 01a3 f2bd 04fe 963d 7368 203e
00000060: f5d3 cd3c d8be 313d 383a 073d 8bc8 91bd
00000070: 70b1 493c 92a2 283e 7db2 b43d 7ae1 d03c
00000080: 5aa7 5cbd c498 ab3d de96 0c3e bf92 2c3e
00000090: 0853 343d a92c 233e 34dc 8d3c 6a17 033c
000000a0: c291 7fbd e87c d8bb 22fc 7ebd f2a3 c6bd
000000b0: ab39 6e3d 2958 58bd 86bc 043d 24c8 50be
000000c0: a6be 323e 6703 2bbe 1778 a4bd 4c84 b9bc
000000d0: 280b 323d 8f8f 00be 3fec 933d e5bc 18be
000000e0: c933 bf3d cdb1 023b ba9d 30be 1d92 733c
000000f0: e542 38bd f9fd 0bbe f1d4 89bd d077 a53d
00000100: 3001 fa3c c372 a7bd 02cf c5bd 17c6 68bc
00000110: 470c 753d 8566 0b3d b1f8 18be 1320 50bd
00000120: 3d0c 29bb aa5f 9bbc 5ef7 efbc bf9b d5bd
00000130: f82c 123d d84e 5abb 428b f73c 96a7 3bbe
00000140: 55d1 323e 9249 29bc 4c54 febb 75f8 143b
00000150: eb7c 68be 4c1c 723d 9b82 bfbd 0507 703c
00000160: 0f7b 79bd fbbe 68bd beb1 5bbc 4ca6 13bd
00000170: d976 1f3e 16dd 3fbd dae9 9ebc 03d8 4f3d
00000180: 58f6 c7bc 7f15 103d e763 2ebd 610f eabc
00000190: 1c43 393d 22ee a3bd 68ac b0bc 05fd 2a3e
000001a0: a262 7bbd c895 08bd 85f7 e4bc 1905 87bd
000001b0: 4360 2dbd bbf2 dd3d 1284 febd 62ab 9f3d
000001c0: 7085 df3d 065f e0bd 5c37 bebd f47e 94bd
000001d0: b998 7cbd 9b10 fcbb c75e 023e 8906 1e3e
000001e0: 2221 1f3d deb5 84bd 875b 02be 3262 eaba
000001f0: 7566 b23d dce7 763c 79f0 a23b 14f0 e1bc
00000200: 76b5 a43d 30b3 a33e 4019 943d 67b2 05be
00000210: aa3f bc3d 759b 6c3e c713 75be 03ed 4d3d
00000220: 3026 dabd 7f82 16be 9386 02be fb3a 2c3e
00000230: d8e4 2bbe bb6b a4bd 81f1 103d 7b98 23be
00000240: 1f8e 8c3d acb3 5fbd e486 453e 6e73 163e
00000250: d13b 64be 525a 213e 245b fdbd 0ffd 813d
00000260: 945d 2d3e 5af9 41bc a72a 0abc eb76 a33d
00000270: 9c83 12be 86e6 97bb fc41 d4be 120c de3d
00000280: 5a1e 14bd 45bd 52be b08c 9fbc 406d 08be
00000290: 587b 133e 430f 033e 99a6 9ebe ea45 f73c
000002a0: fd61 0dbe 0950 00bc 4134 04be 97aa 26be
000002b0: 9e55 65bd 658d 173e 83e4 903d 6a21 b33d
000002c0: f984 b33d e19f 82bc e2c9 10bd 0fef abbd
000002d0: 4fec e7bd da46 0a3e 0383 0cbe a367 393e
000002e0: 9aa7 18be f0b1 b13d ecc3 1c3e 1681 263e
000002f0: 40aa 46bd cde0 7c3c aab7 423d 2813 903d
00000300: 11e0 613e 2f44 f33d 3ec9 62bc 9af5 163e
00000310: 3a93 b43c afae d0bd 94a7 93bd d4d2 153d
00000320: 6375 9bbd be9c 47bc b1a9 853d 51cb 98bd
00000330: 6d74 cf3c 564b 323e 7ffe 65bd 9dce bbbd
00000340: e052 103e bf01 dcbd 33c6 313d b6fe 1d3e
00000350: c1ba d4bd aeee e0bd 0194 22be c403 d23d
00000360: 9ea5 d2bc 481a 7a3e 26e0 053e 96b2 363d
00000370: 74ef 8d3c 966a 8ebb ea3e 383d 2f59 dd3c
00000380: f773 4cbe 746d 95bd 054f b83e 07fe 4fbd
00000390: a243 43bd 703a 3a3d d5bd 123d b25c abbd
000003a0: 0f42 1abd bdcf ea3d 58a6 45be 8d44 fdbd
000003b0: 0044 783e cdea ac3c 9349 55bd d963 813e
000003c0: cc7a a3bd d44e 7e3d 3416 6f3d 5b08 a13c
000003d0: c03f 10be 1966 aabd 2ac5 6bbe a4ce c93d
000003e0: 8503 21bd 6be0 2cbe e9b9 7cbc 2a12 c2bd
000003f0: 0e27 cfbd 0417 803c 41f7 9abd ef63 af3d
0.10991105 -0.1735503 -0.04621275 -0.028252944 -0.16425216 0.074466646 -0.09372172 0.020210171
0.19073746 -0.08649335 0.07756437 0.010973744 -0.020261135 -0.117885664 0.089482486 -0.03393149
-0.11579054 0.14169683 -0.006911213 -0.02170676 -0.01680669 -0.11847497 0.073726684 0.15664844
0.025125483 0.043394893 0.033014506 -0.07118329 0.012310371 0.16468266 0.088231064 0.02549814
-0.053870536 0.08378747 0.13729426 0.16852854 0.044024497 0.15935005 0.017316915 0.008001188
-0.062394865 -0.006606687 -0.06225217 -0.09699239 0.058160465 -0.05281845 0.032406352 -0.20388848
0.17455539 -0.16700517 -0.08030718 -0.022646092 0.04346767 -0.12554763 0.07222795 -0.14915808
0.09336049 0.0019942403 -0.17247668 0.014866379 -0.04498567 -0.13671102 -0.067300685 0.08079493
0.030518144 -0.08176186 -0.09658624 -0.014207385 0.05982616 0.034033317 -0.14938618 -0.05081184
-0.0025794648 -0.018966515 -0.029292759 -0.10430097 0.035687417 -0.0033311155 0.03021777 -0.18325648
0.17462666 -0.010332482 -0.007761514 0.00227311 -0.22703902 0.059109017 -0.09351083 0.014650111
-0.060908373 -0.05682276 -0.013409076 -0.036047265 0.1557268 -0.046841703 -0.019398618 0.050743114
-0.024409458 0.03517675 -0.042575743 -0.028571786 0.045230016 -0.080044046 -0.021566585 0.16698082
-0.06137336 -0.033345968 -0.027950058 -0.06592769 -0.04232813 0.10837313 -0.12427534 0.077963606
0.10914123 -0.10955624 -0.09287903 -0.07250777 -0.061669085 -0.007692409 0.12731467 0.1543218
0.038849957 -0.06480001 -0.12730227 -0.0017882048 0.087109484 0.015069928 0.004972514 -0.027580298
0.080424234 0.31972647 0.072313786 -0.13056336 0.091918305 0.23106177 -0.23933326 0.05027486
-0.10651815 -0.14698218 -0.12746648 0.16819374 -0.16786516 -0.080283605 0.035386566 -0.15976135
0.06863045 -0.054614708 0.19289738 0.1469247 -0.22288443 0.1575711 -0.12370899 0.06347095
0.16930228 -0.011839235 -0.008433021 0.07981666 -0.14308017 -0.004635635 -0.41456592 0.10842146
-0.036161758 -0.20580013 -0.019476265 -0.13322926 0.1440252 0.1279879 -0.3098648 0.030184705
-0.13806911 -0.007831582 -0.12910558 -0.16276012 -0.055989854 0.14800031 0.07074835 0.087466076
0.08765597 -0.015945377 -0.03534878 -0.08395206 -0.11324369 0.1350359 -0.13721852 0.1810594
-0.14907685 0.08676517 0.15309113 0.1626018 -0.048502207 0.015434456 0.047538437 0.07034904
0.22058131 0.11878239 -0.013841925 0.14742127 0.02204286 -0.10189568 -0.07209697 0.036578014
-0.07590749 -0.012183366 0.06526507 -0.074606545 0.02532407 0.17411551 -0.05615091 -0.09170268
0.14094114 -0.107425205 0.043401908 0.15429196 -0.10387183 -0.109830245 -0.15876772 0.102546245
-0.025713738 0.24424088 0.13073787 0.044603907 0.017326094 -0.004346202 0.044981875 0.027020065
-0.19966112 -0.07296267 0.35997787 -0.05077937 -0.04767192 0.045465887 0.03582557 -0.083672896
-0.037660655 0.11465404 -0.19301736 -0.12366591 0.2424469 0.021108055 -0.05207212 0.2527149
-0.07982406 0.062086895 0.058370784 0.019657305 -0.14086819 -0.08320255 -0.23024431 0.09853867
-0.039309997 -0.16882484 -0.015425184 -0.09476121 -0.10114871 0.015635975 -0.07566691 0.08563983

mlp.2.bias f4 [128]
00000000: 9029 8f3d 1715 753e f4f0 b63c f189 57bd
00000010: 1018 503d a928 c6bc 2606 16bb 3f7d 113e
00000020: e9df 4ebe 6699 8d3c 546d 153e ba79 8dbb
00000030: 7c05 63bc 1e21 2b3d b5c3 febc 10fc 863d
00000040: a28a 41bd d3ba cdbd f043 193d cdc9 6dbe
00000050: c658 80bd 8e81 1fbd 9f6e 4fbe 5f55 9b3c
00000060: 85a8 553e 9a9c 43bd 5547 69bd 6231 a8bd
00000070: adf1 d8bd 6f38 373c 5946 7abc 5f5f 8ebd
00000080: c7fb de3c e1a3 df3b f705 603d a3a1 99bd
00000090: 3a77 81bd a001 9c3c f3dd 043e d583 f83d
000000a0: 6cc6 0abe 4f64 fe3c 81de 90be 3cf4 79be
000000b0: 6de9 203e 8559 7abd cdd5 0fbe ae0a e23c
000000c0: 3ef6 c93d 3e2b 713d 33a1 393d 3da5 6dbd
000000d0: 5106 e7bc dcd0 083e 1d9e 9a3c a757 11be
000000e0: 35bd 813e b1fe a5bd b0c8 083d bc8e bdbd
000000f0: bbb5 543c 5ad9 eb3d c8d3 1d3e c77a eebc
00000100: 21e4 29be 96ee 9c3d 7549 e1bd c922 82bd
00000110: 6e33 3a3d cd2d 8fbd b07e f4bc ef26 7cbc
00000120: a84e 89bd 2b4d 6e3d a74c ee3c 8b8c 98bd
00000130: 27e6 dfbd c695 883d 105a 083d 2c53 073e
00000140: 4be7 bebd 19d9 3bbc 39aa 3d3e 5467 03bd
00000150: 1e74 a03d 2ba6 973c b205 eebc 7502 493e
00000160: 2feb a03d 2198 8ebd 2fc1 1abe 3c6d 3cbd
00000170: dc8c ddbd d01a 973e c4c3 f8bc f908 34be
00000180: 105e 01be a02d d13d 59e1 b2bd 6bc8 0bbd
00000190: cf7b ac3d a123 9dbd 1c11 223d 4cf5 673b
000001a0: ab0a 623c aacf a3bd 24a3 30be 4ec9 813c
000001b0: ec00 1b3e ecc6 973c be8d 623d 52e6 053e
000001c0: 395a 9f3d c836 dd3b 1fd1 043d 7f1c 48bd
000001d0: 8a50 083e ea55 b0bd 4b10 9f3d c19f 8dbd
000001e0: 0ad5 06be 8e6d 2d3c f7c8 19bc cc30 583e
000001f0: 2d65 1cbe 5daa 5dbd 0157 c33c 74ec 9c3d
0.06990349 0.23933826 0.022331692 -0.052621786 0.050804198 -0.02418931 -0.0022891848 0.14207934
-0.20202602 0.01728506 0.14592487 -0.0043174895 -0.013856288 0.04177963 -0.03109918 0.06591046
-0.04725135 -0.100453995 0.037418306 -0.23221512 -0.06266932 -0.038941912 -0.20257042 0.018961607
0.20865066 -0.04775677 -0.056952793 -0.08212544 -0.10592971 0.011182888 -0.015275561 -0.06951784
0.027219666 0.006824956 0.05469319 -0.07501533 -0.06321569 0.019043744 0.12975292 0.1213452
-0.13552254 0.03105369 -0.28294757 -0.24409574 0.15714045 -0.06112053 -0.14046402 0.027592983
0.0986142 0.05887913 0.045319747 -0.05801891 -0.028201254 0.13360924 0.018874222 -0.14193593
0.25339666 -0.08105219 0.033394516 -0.0925574 0.012982781 0.11516066 0.1541282 -0.02911128
-0.1659093 0.07662694 -0.11000339 -0.06354291 0.045459203 -0.06991158 -0.029845566 -0.015390142
-0.067044556 0.05817906 0.029089285 -0.074486814 -0.1093257 0.06669192 0.033289015 0.13215321
-0.093214594 -0.011465334 0.18521966 -0.032080963 0.078346476 0.018511852 -0.02905545 0.19629844
0.07857358 -0.0696261 -0.15112756 -0.04600261 -0.108178824 0.29512644 -0.030366786 -0.17581548
-0.12633538 0.102137804 -0.08734388 -0.03412668 0.08422052 -0.07672811 0.039567098 0.003539401
0.013796489 -0.07998593 -0.17249733 0.01584306 0.1513707 0.01852747 0.055310957 0.13076141
0.077808805 0.006750915 0.032425996 -0.0488553 0.13311973 -0.08610137 0.077667795 -0.06915236
-0.13167205 0.010585202 -0.009386293 0.21112365 -0.1527297 -0.05411755 0.023845198 0.07662287

mlp.4.weight f4 [128, 128]
00000000: d9d7 6dbd a3e1 47bd b80f a43d 4037 9bbd
00000010: 2116 cc3d 00a6 1a3d 823a d3bc cd43 44bd
00000020: 4202 08bd 26c6 a5bd 87f2 09bd 280c 57bc
00000030: 5037 dfbd 5501 9a3c 9132 dfbd 6300 79bc
00000040: 03bf b6bc 9d19 a33d 7518 ee3c eb21 c2bd
00000050: e6ac 7abb 4f0a e13d 8889 7b3d 9ff8 053d
00000060: 651b 423e cc68 0c3e fef5 53bb 9384 08be
00000070: a7cd 113e 5a8f 4e3e dd07 88bd f439 6abd
00000080: c4dc 6a3b eb32 2fbe 83d3 bdbd 216e 6fbd
00000090: bb2d babd 296b 043d 8721 ddbd a8fe 033b
000000a0: 5cdd 5e3d 4ca1 d83d 730d 213c f8c5 38be
000000b0: a9c2 93bb daa6 47bd a136 1f3e b5af 173c
000000c0: cee0 c7bd fdaa f0bc 0f18 d6bd fae1 2bbd
000000d0: 97e4 8f3d 133f cdbd b179 7d3c d26f 9ebd
000000e0: 08ab 0bbe 4da8 bf3c 7aae ab3d e98e 05be
000000f0: e840 603d 54ef a63d 563a a3bd fd7d 8e3d
00000100: ae94 df3d 5638 2f3d 361a 123e 1aeb 92bd
00000110: b210 54bd d44c e93c beb4 71bd 7f14 6a3c
00000120: 1352 f9bd 07f5 7f3d c1f4 18be 333b fa3d
00000130: 8372 80bd 9ded 2c3d f5fe 2f3c 1ece 063e
00000140: 0c3b 1c3e 8c4a c13c d9f5 243e 19f5 c23d
00000150: 93f4 7d3d 9b6a 903d f209 c03c 1681 0bbe
00000160: ce34 cebc f8af 6abc ad3a 0d3e c7a5 833c
00000170: cc59 d03b b8b4 d73d 35e2 c63d 7ba5 13be
00000180: 2fa9 9a3d dfcb b5bd 746e e7bb 4140 4b3c
00000190: d59d 88bd 100c 103d e727 303c 08b0 4f3d
000001a0: 73ea 2c3c 7e2d 0e3d 02a7 c33d d361 f3bc
000001b0: cdd5 9fbc 40bd 1d3e 2b81 cd3d d9da cfbb
000001c0: 4f6b 273c 6679 9f3d a04c 113e 00fb 533d
000001d0: 5508 3f3d 3349 343e e389 fbbd 4d46 cd3d
000001e0: 4096 fb3d f7d5 ccbc a44b d9bc aaf4 80bd
000001f0: a65e b73d c018 6f3c 9c02 fe3c 9c56 683d
00000200: 7cfb 3abe b926 b93d 11aa 973d 8723 90bd
00000210: 3d2b 663d 8052 483e 4695 553d 7af4 543d
00000220: c47b 8fbe ee6b ca3d 0cc9 7c38 51f0 89bd
00000230: 32b4 633d e99d 4f3d 3ac7 4cbc f3fb 843e
00000240: 259d 1a3e bcab 623d 53aa e6bd ea37 0aba
00000250: c4f7 ddbc 8d94 933d c8d7 c2bd 36c2 f7bd
00000260: bdaa 1e3d f1cc 9339 61c9 62ba c52e b83d
00000270: 8755 e1bd 4a0a 98bd 0b92 d13c 0b3c dfbd
00000280: 2865 1fbd e799 2abe 9ad4 d23c cf78 e43c
00000290: c951 1c3d 2d0f 363e 73fb 0a3e be72 863c
000002a0: b287 26be a3f3 a7bd 10b3 c8bd cefd d5bc
000002b0: 9f48 e73d e4b5 153b 239a 63be f8b4 0a3c
000002c0: cbbe 303d 37e4 943d 1e46 8dbc 4484 493e
000002d0: ff64 61bd 0b03 bd3d 592e e03d 3a32 87bd
000002e0: ac6d 43bd befe 87bc 6a8e c4bd ddce 10be
000002f0: 25a7 42bd 9807 773e 9af6 073d ce4c 0cbe
00000300: 28bf 93bd 5f09 ec3d 3164 e1bd 06c7 46bd
00000310: 3e64 0bbb ba67 f03c e527 9a3d 5b87 16bd
00000320: da8a c03d eac7 e73d 2e49 cd3d b189 fe3b
00000330: 8756 1c3e 2957 dd3c 77fb b43d da05 ec3c
00000340: b90b 3e3c de91 ad3d 38a7 2ebe 809a 423c
00000350: c3db a83d bae5 253e 89fb 4d3b 448c 583c
00000360: 1ea7 993c 70b6 403e 656d 013e 44c6 a2bd
00000370: ef4b f8bc 6854 1fbc 7e1c 66be a666 6f3d
00000380: 7ef0 f83d 22b3 f4bc 2c1a 52bd 2671 8dbd
00000390: 2f95 053e 68e6 0a3e 8b5b a2bd 8a8f 21be
000003a0: a949 20bd 3b1e 0c3d 5e02 acbd e79d a4bd
000003b0: 0c4e c7bd b150 393c 0614 81bd a985 1f3e
000003c0: cdc5 393c 85e3 aa3c 8aaa c9bd 55c9 39bd
000003d0: cb3b 023e 6d8a 2ebe bac1 153e 0fb5 dfbd
000003e0: daea 153d 069c dcbc 872a 5e3a bb52 dc3d
000003f0: 42d1 623d 064b a93c e5cd 01bd ed5e eebc
-0.058067176 -0.04879917 0.080108106 -0.075788975 0.09965158 0.037755966 -0.025784735 -0.047916222
-0.03320528 -0.080944344 -0.033678558 -0.013125457 -0.10899222 0.018799463 -0.10898317 -0.015197846
-0.022307878 0.0796387 0.029064396 -0.094791256 -0.0038250028 0.10988294 0.061410457 0.032707807
0.18955763 0.13711852 -0.0032342668 -0.13331823 0.14238606 0.20171872 -0.06642125 -0.057184175
0.0035837153 -0.17109267 -0.09268858 -0.058454636 -0.09090754 0.03232876 -0.107974105 0.00201408
0.054410324 0.1057764 0.009829867 -0.18044269 -0.0045092893 -0.048743106 0.15548183 0.0092582
-0.09759675 -0.029378409 -0.104538076 -0.041963555 0.07026022 -0.10021796 0.015470908 -0.07736172
-0.13639462 0.023395682 0.08382888 -0.13042797 0.0547494 0.08151117 -0.07970111 0.06957624
0.1091703 0.042778336 0.14267811 -0.07173748 -0.051773734 0.028479017 -0.05901026 0.014287113
-0.121738575 0.062489536 -0.14937116 0.122183226 -0.062718414 0.042218793 0.010741939 0.13164565
0.152569 0.023595117 0.16109408 0.09519405 0.062000822 0.070515834 0.023442242 -0.13623461
-0.025171664 -0.014324181 0.13791914 0.01607026 0.006358361 0.10532516 0.09711114 -0.14418595
0.075518005 -0.08876776 -0.0070627276 0.012405456 -0.06670729 0.035167754 0.010751701 0.050704986
0.010553944 0.034711353 0.095533386 -0.029709732 -0.019511128 0.15404224 0.100344025 -0.0063432273
0.010218455 0.07786827 0.14189386 0.051753044 0.046638805 0.17606048 -0.12282159 0.100231744
0.12284517 -0.02500437 -0.026525326 -0.06296666 0.089536 0.014593303 0.031007104 0.056723222
-0.18259996 0.09040589 0.074054845 -0.07038026 0.05619358 0.19562721 0.05214431 0.051990964
-0.28024113 0.09883867 6.026872e-05 -0.0673529 0.05559177 0.050687704 -0.012498671 0.25973472
0.15099008 0.05533956 -0.112629555 -0.0005272614 -0.027095683 0.07206068 -0.09513813 -0.1209759
0.038737047 0.00028190718 -0.00086512236 0.089932956 -0.11002641 -0.074238375 0.025582334 -0.10900124
-0.03891483 -0.16660272 0.025736142 0.027889637 0.038163934 0.17779227 0.13572483 0.016412135
-0.16262701 -0.08200767 -0.097997785 -0.026122 0.11293148 0.002284401 -0.22226767 0.008465998
0.043150704 0.07270091 -0.017245349 0.19679362 -0.055027958 0.09229096 0.1094634 -0.06601377
-0.047712013 -0.016600963 -0.09597476 -0.14141412 -0.047522683 0.2412399 0.033194162 -0.13701174
-0.072141945 0.11525225 -0.11005438 -0.048529647 -0.0021269466 0.029346336 0.075271405 -0.03675018
0.09401484 0.113174275 0.100237235 0.007767879 0.15267383 0.0270191 0.088370256 0.028811384
0.011599475 0.084750876 -0.17055976 0.011877656 0.08245041 0.16200915 0.0031430444 0.013217036
0.018756445 0.18819594 0.12639387 -0.079479724 -0.030309645 -0.009724714 -0.22471806 0.058447503
0.12155245 -0.029870573 -0.05129449 -0.06906347 0.1304519 0.13564456 -0.07927617 -0.15777412
-0.039132748 0.034208518 -0.08398889 -0.0803793 -0.09731683 0.011310742 -0.06302647 0.15578331
0.011338663 0.020860443 -0.09846981 -0.04535802 0.12718122 -0.17044993 0.14624682 -0.10923206
0.036600925 -0.026929867 0.0008474965 0.10757967 0.055375345 0.020665657 -0.031690497 -0.029097999

mlp.4.bias f4 [128]
00000000: 4b8e 0a3e 6f18 3d3e 0104 c23e 4354 8fbc
00000010: 1d2a a8bc 4c5b da3d f2e4 1bbc ad15 223d
00000020: 84e2 3c3d 0f2e 2cbc e50f a93d f921 cebd
00000030: 16f5 603d de65 793d f1de 053d 0128 e63c
00000040: 7125 8b3d 9d80 683d 6a31 b9bc 5ee1 edbc
00000050: 4866 0e3e 3476 56bc ab64 62bd e1bd fdbc
00000060: ba95 aebc f23e aa3d 5836 28bd 1b8b 9bbd
00000070: fe8c 813c fbda 85bd bf69 a0bc 9653 be3d
00000080: 36b3 cd3e 6e08 21bd 9323 b9bd e17a 703a
00000090: 0002 293d 2c10 293d e9f9 69bd 03c8 443c
000000a0: c6ad 593d 4e5f 2c3e 0ceb c7bd 5286 fb3d
000000b0: 8f91 9f3d 3f77 b23c 3535 09be 1fac b9bd
000000c0: 9628 c3bb fefd e13b fbdf ea3c 9531 c83d
000000d0: 3783 08bd 074a 0d3e 9075 41bb 229b d43d
000000e0: 43fc 3e3d 39c6 c4bc b951 67bd cf09 2b3e
000000f0: 69ad 7f3e 67e0 d2bd 73c4 fc3d 9ab6 843d
00000100: aa31 9b3d f339 a63d b7fb f8bc c6bf 8a3c
00000110: d1ea a33d feec b0bc d31d 7cbd 24a0 0ebd
00000120: 10c0 e4bd 82fb 663d ff64 b9bd dddd 62bc
00000130: f8d3 b4bd 8c8c b93d 79ad 5b3e 9ad6 0c3d
00000140: bc63 ee3d e967 86be 0b6c 973d 78b2 22be
00000150: 7721 8f3d 62a9 a63d 47fb 913d a258 89bc
00000160: f49c 22be 5995 103d 4e19 133d 562a b6bb
00000170: ca9f 4a3c c0ed 15bd 6b7d 8e3c aeae 37bd
00000180: 10a5 90b8 07c5 40be b406 223d 3206 523d
00000190: 7e45 d63c 68fe 00bd 9fc8 b9bd 497a 91bd
000001a0: 7f42 57bc 74d8 af3c 8c81 603e 0f6e e13c
000001b0: abda e7bd 90da b53d 81ec d9bd 3f48 20bd
000001c0: a495 4239 687a 0fbe 3a4d 3c3d 8b9c 37be
000001d0: 8c3a 56bd 522b 96bd a643 1b3d f182 6b3d
000001e0: c3e3 64bc 18cc be3b 0b48 063d ecda 28bd
000001f0: 2b48 dc3c 2fe2 92bc a865 90bd 39f9 acbc
0.13530843 0.18466352 0.3789368 -0.017496234 -0.020527894 0.10661945 -0.009515034 0.039571453
0.04611446 -0.010509028 0.08254985 -0.100650735 0.054921232 0.060888164 0.032683317 0.028095247
0.06794251 0.05676328 -0.02260657 -0.029038128 0.13906205 -0.013089705 -0.055271786 -0.03097433
-0.02131163 0.08312787 -0.04106745 -0.07594892 0.0158143 -0.06535908 -0.019581674 0.092932865
0.4017579 -0.03931468 -0.09039988 0.0009173584 0.041261673 0.04127519 -0.0571231 0.012010577
0.05314424 0.16833231 -0.097616285 0.12281479 0.07791435 0.021785377 -0.13399203 -0.090660326
-0.005955766 0.0068967333 0.028671255 0.09775082 -0.03332826 0.1379777 -0.0029519536 0.10381152
0.046627294 -0.024020301 -0.05647442 0.1670296 0.24968494 -0.102967076 0.12342157 0.06480141
0.07577832 0.08116522 -0.030393464 0.016937148 0.08003772 -0.021597382 -0.06155188 -0.03482069
-0.111694455 0.0563922 -0.090524666 -0.013846842 -0.08829492 0.0906001 0.21452893 0.034384347
0.116401166 -0.26251152 0.073936544 -0.15888393 0.06988805 0.08137776 0.071280055 -0.016765896
-0.15880185 0.03529868 0.035912804 -0.005559246 0.012367198 -0.03660369 0.017393788 -0.044844322
-6.8972004e-05 -0.1882516 0.039557174 0.05127544 0.026156183 -0.03149262 -0.090714686 -0.07103402
-0.0131384125 0.021465518 0.21924418 0.0275183 -0.113210045 0.08879578 -0.10640813 -0.0391314
0.00018557027 -0.14011538 0.045972086 -0.1793081 -0.05230193 -0.073324814 0.03790631 0.057497922
-0.013970318 0.0058226697 0.03278355 -0.041224405 0.026889881 -0.017930118 -0.070506394 -0.021114932

adaptor_2.weight f4 [4, 128]
00000000: 9d0b d0bd a9f4 0e3e 8202 ad3f 8d1c 6b3c
00000010: fc2a 38be 9978 7f3e b0b4 88bd b292 f9be
00000020: 9383 9ebe 5d36 ad3e 91fb 56be 2908 163e
00000030: 5505 1e3e f3bb 203e dda4 a0bd fcc4 86be
00000040: 2139 313e 06fc 243d a4b9 a1be 2823 03bd
00000050: d83d e33e b4f9 37be bf26 76bd aba0 47bf
00000060: 0904 51bd 6b67 e43e 41f3 713e 207b f4bd
00000070: bfa1 b7bd 1230 4ebe f0a7 733e 7351 b63d
00000080: 9a31 c43e a4d3 febd 9775 44be dd1f d5bd
00000090: 7c78 953e ca9d fc3d fe6e ad3e ff8e 723d
000000a0: 4666 25be 27a6 d73e feab 61be 29e8 5e3e
000000b0: f918 ba3d bde3 133e d39e 8dbd dce2 24be
000000c0: 7ffd 00bd f7b7 75be af11 23be 3ac6 b53e
000000d0: 03f7 383e 73a8 5d3d d71c 30be 9ce4 c03e
000000e0: 56f3 a1be d0ff a53e 5fa6 023e ea51 583f
000000f0: 51f4 ea3e 954d 253e 0377 a93e e177 a03e
00000100: 44e8 aa3c b951 cfbe 0309 113e 8104 593e
00000110: ca2c b53d 88e7 3f3d ad8e 873e 4aed 05be
00000120: 7c0c ca3b 1b1d ef3e 1cfe 4abe fe9b c9bd
00000130: f05a 8fbe 8c49 65be e58a 883e dd3c 8bbd
00000140: c314 b33d a68b be3d 9237 003d 82fa b23f
00000150: 27d2 733e 7e0f 87be b1b4 a4be 384c 9dbb
00000160: 3244 773d 9142 80bd 680f a73d 1fdc a43e
00000170: 3729 3dbe 107c cbbd f501 d3be 0201 fb3c
00000180: 9576 19be 80a7 7ebd 1760 b2be b237 8cbd
00000190: 383d ddbc 6f4b 71be 2f94 6f3e a7ba 8f3e
000001a0: bffb ba3d f1a4 b3bd eeb6 2d3e a4fd 43be
000001b0: 5520 8abd 6688 333e af46 d13e 63a5 82be
000001c0: 47a2 773e f763 2abf 4a18 14bf a043 1dbe
000001d0: e83c 90be d5f3 5cbd b4f7 153e fac4 e33d
000001e0: 06af a5be 5c1b 983e cd7a 17be 1c11 613e
000001f0: f551 703d beab 66be 9d56 70be 8981 18be
00000200: 15f7 973e a8df ef3e e0b3 fbbf e075 aebe
00000210: b412 9a3e 3fa9 ae3e eab4 953d a1ac dc3b
00000220: 853d a43e 27fa f13d 8b71 10be 34b7 04bd
00000230: 999c a2be f18a cc3d d73a 673e 9653 0abe
00000240: 50dc 03bf 5441 babe 4d33 b0bd 9ede 2d3e
00000250: ae20 0d3d 7cc5 923d f694 933e 2193 653e
00000260: b53c c63e 5221 453e 3420 39be ca3f b23e
00000270: dd59 133e 2f90 943e 8864 b9be 020a b43e
00000280: 4d32 1fbf 89a7 fdbd f9bb 523e 3aac c2be
00000290: 19f6 753e 3cb6 ae3e f212 cc3f 947a 913e
000002a0: ded9 31be 1146 72bf 21b6 b03d 55ce b5bc
000002b0: 7f78 85be 216d 493e bdec c03c 33d3 623e
000002c0: 2533 2bbe 2d4d 013f e5b8 eb3e ad0d 213e
000002d0: f332 8e3e ee1e 23bd 5b42 373d acf2 8cbe
000002e0: 5b22 2f3e acc3 2b3e 841f 4fbe db1c 873d
000002f0: e412 f93e e5cc ccbc 9fb2 be3e e038 b03d
00000300: 2631 ac3d 2dd3 94bc 571e 85be 590f a7be
00000310: 3a80 093c 2794 8bbe e23b cf3c a39d c83e
00000320: 0757 b23e 7e15 0cbc 4c19 18bd ae63 e8bc
00000330: e59d 413e 35ab 74be 6494 aa3e 2aa1 eb3e
00000340: 8a9a 723e de5a 6d3e d853 e6be cb1c fa3e
00000350: c235 dfbe 717c 043f 358a d73c 0a24 2cbe
00000360: c31a 493d 90e7 433e b106 a0be 39d3 dfbb
00000370: 5164 f8be d89c 5dbe 3da0 a1bd 75fc 67be
00000380: 370b 933e b469 c7bb dcb1 4fbe 0209 783d
00000390: 3c4b f9bd 95db c0bd da92 f33d 824c 36be
000003a0: fd7c b3be 0116 7fbe 28bf 77be 3e96 053f
000003b0: 7d1d b7be 28a5 193f 9a38 8abd 9230 cc3e
000003c0: e258 7dbe e877 fa3c db3f 043f 98be 8dbe
000003d0: a1f2 223e 3ab4 35be 280f c3be 89fa 95be
000003e0: bfe8 9b3d 8add a13e a1be b23e e543 afbe
000003f0: 71bd b13e 17ef 59be 0924 983e e2b0 313e
-0.10158465 0.13960518 1.351639 0.014350069 -0.17985147 0.24948348 -0.066750884 -0.48744732
-0.30959758 0.33830538 -0.20994402 0.1465155 0.15431722 0.15696697 -0.07843945 -0.26322162
0.17306949 0.04027941 -0.31586945 -0.03201595 0.4438312 -0.17966348 -0.060095545 -0.77979535
-0.05102924 0.44610152 0.2362795 -0.11937547 -0.089663975 -0.20135525 0.23794532 0.08902254
0.38319093 -0.12442711 -0.19185482 -0.10406468 0.29193485 0.123347834 0.33873743 0.059218403
-0.16152295 0.42118952 -0.22038266 0.2176825 0.090867944 0.14442344 -0.06915059 -0.16102165
-0.031491753 -0.23995958 -0.15924715 0.35502797 0.18062977 0.054115724 -0.17198502 0.37674415
-0.31630963 0.32421732 0.12758778 0.8449999 0.45889524 0.16142876 0.3309861 0.3134146
0.020862706 -0.40492037 0.14163594 0.21193124 0.088464335 0.046851665 0.2647604 -0.130788
0.006166039 0.46701893 -0.19823498 -0.09844206 -0.27999067 -0.22391337 0.26668468 -0.06798718
0.08744194 0.093039796 0.031302996 1.3982699 0.23810636 -0.26379007 -0.32169107 -0.0048003457
0.06036777 -0.062626965 0.081572354 0.3219919 -0.18472753 -0.099357724 -0.4121243 0.030640129
-0.14986642 -0.06217146 -0.34838936 -0.068465605 -0.02700673 -0.23563932 0.23396371 0.28072092
0.09130048 -0.087716945 0.16964313 -0.19139725 -0.06744448 0.175325 0.4087424 -0.25516805
0.24182998 -0.66558784 -0.5784956 -0.15357828 -0.28171468 -0.053943474 0.14645272 0.11121555
-0.32360095 0.29708374 -0.14792939 0.21979183 0.05867191 -0.22526452 -0.2347054 -0.14893164
0.29680696 0.46850324 -1.9664268 -0.34074306 0.30092394 0.341135 0.07309897 0.006734446
0.32078186 0.11815291 -0.14105813 -0.03240128 -0.317601 0.099874385 0.2258104 -0.13508448
-0.51508045 -0.36377966 -0.08603535 0.16979453 0.034454994 0.071665734 0.28824586 0.22419406
0.3871819 0.19250992 -0.18078691 0.34814292 0.14389749 0.29016253 -0.36209512 0.35163885
-0.6218613 -0.123854704 0.20579518 -0.38022023 0.2401966 0.3412341 1.5943282 0.28413832
-0.17368266 -0.9463816 0.08628488 -0.022193113 -0.26068494 0.19670536 0.023550386 0.22150879
-0.16718729 0.50508386 0.460395 0.15727873 0.27773246 -0.03982442 0.044741016 -0.27528894
0.1710295 0.16773862 -0.20226866 0.065973006 0.48647225 -0.025000045 0.37245652 0.08604598
0.08407812 -0.018167103 -0.2599971 -0.32628897 0.008392388 -0.2726147 0.025297109 0.39182767
0.34832022 -0.008550046 -0.0371335 -0.028367843 0.18907888 -0.23893435 0.33316338 0.46021396
0.23691764 0.23179194 -0.44985843 0.48850092 -0.435957 0.5175238 0.02631102 -0.16810623
0.049097788 0.19131303 -0.31255105 -0.0068305996 -0.48514035 -0.21641862 -0.07891891 -0.22654898
0.28719494 -0.006085599 -0.20282692 0.060555466 -0.12172553 -0.09416882 0.11893244 -0.17802623
-0.35056296 -0.24910738 -0.24194014 0.52182376 -0.35764685 0.60017633 -0.06749077 0.39880806
-0.24740937 0.030574754 0.51659936 -0.27684474 0.15912868 -0.17744532 -0.380975 -0.29292706
0.07612752 0.31614333 0.34911063 -0.34231487 0.34714845 -0.21282612 0.29714993 0.17352632

adaptor_2.bias f4 [4]
00000000: 43ce 5c3f 0fee 77bd 8304 e2be 71b9 7d3f
0.8625223 -0.060529765 -0.44144067 0.99111086
