lang_model.pth (torch, 86521 bytes, 6 tensors)

li1.weight f4 [64, 256]
00000000: 9ddc 09bd f6f0 0dbe f01c 73bd f13e 893d
00000010: d966 c6bc 27c5 673c b5ab cd3d f005 633c
00000020: d50c 0fbe 1357 7bbd dc85 ed3d cb3e 9d3b
00000030: e7b0 0d3e 8066 41bd f6fa c0bd beab bf3d
00000040: bacf 833d 473e 7cbc a3ac 2fbd dc37 253e
00000050: 2f4d 733d 9d9e 323d 234b c0ba a474 fbbd
00000060: 689d 613d d056 66bc 1393 b23c 5150 003d
00000070: ae30 a3bd 1910 0abd 0327 a93d 18d7 a4bd
00000080: b7fa d7bc 32b5 55bd f999 90bd 41e4 31bd
00000090: 0922 ccbb 1e4c 4cbd 4059 5b3d 275a 2c3e
000000a0: 2a22 803e 3a06 67bd 2b00 24bd ef1b b53d
000000b0: 73ec c4bb 41de 19bc 9662 003d 1e99 90bb
000000c0: 319d 6dbd a220 b43d 44b3 d9bc 27fa 803d
000000d0: e783 80bd a25c 96bd be32 4b3e f2dd 6a3d
000000e0: 069a 393d 6be2 fc3d 4f9f 73bd f3dd aa3d
000000f0: d803 453c e400 03bd f8f3 a8bc ade0 b1bd
00000100: 1307 153e d9bd eabc f23d a7bd 3506 e93d
00000110: 9eaa 0a3d d8e8 c33d 0e5d a8bb 5f7e c7bc
00000120: 7a3c 143d 36f1 5fbd 9dd7 f03c 37dd cabc
00000130: 106c e23d b8fb 09be 6573 bebc 6505 a1bd
00000140: be63 a33d 582e ff3c 8309 9cbb ba05 42bd
00000150: 32e2 0a3e 07e8 823d e1d6 fa3d 9d12 903d
00000160: 9f02 52bd 9bca 4ebd 5ab8 42bd dcc3 25bb
00000170: c084 e1bb d9a4 2a3d 2b00 da39 0e84 9ebb
00000180: b58e a8bb 08f2 a73d 44ae 54bd 7668 bb3d
00000190: c674 cabc 97cd e5bd 3f2b a4bd de7b 533d
000001a0: 0c7c b03d 05be bb3d d3bb 02be 5ad0 ce3d
000001b0: 8bab a8bb c08e bf3c d603 3dbd a452 813d
000001c0: 5281 04bd 06e8 70bc f8ed 80bd 6c2a 013e
000001d0: 9812 193d 1584 8f3d 3702 a43d 92df ad3d
000001e0: 9e0f 693c 2f47 c83d 2f1e e8bd 8df6 76ba
000001f0: d314 95bd e375 3cbd bce0 cf38 d9e6 483d
00000200: 23cf b9bd a484 dd3c 1e8b 72bd 84ee e03c
00000210: 26b4 e0bd a954 6c3d eb3e 813c b8bc acbc
00000220: b036 1f3c 4cc7 323d 1d20 24bd 0ed3 b6bd
00000230: cdb9 17be 048d d6ba d063 88ba 0072 a4bd
00000240: 0303 c5bd 0db8 c8bd 63af 3cbd b613 d2bd
00000250: 646f 613d 8e3d 333c 47ca 3e3c 2f54 9ebd
00000260: 0543 a73d bf3e 9abd 4ea8 5abc 9c31 02bd
00000270: e304 b63d 44ae e23c 30d1 71bd f78e 943d
00000280: fa1e 2ebc 71b8 d83d 4990 07bc 34fb 66be
00000290: 057b e3bc aaf3 90bd 302f 803d 66e1 df3c
000002a0: bcd2 b13c 30c8 8fbc a908 e73c 5b34 933d
000002b0: 17d5 90bd 11bf 883d 83e1 71bb 15c4 c1bd
000002c0: c008 c5bd e915 c4bd 4d33 c83d bb8f c53a
000002d0: 376d 3c3d 3903 943d 674e d93d f8f7 133e
000002e0: 92ac a6bd 0f1d 81bd fa2f 30bd fbc5 53bd
000002f0: c7d2 9abc a18d 653d 88f8 ddbc da80 c4bd
00000300: 710a 223e 1f72 80bc 8522 9f3d 0d97 bc3d
00000310: 9d06 92bc 197c 6d3d 6ef7 0e3e f18a a4bd
00000320: 3458 5d3d 4c29 e83d bbdf bd3c 3a70 4d3e
00000330: bf12 81bd 9ba5 11be 06f3 963d d9b4 1cbd
00000340: 544d ae3c 9aa3 85bc 4f55 173d 6c01 a03d
00000350: cf64 b4bc 3e06 463e ce3a 82bd ea2d 853b
00000360: 8fd0 843d e914 333c cc28 fb3c e519 0d3e
00000370: 78c7 2dbe 50e8 11bd 1bdf 27bd 50bb ee3d
00000380: 3897 b8bd 8b5a 0f3d a1b3 c3bc 7453 b23b
00000390: b8d4 dbbd 3f6c 36be 4a8d 90bd 565e c3bd
000003a0: 6c89 293d 3263 88bd 993f 683d ee4c 823c
000003b0: f498 18be f9a8 68bd 0222 a43d 0896 d6bd
000003c0: 725e 523e e6b6 1e3e f834 acbc 6dc8 48bb
000003d0: bf7c ca3c 6ba5 1c3d b1f2 bfbc 21b9 be3d
000003e0: 8397 11bc 88de c23d d457 e3bd 7c33 65bc
000003f0: 3a1e 443e e10d e1bd f9cf 73be 4d38 73bd
-0.03365766 -0.1386145 -0.05935377 0.06701458 -0.024218963 0.014146126 0.10042516 0.013856396
-0.13969739 -0.061362337 0.11597797 0.0047987453 0.13837014 -0.047216892 -0.09422867 0.09358929
0.06436105 -0.015395707 -0.04288925 0.1613459 0.05939978 0.043608297 -0.001467083 -0.12278107
0.055081755 -0.014058784 0.021798646 0.031326596 -0.07968269 -0.03370676 0.08259394 -0.080488384
-0.026364667 -0.052174754 -0.07060618 -0.04343057 -0.0062296432 -0.04987728 0.053551912 0.16831265
0.25026065 -0.056402422 -0.040039223 0.088432185 -0.0060096323 -0.009391368 0.03134402 -0.0044127842
-0.058011238 0.08795287 -0.026574738 0.06297713 -0.062751584 -0.07341887 0.19843575 0.05734057
0.045312904 0.12347873 -0.0594781 0.08343115 0.012024842 -0.03198327 -0.020624146 -0.08685432
0.1455348 -0.02865498 -0.08166112 0.11378137 0.03385412 0.09565896 -0.005138046 -0.02435225
0.036190487 -0.054673396 0.029399687 -0.024763687 0.110557675 -0.1347493 -0.023248384 -0.07862357
0.07978009 0.031150028 -0.004761876 -0.047368743 0.13562849 0.06391912 0.12248016 0.070348
-0.05127203 -0.05048619 -0.047539093 -0.0025293743 -0.00688228 0.041661117 0.00041580325 -0.0048375195
-0.005143965 0.08200461 -0.051924005 0.09150784 -0.024713885 -0.11220854 -0.08016061 0.0516318
0.0861741 0.09167103 -0.12766962 0.10098334 -0.0051474026 0.023383498 -0.046146236 0.063145906
-0.032349892 -0.014703756 -0.06295389 0.12613839 0.037371248 0.070076145 0.08008235 0.08489908
0.014224915 0.09779202 -0.11333882 -0.0009420894 -0.072793625 -0.046010863 9.912389e-05 0.04904828
-0.09072711 0.027040787 -0.059214704 0.027457483 -0.109718606 0.057697926 0.015777072 -0.021086082
0.009717628 0.043647096 -0.040069688 -0.08926974 -0.14816971 -0.001636893 -0.0010405723 -0.08029556
-0.09619715 -0.0980073 -0.0460657 -0.10257666 0.05503787 0.010939969 0.011644906 -0.077309005
0.0816708 -0.07531499 -0.013345791 -0.031785592 0.08887651 0.027670987 -0.059037387 0.07253831
-0.010627503 0.105820544 -0.008274146 -0.22556764 -0.027768621 -0.07077725 0.06259 0.027329158
0.021706931 -0.017551512 0.028202372 0.071877204 -0.07071894 0.06677068 -0.0036908097 -0.09461228
-0.096208096 -0.095744915 0.0977541 0.0015072742 0.046002593 0.07227177 0.10610657 0.14450061
-0.08138384 -0.063043706 -0.043014504 -0.05170248 -0.018899335 0.05604327 -0.027096048 -0.09594889
0.15824296 -0.015679417 0.07770256 0.09208498 -0.01782542 0.057979677 0.13961574 -0.080343135
0.054039195 0.11336002 0.023177972 0.20062342 -0.06302404 -0.1422333 0.07370572 -0.038258407
0.021277107 -0.016313363 0.03694659 0.07812771 -0.022020726 0.19338319 -0.06358872 0.0040643113
0.06485092 0.010930278 0.030659102 0.13779409 -0.16970623 -0.03562194 -0.040984254 0.11656821
-0.09013218 0.034998458 -0.023889365 0.0054420773 -0.10733932 -0.1781473 -0.07058199 -0.095394775
0.04139082 -0.06659545 0.056701276 0.015905824 -0.14902097 -0.05680177 0.08014299 -0.10477835
0.2054384 0.15499458 -0.021021351 -0.0030637041 0.024717687 0.038243692 -0.023431154 0.09312654
-0.008886221 0.09515101 -0.11100736 -0.013989326 0.19152156 -0.10988975 -0.23809804 -0.059379864

li1.bias f4 [64]
00000000: f429 873d 005b 143d ae0e 363d c99c 3abd
00000010: 6bb8 47bd 5121 18bd 642e 693c 5624 d8ba
00000020: d0e3 a9bb fd7e 5cbd 7bc0 193d fdf3 89bd
00000030: 69dc de3c b7c4 f83c 03e4 973c 4bd9 0f3d
00000040: 644e 83bd 7427 08bd 53b7 31bd a0fb 0ebb
00000050: c9e6 1cbd 74e7 b73d fee2 08bd 5403 063c
00000060: febc 743d 7bc4 2ebd 8859 033d 0b56 c2bc
00000070: b299 3c3d 6a4b 173b 2106 04bd f1e1 da3c
00000080: 646e 073c b41a ad3c 5431 1dbd 117e 0fbd
00000090: a23e bebc 53c1 11bd 2a0c 3abd 7eff 433d
000000a0: 2c8d 85bd b64c 9bbd 1734 b33c d6c4 9bbd
000000b0: f96e 37bd 506b b63c f83f ab3b 0d6b b43b
000000c0: 683f aebb bbec c23c b8be 4b3d 95e2 e13c
000000d0: 3df9 283c 4dd4 3a3d 69f8 0bbd e677 42bd
000000e0: 99ee 903b 5e1d 21bd 3332 1f3d ef4e 263c
000000f0: 71e8 35bd fa86 66bc b82e 503c c61b 673d
0.06599799 0.036219597 0.044447593 -0.04555968 -0.04875986 -0.037141148 0.014232252 -0.0016490321
-0.005184628 -0.053832043 0.03753708 -0.0673599 0.02720471 0.030367238 0.018541342 0.035119336
-0.06411436 -0.03324075 -0.043387722 -0.002181746 -0.03830603 0.08979693 -0.0334196 0.008179504
0.05975055 -0.042667847 0.032067806 -0.02372267 0.046045013 0.0023085722 -0.032232407 0.026719065
0.008266065 0.021130897 -0.03837712 -0.035032336 -0.023223225 -0.03558476 -0.045421757 0.04785108
-0.06521067 -0.07582991 0.021875424 -0.07605903 -0.044783566 0.022267967 0.0052261315 0.0055059255
-0.005317617 0.023794523 0.04974243 0.027573863 0.010313329 0.045612622 -0.03417245 -0.047477625
0.0044229743 -0.039334647 0.038866233 0.010150655 -0.044411127 -0.014070267 0.012706451 0.05642297

li2.weight f4 [64, 64]
00000000: 5421 88bd 9303 f0bd 3ab4 b93c 0d81 25be
00000010: b2d5 c6bd 231b 00be b39c 833d eb15 11bd
00000020: 31cc f3bd 2679 0dbd 6620 8e3d 6b82 b3bc
00000030: 7a53 fc3d 53c3 083d d99c b8bd 2bbf b9bd
00000040: 96da bc3d 1623 fcbd 57e8 f7bd 1079 c3bd
00000050: 0821 64bd b7e9 fc3d 3c0e 46bd a62c 9cbb
00000060: 7e61 cebc 8433 2f3d 6537 9bbd de33 d1bd
00000070: bc41 d23d 2cff 073d a846 063e cf3c 14be
00000080: 64ae 2ebd e6a5 9c3d b009 093e cd51 b1bc
00000090: e0c6 c3bd b96d f8bd 463a 213b c1eb fd3c
000000a0: 0bc2 5cbc 9df4 8a3d dfbd 033e e3de 64bd
000000b0: 7a82 9e3c 443c 0e3e 7942 38be 4ba3 49be
000000c0: 0a05 52bd f9a4 2fbd c6b6 6b3d fd1e fe3d
000000d0: a644 293e 55e3 e63d ebfd 04be 3138 09bd
000000e0: e925 9ebd e986 833c cab2 593c 8a2d 95bd
000000f0: ae00 02be 215d 6c3e 8185 90bc b5a7 723d
00000100: c15d 113d 243b 13be 65d3 cbbd e724 1c3e
00000110: b5c7 60be 3d5a 26bd e9ab d6bd d8cd 1f3d
00000120: 6a82 043e 2f5c 9d3c 744b 6f3c 7502 8fbe
00000130: d4c3 983e 77fe 303d d280 34be 58fb 08be
00000140: 7685 803d eb5a 703d 26f5 913e 55dc e6bd
00000150: 6e36 abbc 2f59 9abb 65d2 1bbe 897e 3a3e
00000160: 21b5 06be 792d 413e 9a1d e43d c598 8b3d
00000170: 5229 babd 0620 4bbd 7cbc 4abe c4f6 ab3c
00000180: 7219 2fbe ef21 cdbd 7606 433e 7c63 873d
00000190: 3246 173e b395 1ebe 790a 4abe 6806 62bd
000001a0: d3a0 05bd 9044 b83d 3e5e d3bd 9d7d 3ebe
000001b0: 7b2c a3be 2694 893d 8555 06be e6e0 6dbe
000001c0: 28d2 0fbd 7c55 2fbe 0988 353e 30e3 5c3d
000001d0: 53f9 bdbd ef34 453e 6fe6 b43d 7dc0 89bd
000001e0: fc27 3b3e 5893 3cbd df49 3a3e 92cf 4abe
000001f0: 3c0e 35be f160 903e 15f9 263e 7af7 ab3d
00000200: 4ea9 a13e 8c5d bdbd fece 103e 7d00 443c
00000210: f2d7 233e 9d4a a5bd d816 0f3c 3d2d aa3e
00000220: 1292 053e 85c1 993d 27dc 9cbd 39d4 3d3d
00000230: 54a0 88bd 3aaf 03be e4b1 a9bc 3e99 ddbd
00000240: 7e43 7dbe 0786 c23d ef93 573d a887 0abc
00000250: afca 4d3e 4c82 253e 4537 60be ef4a 363d
00000260: eefa 453d a057 bfbd 5a59 bdbd 54cf 8dbe
00000270: c5db 933e 6d58 813e 2a42 443d 0c99 2a3e
00000280: e65a 3cbe 0d64 2c3e 3504 bf3d 4456 703e
00000290: 29a2 d3bc 99e1 36bd f655 3dbe 7edc 303e
000002a0: a4fa 5dbe bdc6 64bd 048c a2be 2858 3d3e
000002b0: a08c 2ebe ba70 66bc 23b3 433c 4c06 a43d
000002c0: 9e3c 973d 00a7 9f3b e68e 5dbe 11df 46be
000002d0: 09dd 08be bb8a 123e 710f 1ebe 3a7d 4b3e
000002e0: 137c 9fbe 9bdc 2f3e 166c 383e f26f 27be
000002f0: 1efe 59be 48b8 733b 0a01 df3d fc14 43be
00000300: 51d0 c73d 89d3 77bd 8581 0bbd 0ed4 0c3c
00000310: 2661 87bd 6755 373e 4733 a7bd c719 04be
00000320: f700 4bbe cad3 c0bd 8b2a 463e e296 5e3e
00000330: 91f0 e7bd a32c f4bd 5e21 b53d 144d bcbd
00000340: 5c0b 05be c14b 79be bad3 bdbd e6ba f83c
00000350: 53b8 a03e 099b 93bc 3755 bb3d d445 223e
00000360: bb0b 393e 9477 1abd 8c09 15be ae4f 343e
00000370: 7087 43be 7807 393c 789f 0cbe 6378 e23d
00000380: 76d9 9ebd 590f c3be 3cf7 d9bb 9aa8 a9bd
00000390: 871e 80bd d43e 7abe 5493 a73d 044f 85bc
000003a0: 6e1d 5bbe e3a9 d7bd 778e 9e3d 74ac 8abd
000003b0: 39d9 b73c f507 54be 0c62 43bd cae0 8c3e
000003c0: 6679 49be 8c80 323e 6e76 3f3e 1f3a ed3d
000003d0: a438 a73e 4ea3 a8bc faf0 fabd 8952 21be
000003e0: 12f9 52bd d9d3 2c3e d839 60be 4be4 32be
000003f0: 8f45 47be 287c e73b 87df 80bd 077c b03e
-0.06646982 -0.11719432 0.022668947 -0.1616251 -0.09708728 -0.12510352 0.064263724 -0.035421293
-0.11904181 -0.034539364 0.06939773 -0.021912774 0.123206094 0.0333894 -0.09014291 -0.090696655
0.092213795 -0.123113796 -0.12104862 -0.09544575 -0.055695564 0.12349265 -0.04835342 -0.0047660647
-0.025192972 0.04277374 -0.07578925 -0.10214971 0.10266444 0.033202335 0.1311289 -0.14476322
-0.04264678 0.0764883 0.13382602 -0.021645451 -0.09559417 -0.12130303 0.0024601384 0.030996205
-0.013473998 0.067849375 0.12865399 -0.055876624 0.019349325 0.13890177 -0.17994107 -0.19691198
-0.051274337 -0.04288194 0.057547353 0.12408254 0.16530094 0.11273829 -0.12987487 -0.033500854
-0.077220745 0.016055541 0.013287256 -0.072840765 -0.12695572 0.23082401 -0.017641785 0.05924197
0.0354898 -0.14378029 -0.0995243 0.15248452 -0.21951182 -0.0406134 -0.10482008 0.039014667
0.12940374 0.019208996 0.014605392 -0.27931562 0.29836905 0.043211427 -0.17627266 -0.1337713
0.06275456 0.058680456 0.28507346 -0.11272494 -0.020899978 -0.0047103385 -0.15216978 0.18212332
-0.13155033 0.18865003 0.111384585 0.06816248 -0.090899125 -0.049591087 -0.19798464 0.02099169
-0.1709955 -0.10016238 0.19045433 0.06610772 0.14772871 -0.15486793 -0.19730558 -0.05518189
-0.032624077 0.08997452 -0.1032071 -0.18602605 -0.31869873 0.0671771 -0.1311856 -0.23230323
-0.03511253 -0.17122453 0.17727675 0.0539276 -0.092760704 0.19258474 0.08833014 -0.06726167
0.18276972 -0.046038955 0.18192242 -0.19805744 -0.17681211 0.2819896 0.16305955 0.08396812
0.31574482 -0.09246358 0.14141461 0.011963007 0.16000345 -0.08070872 0.008733474 0.3323764
0.13044003 0.07507614 -0.07659178 0.04634497 -0.06671205 -0.12859812 -0.020714708 -0.10820244
-0.24732777 0.0949822 0.052631315 -0.0084551945 0.20096849 0.16162986 -0.21896084 0.044505056
0.04833501 -0.09342885 -0.09245558 -0.2769724 0.28878608 0.25262776 0.04791466 0.16659945
-0.1839405 0.16835041 0.09326974 0.23470408 -0.02583416 -0.04464874 -0.18489823 0.17271611
-0.21677643 -0.055853594 -0.31747448 0.1849066 -0.17045832 -0.014064962 0.011944565 0.080090135
0.07384609 0.004872203 -0.21636543 -0.1942103 -0.13365568 0.14310734 -0.15435578 0.19871989
-0.3114935 0.17173998 0.18009982 -0.16351297 -0.21288344 0.0037188698 0.1088887 -0.19050974
0.0975653 -0.06050447 -0.034059066 0.00859548 -0.066103265 0.17903672 -0.08164077 -0.12900458
-0.19824587 -0.094153956 0.19352166 0.21737245 -0.11325181 -0.11922576 0.08844255 -0.09194389
-0.12992615 -0.24345304 -0.09268899 0.030362558 0.31390628 -0.018018262 0.09147113 0.1584695
0.18070881 -0.037711695 -0.14554423 0.1760852 -0.19094634 0.011293285 -0.13732708 0.11058118
-0.07756321 -0.38097647 -0.006651787 -0.08284111 -0.06255823 -0.2443803 0.081823975 -0.01627303
-0.21397945 -0.1053045 0.07742017 -0.06771174 0.022442447 -0.2070616 -0.047700927 0.2751525
-0.19675216 0.17431849 0.18697521 0.11583351 0.326604 -0.020585682 -0.12252994 -0.15754141
-0.051507063 0.16877688 -0.21897066 -0.174699 -0.19460128 0.007064361 -0.062926345 0.34469625

li2.bias f4 [64]
00000000: c499 4e3d bc33 4c3d fac0 b93d ced9 cdbd
00000010: c605 a33d cb6a a5bd 18f4 64bd 54cf a4bd
00000020: bea2 92bd bf8e 7ebc 9a84 353d 9a44 103e
00000030: 2641 d13c 452e a63d 9218 aa3d 7819 b93c
00000040: 6197 6dbd cc8c 5a3d 7d7b 5fbd d755 cabd
00000050: b01b d53d 6f9f a23b 4c51 2abd 0f63 e93c
00000060: 12e0 a9bc f06d 833c 9cf6 39bd d556 a13c
00000070: 13cc 51bd 1f40 6ebd 0024 913b 85e4 493b
00000080: dac6 643b d702 79bd 8968 0b3c 3e63 5f3d
00000090: 2179 6c3d 15a9 f3bd c304 91bd 906b 953b
000000a0: bac0 93bd 11e9 98bd ec8b 0bbe c520 763d
000000b0: c915 c2bd 893b 0c3d e5be febd 83e1 96bd
000000c0: a1f2 a5ba 5e90 0a3d 725c 223d def6 89bd
000000d0: 989e 0ebe 0dbd 003d e7d9 153e 5308 e5bd
000000e0: 23d5 74bd c180 79bd 74d5 f1bd 3447 01bd
000000f0: 52f6 20bd 3ac3 0fbe 606c e53d fb66 d2bd
0.05043961 0.049854025 0.090700105 -0.100513086 0.079600856 -0.0807701 -0.05589685 -0.08047357
-0.07159947 -0.015536963 0.04431591 0.1408867 0.02554376 0.08114294 0.08305468 0.022595152
-0.058005694 0.05335693 -0.054561127 -0.09879654 0.104056716 0.0049628536 -0.041581437 0.028489618
-0.020736728 0.016043633 -0.0454012 0.019694725 -0.05122001 -0.05816662 0.0044293404 0.0030806374
0.0034908564 -0.060793724 0.00850881 0.054538004 0.057732705 -0.11897484 -0.07080986 0.0045599416
-0.07214494 -0.07466329 -0.13627595 0.060089845 -0.094768114 0.034236465 -0.12438754 -0.07367232
-0.001266081 0.033829086 0.039638944 -0.06736539 -0.13927686 0.031430293 0.14633904 -0.11183228
-0.059773576 -0.060913805 -0.11808291 -0.031562045 -0.03929741 -0.14039317 0.112023115 -0.10273548

li3.weight f4 [4, 64]
00000000: 3df4 aabe 8fc1 1fbf 5d87 55bf 5724 bd3e
00000010: d909 153f 81fa 15bf cfa4 0e3e 78b9 dc3e
00000020: 059f b83e 9dec 01be 36a5 c3be 6702 88be
00000030: 0dce 2b3f deeb 493f 8896 033f b5ef 73be
00000040: 1267 26bf 0e5c 023f bfe9 5abf 982b c03e
00000050: acb8 2ebf 67b7 863e d982 ec3e 1cf3 3abf
00000060: 6bbb 38bf 6c10 febd 771b 82bd ce81 19be
00000070: 4d1a 4b3f feda f4bd a292 92bd 5582 333f
00000080: 80fc 943e 285b f8be fa68 39bf 0ec9 b8be
00000090: b395 b9be 9642 6bbf 390d 343f 6e92 16bf
000000a0: 1f4e e93e 31b4 6f3f f96c 4abf 889a 1ebf
000000b0: 3ad8 0fbe 7c67 bfbd 1541 cbbe ff21 42bf
000000c0: a84a 7a3e 5600 193f d7fb 8c3d 8e45 213e
000000d0: 5fd6 273f 3345 853f 56d8 53bb 81f0 583f
000000e0: 6362 a83f 5345 ebbe 4b89 6ebe 7499 24bf
000000f0: f5e8 0cbf d7d2 8fbe 94c4 74bf d34f d73e
00000100: 2d64 abbd 8a68 0ebf 6e2c 303f d63a 933d
00000110: de09 89bf be14 07bf 5fd2 e03e 826d d6bd
00000120: 62fe 913d a6e9 b1be 201e 9c3d e474 493f
00000130: 119f 43bf 3da2 9f3e 15d7 9bbf 4a0c 093f
00000140: 20d8 91be d2a6 733f 9c9b 673e 41d5 003f
00000150: 005e 5c3e 28f2 7ebf e2e4 59bf 3e01 6fbd
00000160: c6fb 1b3f 7bf3 d6be c43c 14bf a5de 4c3f
00000170: 9f70 0dbf eac7 9f3e b115 d8be 97a0 413f
00000180: 6147 80bd ba38 033f d3f2 82bd e873 6fbe
00000190: de40 363f 17b3 f7be a03b 16bf e37f 4a3f
000001a0: 8f78 4c3f b130 e1be 5579 e0be b8e8 753f
000001b0: 2a5d 303f d8ba b9be a41f f93e fc80 5a3e
000001c0: 0b2c a1be 8b30 0a3f 0bbb 0b3f b045 493e
000001d0: 4a55 52bf f293 683f 20bd 7d3f 5d5e cbbe
000001e0: f2ba ecbc 2585 3bbe f61c 153f 78b4 3e3f
000001f0: af8f 92be 013f 50bf 12c7 f5be 0b4d b73e
00000200: 2bec 51be a837 c63e 234e 9cbe 42e7 493f
00000210: 43e6 07bf d5dd 76be 3712 e83e c2b0 3cbf
00000220: 0bb2 9dbe 1146 833e 5d4c 1d3f 9440 ea3e
00000230: b2c5 6fbe 756e 983e 4722 43bf 7c53 c63d
00000240: b6af 2b3f 90a1 ca3d e9ae 843d 9123 8abf
00000250: c096 7e3f db05 053e 90ab 14bf de05 243f
00000260: 893a 3c3f 67b5 c63e fddb 293f 1125 af3b
00000270: 15d9 d8be abaa 1cbf 7e1a 1dbe b317 6dbf
00000280: a6f9 25bf 36ac f03c 539f 3b3f 637c c5be
00000290: dbb3 29bf 55dc 9b3e 28f2 7abe 7bae 3d3f
000002a0: 4a85 583f 129b 4fbf bc78 683e 8509 65be
000002b0: 1456 5fbe 1595 49bf 03ea 18bf 2cae 4d3e
000002c0: 9566 36bf b5b3 e93e 0dc5 a13e 475e 443f
000002d0: 73a4 4abf 10b4 e73e e5a9 82be 782e 3dbf
000002e0: 744f a53e b438 b73d caa6 d7bd 8dd8 8cbe
000002f0: facc 5f3c 25e8 243f e581 42be 3607 06bf
00000300: d001 ab3e 8041 df3e a264 7ebe 29b4 29bf
00000310: 749e 873c 4754 27bf c860 3ebf 4891 d13e
00000320: 6392 ff3d 9be5 0ebf 9a7e de3e e995 893e
00000330: 9b5f 2a3f ef6a b93e 17b6 113e 06a7 f83e
00000340: 38fd 053f 0518 153f 2160 dc3e 1eae fcbe
00000350: c83b 12bf ac2b 4c3f 76cd d03d a042 ba3e
00000360: 150a e53e 354c 7f3f 5a0e 893d 0baf 60bf
00000370: 2bf8 e6bc 7ebd 94bd d724 bbbe 8411 8ebe
00000380: 5b82 e83d a817 b03e be5c 3f3f d081 343f
00000390: 34e6 03bf 6585 3bbd e57e cfbe 3423 0cbf
000003a0: 0d98 77be 5178 b6bd c0a0 7c3e e0a3 b0be
000003b0: 8093 febe dfab 92be 7ab9 1ebf d2c5 0abf
000003c0: ee97 ad3e cb05 21bf 2303 61bf d513 fa3e
000003d0: f57a ca3e ac17 6c3d fb27 113f 924e b2bd
000003e0: 1738 4dbf d2e6 f0be 817d 353f 4655 ddbe
000003f0: 8a7a c63e a682 253f ba6c c6be 9bd1 56bf
-0.33389464 -0.6240472 -0.8340967 0.36941788 0.5821815 -0.58585364 0.13930057 0.4311025
0.36058822 -0.12687917 -0.38211983 -0.26564333 0.67111284 0.7887553 0.5140157 -0.2382191
-0.6500102 0.50921714 -0.8551292 0.3753326 -0.68250537 0.263118 0.4619358 -0.73027205
-0.7216098 -0.12405476 -0.06352895 -0.14990923 0.79337007 -0.11955832 -0.07156874 0.70120746
0.29098892 -0.48507047 -0.72425807 -0.36090893 -0.36247024 -0.9189848 0.70332676 -0.58817184
0.45567414 0.93634325 -0.7907253 -0.61954546 -0.14047328 -0.0934591 -0.3969809 -0.75833124
0.24442542 0.5976614 0.06883972 0.1574919 0.6556148 1.0411743 -0.0032324991 0.8474198
1.3155025 -0.45951328 -0.2329456 -0.6429665 -0.55042964 -0.28090546 -0.95612454 0.4205309
-0.083687164 -0.55628264 0.68817794 0.071889564 -1.0706136 -0.52766025 0.439105 -0.10470106
0.07128598 -0.34748572 0.076229334 0.78693986 -0.7641459 0.31178465 -1.2175013 0.53534377
-0.28485203 0.9517642 0.22617954 0.503254 0.21520233 -0.9958825 -0.8511487 -0.058350794
0.6093105 -0.41982636 -0.5790522 0.8002723 -0.5524997 0.3120721 -0.4220405 0.75635666
-0.062636144 0.5125843 -0.06393971 -0.23384058 0.7119273 -0.48378822 -0.5868473 0.7910139
0.7987146 -0.4398246 -0.4384257 0.96058226 0.6889216 -0.36275363 0.48656952 0.21338266
-0.31478915 0.5398032 0.5458228 0.1965549 -0.8216139 0.90850747 0.99116707 -0.3972043
-0.028897736 -0.1831251 0.58247316 0.74494123 -0.28625247 -0.81346136 -0.4800344 0.35800967
-0.20500247 0.38714337 -0.30528364 0.78868496 -0.53085726 -0.2410806 0.45326397 -0.7370721
-0.30799899 0.25639394 0.61444646 0.45752394 -0.23415259 0.29771772 -0.7622418 0.09683892
0.6706499 0.09894097 0.06478674 -1.0792104 0.99448776 0.12990515 -0.58074284 0.6407145
0.7352682 0.38810274 0.663513 0.005344995 -0.4235312 -0.6119792 -0.15342137 -0.9261429
-0.6483406 0.029378992 0.73289984 -0.38571462 -0.6629006 0.30441537 -0.24506438 0.7409436
0.8457838 -0.81095994 0.22702307 -0.22366913 -0.2181018 -0.78743106 -0.59732074 0.20085973
-0.7125028 0.45644918 0.3159565 0.76706356 -0.7915718 0.45254564 -0.25520244 -0.7389903
0.3228718 0.08946362 -0.10529859 -0.27508965 0.01365971 0.64416724 -0.18994863 -0.52354753
0.3339982 0.4360466 -0.24843076 -0.6629053 0.016555049 -0.6536297 -0.74366426 0.40931153
0.12479093 -0.558191 0.43455964 0.26872185 0.6655213 0.36214396 0.14229618 0.4856493
0.52339506 0.58239776 0.4304209 -0.4935159 -0.5712247 0.7975414 0.101954386 0.36378956
0.44734254 0.9972566 0.066921905 -0.87767094 -0.028194508 -0.07262705 -0.36551544 -0.27747738
0.11352988 0.34393048 0.7475089 0.7051058 -0.5152314 -0.04578151 -0.405265 -0.54741216
-0.24179097 -0.08909667 0.24670696 -0.34500027 -0.4972191 -0.28646752 -0.62001765 -0.542081
0.33904976 -0.62899464 -0.8789541 0.48843256 0.39546934 0.057639763 0.5670163 -0.08706392
-0.8016371 -0.47051102 0.7089463 -0.4322912 0.38765365 0.6465248 -0.38754827 -0.8391358

li3.bias f4 [4]
00000000: 327e ee3a 4734 433d 5026 10bb da9d ccbb
0.0018195568 0.047657277 -0.0021995492 -0.0062444033
