lang_model.pth (torch, 86521 bytes, 6 tensors)

li1.weight f4 [64, 256]
0.004729913 -0.04918291 -0.036401507 0.05525692 -0.044935245 -0.01812587 0.07775723 -0.03613308
-0.049744103 0.0107746385 0.05702857 0.033128165 -0.029345553 -0.056494232 -0.071319774 0.0045516547
0.020990673 -0.034812033 0.019749522 -0.02360796 0.033005405 0.050334405 -0.010489665 -0.058746535
0.06808803 -0.04420475 -0.044807605 -0.00037187472 -0.025351454 -0.00621126 0.01999824 0.0015710498
0.06552828 0.030296592 -0.033320997 -0.00935868 0.056948073 -0.03403372 0.0351943 0.06117521
0.05386932 -0.06382638 -0.019837575 -0.040600017 0.037435524 0.04563036 -0.041453503 -0.012034557
0.026808927 -0.028116204 -0.06326939 0.061202444 -0.035998113 4.9206174e-05 0.0207067 0.0141749745
0.010064109 0.069772236 -0.050542276 -0.015170856 0.0089637535 -0.05600313 0.042913392 -0.024590509
0.057521075 -0.06279887 -0.05816166 0.05532233 0.07123504 0.05854522 0.012441329 0.02352919
0.010645603 0.0060531897 -0.046971347 0.016899245 0.06086791 0.0041836705 0.04147002 -0.014789943
0.00274388 0.056752786 -0.043867685 0.034307774 0.04273378 0.008157597 -0.033346076 -0.025987735
-0.057119098 -0.042115036 -0.0568317 0.051754072 -0.061718255 -0.02975469 0.02267454 0.03597137
-0.043307323 0.030166151 -0.0145968925 0.02359713 -0.028395636 -0.060119983 0.01683131 0.023232447
0.03596279 0.015964778 -0.011794745 -0.018601611 0.029536426 -0.0014477724 -0.011136663 -0.02988901
-0.033245705 0.0043575605 -0.024853118 0.06808608 0.060731024 0.04149706 0.035715424 0.025008604
-0.021330727 0.0056549194 -0.002762495 -0.030725483 -0.009548345 0.029166158 0.033122804 0.057646118
-0.018090673 0.03636228 -0.058693524 0.023680521 -0.02114996 0.008495612 0.03913117 -0.052116394
0.024118748 -0.026303452 -0.058659162 -0.019764038 -0.051914442 0.018966567 -0.019931024 0.00493099
0.020085959 -0.029722603 -0.06249624 -0.033602595 0.032431964 0.04006704 0.054908205 -0.039920308
0.031962585 -0.061604306 0.01648289 0.033560917 0.036366895 0.011270431 0.0134038115 -0.009818251
-0.0011222274 0.037865482 0.015903002 -0.02971449 -0.010879802 -0.043685924 -0.05536146 0.001458357
0.056846008 -0.044239912 -0.001738663 0.033347964 -0.025592223 0.06273797 -0.0054914313 0.0379901
0.020360732 -0.03438152 0.021974126 -0.030184347 -0.022047622 0.03272589 0.050029997 0.01758251
-0.024935687 -0.021570243 -0.061665747 -0.050056763 -0.031224582 -0.042082675 -0.027200757 0.010381578
0.05231428 -0.044049628 -0.0021109213 0.030017613 0.059953164 0.011983339 0.04623525 -0.010423839
0.01687778 0.028235482 -0.045899767 0.03937333 0.004526446 -0.044494115 -0.00621497 -0.033576977
0.020410463 0.039990608 -0.03692451 0.028092263 0.028592594 0.036807004 0.0472698 -0.040653173
0.05836869 0.013816802 0.04065703 0.009077769 0.020709062 -0.0116491085 0.007499449 0.02501159
0.0028037417 0.04304488 -0.0096308505 -0.019726947 -0.05330295 -0.031873707 -0.03389739 0.011531513
0.055515476 0.00089113455 0.024371639 0.041103154 -0.05735156 -0.0019376482 0.050361495 -0.010797869
0.0743761 -0.0009980183 0.059985973 0.02379862 -0.054972254 0.012890812 0.006642392 0.023970496
0.0011834094 0.055829715 -0.04160012 -0.023615142 0.05738587 -0.013669747 -0.06469631 -0.03802867
00000000: 63fd 9a3b 0574 49bd bf19 15bd 1555 623d
00000010: 050e 38bd b47c 94bc 2f3f 9f3d 4800 14bd
00000020: 79c0 4bbd 1c88 303c ca96 693d 66b1 073d
00000030: 1666 f0bc 7f66 67bd 1a10 92bd 0c26 953b
00000040: a2f4 ab3c 1097 0ebd c0c9 a13c 7b65 c1bc
00000050: ad30 073d 732b 4e3d d8dc 2bbc 35a0 70bd
00000060: bd71 8b3d 0a10 35bd 2e88 37bd 2ef8 c2b9
00000070: daad cfbc d387 cbbb 59d3 a33c afeb cd3a
00000080: b133 863d 8f30 f83c 997b 08bd 2655 19bc
00000090: 6242 693d f166 0bbd e627 103d db92 7a3d
000000a0: 13a6 5c3d 68b7 82bd 6982 a2bc 344c 26bd
000000b0: fe55 193d e6e6 3a3d 26cb 29bd 972c 45bc
000000c0: 659e db3c f453 e6bc 6293 81bd 6aaf 7a3d
000000d0: c272 13bd ba62 4e38 19a1 a93c 273e 683c
000000e0: efe3 243c bfe4 8e3d 6b05 4fbd 2f8f 78bc
000000f0: b5dc 123c 8a63 65bd f4c5 2f3d 0972 c9bc
00000100: 389b 6b3d b29c 80bd ec3a 6ebd ab99 623d
00000110: ade3 913d 1dcd 6f3d b7d6 4b3c 4ac0 c03c
00000120: e56a 2e3c d659 c63b 0765 40bd 4970 8a3c
00000130: a150 793d 2c17 893b 78dc 293d 8451 72bc
00000140: abd2 333b 9c75 683d 9aae 33bd 4f86 0c3d
00000150: 9e09 2f3d 71a7 053c e595 08bd 3be4 d4bc
00000160: b7f5 69bd d180 2cbd 5bc8 68bd 14fc 533d
00000170: 48cc 7cbd 1cc0 f3bc f5bf b93c b756 133d
00000180: 0563 31bd 011f f73c ce27 6fbc c54e c13c
00000190: f79d e8bc 5f40 76bd d1e1 893c f951 be3c
000001a0: b84d 133d 91c8 823c bf3e 41bc 6862 98bc
000001b0: 60f6 f13c 2ec3 bdba 8d76 36bc ccd9 f4bc
000001c0: a62c 08bd dec9 8e3b c498 cbbc b770 8b3d
000001d0: 18c1 783d d2f8 293d 564a 123d d8de cc3c
000001e0: c7bd aebc e74c b93b fa0a 35bb 02b4 fbbc
000001f0: a970 1cbc deed ee3c c7ab 073d 561e 6c3d
00000200: e432 94bc 9df0 143d 9f68 70bd a7fd c13c
00000210: ae42 adbc 2e31 0b3c 0148 203d 0078 55bd
00000220: ae94 c53c 567a d7bc 9744 70bd 31e8 a1bc
00000230: 3da4 54bd c65f 9b3c 6346 a3bc 2494 a13b
00000240: 4f8b a43c d17c f3bc 0ffc 7fbd e0a2 09bd
00000250: 61d7 043d 561d 243d 6de7 603d 7a83 23bd
00000260: 33eb 023d cc54 7cbd 2007 873c 2c77 093d
00000270: 74f5 143d 9da7 383c a99b 5b3c bbdc 20bc
00000280: b417 93ba d618 1b3d 0347 823c cd6b f3bc
00000290: 3241 32bc 03f0 32bd b3c2 62bd 5726 bf3a
000002a0: 5cd7 683d e934 35bd d9e3 e3ba e097 083d
000002b0: c8a6 d1bc c47c 803d 77f1 b3bb 829b 1b3d
000002c0: 8dcb a63c a3d3 0cbd 1503 b43c 2a45 f7bc
000002d0: 379d b4bc 950b 063d 41ec 4c3d 3209 903c
000002e0: ed45 ccbc 14b4 b0bc 3995 7cbd 5208 4dbd
000002f0: b2ca ffbc e25e 2cbd 1fd4 debc 7e17 2a3c
00000300: 8047 563d 626d 34bd 6257 0abb 7fe7 f53c
00000310: 7391 753d c455 443c 2c61 3d3d c0c8 2abc
00000320: 4543 8a3c 194e e73c 6501 3cbd ee45 213d
00000330: 9552 943b 763f 36bd f2a6 cbbb 0388 09bd
00000340: d833 a73c 31cd 233d 283e 17bd bf21 e63c
00000350: 043b ea3c f1c2 163d fa9d 413d f183 26bd
00000360: 0214 6f3d de5f 623c fc87 263d ecba 143c
00000370: 0da6 a93c e7db 3ebc f0bd f53b 1be5 cc3c
00000380: fbbe 373b d44f 303d b7ca 1dbc 689a a1bc
00000390: 3254 5abd 018e 02bd fdd7 0abd acee 3c3c
000003a0: 3264 633d 079b 693a 08a7 c73c c85b 283d
000003b0: 78e9 6abd aff8 fdba db47 4e3d 8ce9 30bc
000003c0: 7f52 983d f0cf 82ba dab3 753d 53f5 c23c
000003d0: 962a 61bd fc33 533c 6ca8 d93b c65d c43c
000003e0: a11c 9b3a b3ad 643d e364 2abd 8b74 c1bc
000003f0: 720d 6b3d 13f7 5fbc 807f 84bd f3c3 1bbd

li1.bias f4 [64]
0.056142557 0.014004206 0.044170957 -0.059551105 -0.028206695 -0.05484688 -0.004303083 0.021177894
0.019028174 -0.047363486 0.046102256 -0.05192394 0.008253456 0.033757005 0.043583736 0.0458868
-0.028174367 -0.035109702 -0.029903306 -0.013710681 -0.020291736 0.05966423 -0.035349835 0.019424101
0.056991614 -0.039122444 0.047359243 -0.0246955 0.06276669 -0.007987128 -0.017702052 0.03628059
0.009769341 0.036983415 -0.041768327 -0.029872986 -0.043462146 -0.016671922 -0.037643105 0.03618175
-0.033408597 -0.054792035 0.048637345 -0.039937474 -0.056640323 0.009880911 0.008274275 0.005930714
-0.034093983 0.0015495932 0.032194037 0.030534202 0.016067654 0.039747685 -0.037737515 -0.0461286
0.0013520095 -0.035586458 0.04833846 -0.0058199526 -0.042043217 -0.015370778 0.021976817 0.04703744
00000000: bdf5 653d e671 653c 9bec 343d dceb 73bd
00000010: ba11 e7bc 1fa7 60bd e000 8dbb 437d ad3c
00000020: f9e0 9b3c 3700 42bd b8d5 3c3d 33ae 54bd
00000030: 8139 073c c944 0a3d dc84 323d ccf3 3b3d
00000040: eecd e6bc 31cf 0fbd c7f7 f4bc c4a2 60bc
00000050: db3a a6bc 7b62 743d fdca 10bd 4b1f 9f3c
00000060: 0a70 693d db3e 20bd c4fb 413d 384e cabc
00000070: d38b 803d 71dc 02bc e503 91bc f59a 143d
00000080: 960f 203c ec7b 173d 4415 2bbd 31b8 f4bc
00000090: 5d05 32bd 8e93 88bc a82f 1abd 5133 143d
000000a0: 74d7 08bd 9d6d 60bd f437 473d 7a95 23bd
000000b0: afff 67bd 8be3 213c d390 073c 6f56 c23b
000000c0: 22a6 0bbd b81b cb3a e5dd 033d dd22 fa3c
000000d0: 50a0 833c 78ce 223d a792 1abd 58f1 3cbd
000000e0: e935 b13a 1bc3 11bd 8dfe 453d 4db5 bebb
000000f0: 8235 2cbd b7d5 7bbc ba08 b43c 55aa 403d

li2.weight f4 [64, 64]
-0.091098204 -0.0124844 0.001287666 -0.10022489 -0.09377264 -0.09228293 0.054685533 0.00034096156
-0.08346509 0.009573768 0.08637718 -0.060555577 0.073703624 -0.04203476 -0.08418327 -0.07935181
0.10934607 -0.11807864 -0.014073398 -0.03732739 0.04682745 0.055386424 -0.027841402 -0.051001973
-0.0028340567 0.005011 -0.026954344 -0.038225953 0.032512512 0.01846006 0.108548574 -0.10470831
-0.06329227 0.049123712 0.045933593 0.018953769 -0.0091559235 -0.08534917 0.0630883 -0.0016353731
0.06649721 0.08923671 0.1252735 -0.0029686983 0.07989169 0.040073715 -0.038732104 -0.070370235
-0.09111268 -0.0819132 0.018878305 0.053575322 0.011247129 0.06511612 -0.11350724 -0.05631253
-0.11365101 0.0036968645 -0.009950928 -0.1185225 -0.024568291 0.11985091 -0.058880217 -0.088468686
0.0052180565 -0.028714867 -0.06442786 0.026294675 -0.12309578 0.00812389 -0.05144929 0.08146923
0.052817382 0.0038152288 0.042320378 -0.07505771 0.1011867 -0.0060901353 -0.10580222 -0.12572649
0.07760765 0.0054314174 0.115716256 -0.056767836 0.031735286 -0.020398311 -0.044537213 0.11976404
-0.094943784 0.09097303 0.07488138 0.101713054 0.0032507204 -0.072857425 -0.09832805 0.069583654
-0.12836842 -0.053091682 0.05025859 0.0013772725 0.043295365 -0.046408426 -0.052748233 -0.009479094
-0.023912128 0.044200294 -0.075234234 -0.096228816 -0.100656316 -0.013387775 -0.070575945 -0.11720643
-0.04516252 -0.081446484 -0.027451923 0.058424953 -0.10663748 0.06589029 0.010625723 -0.07572678
0.059633594 -0.056367416 0.12206233 -0.10457814 -0.068847544 0.08186039 0.034544222 0.07108042
0.11348856 -0.033483256 0.11671876 0.018977094 0.091589436 -0.10842046 0.031222526 0.10795394
0.048979033 0.04248486 -0.011040671 -0.03928935 -0.07707415 -0.02017573 -0.019353699 -0.031907335
-0.041157123 0.0082225455 0.12050861 -0.0075839083 0.046895467 0.09023013 -0.057018247 -0.026415233
0.038725037 -0.054009803 -0.05106078 -0.0713083 0.11548912 0.07845123 0.107574925 0.06378996
-0.045065824 0.047129788 0.048935875 0.06591106 -0.022948502 -0.008176858 -0.04965534 -0.013216448
-0.0688185 -0.030306293 -0.06670958 0.06480608 -0.091616794 -0.105916426 0.038417924 -0.08331837
0.025461305 0.07703514 -0.117919184 -0.113379136 -0.080587886 0.04709908 -0.030999312 0.1214698
-0.06455521 0.10604815 0.04804752 -0.10712992 0.026301263 -0.06974129 0.12901416 -0.100460835
0.11583784 -0.025502315 0.04787804 0.012269434 0.09307342 0.10103165 0.02652248 -0.0889948
-0.050587222 -0.09460519 0.04856609 0.03927891 -0.08784409 -0.071692735 0.042120725 -0.05278675
-0.086282425 -0.05236891 0.009708736 0.007190676 0.109580174 0.046829887 0.013414653 0.06302953
0.14033733 -0.06028574 -0.10844271 0.016586436 -0.025351102 0.0009349406 -0.1196435 0.050738227
-0.026705263 -0.11995527 -0.098131254 -0.018254863 -0.04872381 -0.07803876 -0.014695893 0.039718013
-0.07722442 -0.0729353 0.07177817 0.006465259 0.022456234 -0.07168517 0.043386243 0.0024299058
-0.0680111 0.1332863 0.10424807 0.03447927 0.15001486 -0.0071203643 -0.07709579 -0.06852038
0.008102827 0.08895718 -0.10527758 -0.07277023 -0.06080218 -0.05298106 -0.049938686 0.15216449
00000000: b291 babd 5e8b 4cbc e7c6 a83a b542 cdbd
00000010: df0b c0bd d5fe bcbd f0fd 5f3d 16c3 b239
00000020: bfef aabd 4bdb 1c3c 85e6 b03d 2009 78bd
00000030: edf1 963d a42c 2cbd 4768 acbd 3483 a2bd
00000040: d5f0 df3d 37d3 f1bd 1c94 66bc 9be4 18bd
00000050: 24ce 3f3d e0dc 623d a713 e4bc 72e7 50bd
00000060: 95bb 39bb 5133 a43b 5bcf dcbc d192 1cbd
00000070: d72b 053d 8d39 973c b74e de3d 4f71 d6bd
00000080: 619f 81bd f235 493d dd24 3c3d ef44 9b3c
00000090: ba02 16bc 8ccb aebd 7034 813d 045a d6ba
000000a0: b02f 883d bcc1 b63d b247 003e 7e8e 42bb
000000b0: 419e a33d 5624 243d 8ea5 1ebd 451e 90bd
000000c0: 4999 babd 1cc2 a7bd ada6 9a3c cc71 5b3d
000000d0: e145 383c 9a5b 853d 7c76 e8bd f8a7 66bd
000000e0: dcc1 e8bd 1847 723b 3809 23bc edbb f2bd
000000f0: 7143 c9bc 6574 f53d 622c 71bd 122f b5bd
00000100: 3bfc aa3b 713b ebbc c1f2 83bd ee67 d73c
00000110: a419 fcbd 101a 053c 7ebc 52bd 57d9 a63d
00000120: 0a57 583d eb08 7a3b 2258 2d3d dbb7 99bd
00000130: f93a cf3d c28f c7bb d6ae d8bd 72be 00be
00000140: c2f0 9e3d 08fa b13b a5fc ec3d 6485 68bd
00000150: dcfc 013d 5c1a a7bc a76c 36bd d946 f53d
00000160: e371 c2bd 1150 ba3d 695b 993d ef4e d03d
00000170: 0a0a 553b 4636 95bd 3760 c9bd e081 8e3d
00000180: 0373 03be aa76 59bd f4db 4d3d 9985 b43a
00000190: 7b56 313d c316 3ebd 880e 58bd 344e 1bbc
000001a0: 5ee3 c3bc 5e0b 353d 6814 9abd 9d13 c5bd
000001b0: e624 cebd 6658 5bbc 1f8a 90bd ed09 f0bd
000001c0: 56fc 38bd 6acd a6bd dbe2 e0bc 014f 6f3d
000001d0: c064 dabd 7df1 863d 8317 2e3c a416 9bbd
000001e0: 5b42 743d 85e1 66bd d1fb f93d 102d d6bd
000001f0: f1ff 8cbd 6ca6 a73d 3e7e 0d3d 9c92 913d
00000200: b16c e83d bd25 09bd 3f0a ef3d da75 9b3c
00000210: 3e93 bb3d 8c0b debd 62c6 ff3c f516 dd3d
00000220: 3d9e 483d 9b04 2e3d eee3 34bc dfed 20bd
00000230: 0dd9 9dbd 9347 a5bc a68b 9ebc 44b1 02bd
00000240: 5f94 28bd dbb7 063c 38cd f63d 6f82 f8bb
00000250: 7615 403d 93ca b83d f78b 69bd c264 d8bc
00000260: 259e 1e3d 6239 5dbd 1c25 51bd 160a 92bd
00000270: 8f85 ec3d 0aab a03d 3e50 dc3d 50a4 823d
00000280: f196 38bd 2a0b 413d fc70 483d 61fc 863d
00000290: 7ffe bbbc 3af8 05bc 6663 4bbd cd89 58bc
000002a0: b7f0 8cbd e744 f8bc 089f 88bd 0db9 843d
000002b0: 96a1 bbbd b6ea d8bd 1d5c 1d3d d2a2 aabd
000002c0: 3a94 d03c 99c4 9d3d 9d7f f1bd 5233 e8bd
000002d0: 430b a5bd f7ea 403d 45f2 fdbc 29c5 f83d
000002e0: 8635 84bd c62f d93d 7acd 443d ee66 dbbd
000002f0: bf75 d73c 85d4 8ebd 4a1c 043e 69be cdbd
00000300: 643c ed3d 3bea d0bc c31b 443d bc05 493c
00000310: 479d be3d afe9 ce3d ac45 d93c e842 b6bd
00000320: 8c34 4fbd 5ec0 c1bd 3ded 463d ece2 203d
00000330: 9ae7 b3bd a4d3 92bd c886 2c3d eb36 58bd
00000340: d7b4 b0bd c880 56bd 6411 1f3c c39f eb3b
00000350: 926b e03d b2d0 3f3d 22c9 5b3c a015 813d
00000360: 97b4 0f3e 2eee 76bd 3617 debd 47e0 873c
00000370: 1dad cfbc cd16 753a a707 f5bd e3d2 4f3d
00000380: ffc4 dabc 1cab f5bd 0af9 c8bd 398b 95bc
00000390: 9e92 47bd c9d2 9fbd 0bc7 70bc 5baf 223d
000003a0: d627 9ebd 1a5f 95bd 6f00 933d 86da d33b
000003b0: 23f6 b73c adcf 92bd c6b5 313d 0e3f 1f3b
000003c0: 6749 8bbd 347c 083e 0380 d53d 233a 0d3d
000003d0: 7f9d 193e f251 e9bb 66e4 9dbd 6a54 8cbd
000003e0: b8c1 043c 2f2f b63d c69b d7bd 8f08 95bd
000003f0: b50b 79bd ab02 59bd 828c 4cbd 02d1 1b3e

li2.bias f4 [64]
0.04970578 0.05605656 0.07408907 -0.11603524 0.10767847 -0.061390374 -0.06166024 -0.047351763
-0.06104578 -0.018273875 0.041850686 0.1105382 0.03355881 0.08086752 0.09005382 0.019088276
-0.07771932 0.046282243 -0.030749248 -0.100767374 0.08739185 0.017275475 -0.0005156952 0.03130808
-0.022094755 0.05406178 -0.0115386965 -0.0062842746 -0.033541657 -0.05765227 0.020982724 -0.033064514
0.00948229 -0.082500696 0.027150061 0.08419606 0.05642378 -0.11375562 -0.071611315 -0.018367335
-0.08610432 -0.056118812 -0.109666236 0.060743783 -0.10664315 0.033754405 -0.115637556 -0.05824671
-0.0065016313 0.027158286 0.03673381 -0.09025197 -0.100469425 0.030413827 0.123760656 -0.107222274
-0.045372143 -0.060204506 -0.11276605 -0.019441321 -0.028614141 -0.105458625 0.12488834 -0.09389147
00000000: 4a98 4b3d 909b 653d 03bc 973d e2a3 edbd
00000010: 8886 dc3d 7974 7bbd 738f 7cbd ecf3 41bd
00000020: 240b 7abd 18b3 95bc a06b 2b3d da61 e23d
00000030: f674 093d df9d a53d 236e b83d 045f 9c3c
00000040: 4f2b 9fbd 7392 3d3d d9e5 fbbc 205f cebd
00000050: 80fa b23d 4c85 8d3c b82f 07ba e73c 003d
00000060: 0f00 b5bc e36f 5d3d cd0c 3dbc 51ec cdbb
00000070: fa62 09bd c924 6cbd f6e3 ab3c a86e 07bd
00000080: 9b5b 1b3c 20f6 a8bd ce69 de3c fc6e ac3d
00000090: 9f1c 673d b5f8 e8bd f4a8 92bd 1877 96bc
000000a0: 7657 b0bd d7dc 65bd b198 e0bd 79ce 783d
000000b0: b967 dabd 0f42 0a3d 62d3 ecbd 1a94 6ebd
000000c0: a30b d5bb 0e7b de3c 3176 163d 06d6 b8bd
000000d0: eac2 cdbd 6b26 f93c 3a76 fd3d 5a97 dbbd
000000e0: 24d8 39bd 0099 76bd e3f1 e6bd 6843 9fbc
000000f0: 3468 eabc b1fa d7bd 75c5 ff3d 2c4a c0bd

li3.weight f4 [4, 64]
-0.022000236 -0.14284223 -0.10896413 -0.053011257 0.078615054 -0.054046728 0.059887487 0.16357616
0.08947299 -0.09983979 -0.052978132 -0.0949646 0.08439809 0.23776299 0.007924502 -0.0024320383
-0.14134704 0.095361724 -0.14943841 0.059392344 -0.2050681 0.10395511 0.14543627 -0.13694905
-0.17195979 -0.036707815 0.0006491029 -0.003547493 0.08506926 0.012793515 -0.0429237 0.12052648
-0.026694829 -0.09030273 -0.15043475 -0.11678422 -0.08032217 -0.17659713 0.13864094 -0.018642271
0.17735167 0.21099663 -0.13963298 -0.0950813 -0.088122815 0.024344895 -0.082697086 -0.20243971
0.03954444 0.1278102 -0.004854352 0.05880424 0.050126046 0.28691682 0.025791619 0.101341456
0.3377492 -0.19390713 -0.13031976 -0.12556924 -0.09168833 -0.061057728 -0.20728675 0.047933213
-0.05902705 -0.10193803 0.06678474 0.00053293415 -0.14464651 -0.0946801 -0.008649609 0.06802029
-0.011988545 -0.10229157 -0.010605584 0.18379194 -0.12029669 0.030742927 -0.14103523 0.049201243
-0.12078377 0.2166228 0.051831335 0.09673929 0.010990265 -0.20157905 -0.36536828 -0.020446377
0.14540355 -0.13341685 -0.14440183 0.1844526 0.017356876 0.06288711 -0.19632846 0.13441676
0.022724222 0.07612815 -0.041539367 -0.008337161 0.11465428 -0.10647804 -0.14916342 0.039174553
0.14527994 -0.0247232 -0.1415945 0.20100744 0.08582808 -0.036603283 0.09489996 -0.061756175
-0.0026630736 0.09228338 0.21129662 0.05700654 -0.06756467 0.26361066 0.13007349 -0.04406906
-0.060319114 -0.015958603 0.15671988 0.08105811 -0.07045503 -0.19519319 -0.14726497 0.017241566
-0.022515392 0.12601782 -0.11122176 0.21889678 -0.08676391 0.044657618 0.05222952 -0.3085793
-0.07841153 0.0064958977 0.11583632 0.045253754 -0.09038959 0.051455848 -0.08949177 0.048122954
0.11734752 -0.07044032 0.033919103 -0.1731931 0.2193952 0.07064491 -0.20497821 0.12018589
0.11596221 0.15169899 0.15993959 -0.015246114 -0.006039487 -0.1741696 -0.100306705 -0.120556615
-0.113722265 -0.04582879 0.15255935 -0.129625 -0.21259291 0.040251765 -0.07799337 0.11357144
0.16097736 -0.14934063 0.025701547 -0.06879556 -0.077306114 -0.09084472 -0.13009016 -0.03681872
-0.12674877 0.02396206 -0.093357146 0.21765 -0.065737784 0.11134694 -0.12871379 -0.06518188
0.030016912 -0.03213716 -0.08042718 -0.13071427 0.11470448 0.11027004 -0.030618478 -0.12123413
0.06459977 0.1192831 -0.019014936 -0.11120791 -0.007200865 -0.14049108 -0.09816927 0.06272305
0.08164584 -0.078222096 0.13672505 0.049306497 0.14958663 0.09763777 0.013536602 0.101457246
0.055434402 0.07212419 0.10078805 -0.08677121 -0.1342659 0.14457278 0.004932319 -0.016287675
0.06840151 0.12660654 0.06162211 -0.24206367 0.028054705 0.009821529 -0.09150482 -0.19308609
0.03912867 0.07373564 0.16242364 0.17286141 -0.11787864 0.004705894 -0.07125933 -0.032790627
0.0062327418 -0.041664854 0.13879997 -0.17540172 0.055273034 -0.06529634 -0.09763971 -0.090996005
0.041295268 -0.098447084 -0.24256673 0.21992911 0.057940412 0.05487485 0.113562316 -0.0016567082
-0.15027916 -0.10929723 0.20560452 -0.099712536 0.07433146 0.12319789 -0.07553126 -0.2180666
00000000: d739 b4bc 3c45 12be 9628 dfbd 5522 59bd
00000010: ee00 a13d 1a60 5dbd 954c 753d 8280 273e
00000020: 9d3d b73d ce78 ccbd 99ff 58bd cd7c c2bd
00000030: e8d8 ac3d 2478 733e c5d5 013c d562 1fbb
00000040: 47bd 10be 024d c33d 6206 19be 6345 733d
00000050: 5ffd 51be 6be6 d43d 3fed 143e 5f3c 0cbe
00000060: 3a16 30be ef5a 16bd 8f28 2a3a 0e7d 68bb
00000070: cb38 ae3d e49b 513c c3d0 2fbd 96d6 f63d
00000080: 1daf dabc a3f0 b8bd 910b 1abe 912c efbd
00000090: f37f a4bd e1d5 34be e4f7 0d3e adb7 98bc
000000a0: ad9b 353e 800f 583e f3fb 0ebe fcb9 c2bd
000000b0: bc79 b4bd f26e c73c 175d a9bd 5b4c 4fbe
000000c0: 5af9 213d ade0 023e 4211 9fbb b7dc 703d
000000d0: f850 4d3d c3e6 923e f248 d33c 1c8c cf3d
000000e0: 77ed ac3e 978f 46be 8b72 05be 3995 00be
000000f0: 17c7 bbbd ab17 7abd fa42 54be 9e55 443d
00000100: 59c6 71bd e3c4 d0bd 70c6 883d 9bb4 0b3a
00000110: 371e 14be a4e7 c1bd 17b7 0dbc 394e 8b3d
00000120: 9a6b 44bc 3e7e d1bd 0bc3 2dbc f433 3c3e
00000130: 1c5e f6bd 97d8 fb3c 8a6b 10be 3e87 493d
00000140: 7b5d f7bd 5ed2 5d3e 184d 543d 401f c63d
00000150: 8310 343c bd6a 4ebe 8d11 bbbe 297f a7bc
00000160: abe4 143e 6d9e 08be 13de 13be 24e1 3c3e
00000170: 0230 8e3c f5ca 803d 540a 49be 8ca4 093e
00000180: 2628 ba3c 13e9 9b3d 2f25 2abd 9698 08bc
00000190: ddcf ea3d 2911 dabd 4cbe 18be 7f75 203d
000001a0: 44c4 143e 4f88 cabc 26fe 10be e5d4 4d3e
000001b0: a2c6 af3d 53ed 15bd e95a c23d 0bf4 7cbd
000001c0: f686 2ebb 12ff bc3d 245e 583e b17f 693d
000001d0: 595f 8abd faf7 863e fc31 053e c281 34bd
000001e0: 2d11 77bd 9ebb 82bc 2d7b 203e cb01 a63d
000001f0: ba4a 90bd b9e0 47be a1cc 16be 2f3e 8d3c
00000200: 3372 b8bc d10a 013e 3cc8 e3bd 7a26 603e
00000210: 47b1 b1bd e8ea 363d 9fee 553d 1bfe 9dbe
00000220: 3996 a0bd 8adb d43b 983b ed3d 005c 393d
00000230: 2d1e b9bd 5ec3 523d 7647 b7bd 931c 453d
00000240: e653 f03d 0443 90bd c2ee 0a3d 8859 31be
00000250: 23a9 603e 47ae 903d cfe5 51be 0524 f63d
00000260: 987d ed3d fb56 1b3e 34c7 233e d6ca 79bc
00000270: e4e6 c5bb 8459 32be 9a6d cdbd 63e6 f6bd
00000280: 38e7 e8bd f8b6 3bbd 8538 1c3e 6abc 04be
00000290: f5b1 59be 09df 243d fdba 9fbd 2598 e83d
000002a0: 40d7 243e c0ec 18be 0d8c d23c b0e4 8cbd
000002b0: ab52 9ebd cc0c babd 5b36 05be 3acf 16bd
000002c0: 6eca 01be 154c c43c 0832 bfbd a4df 5e3e
000002d0: 88a1 86bd dd09 e43d 8ccd 03be 147e 85bd
000002e0: 07e6 f53c 41a2 03bd 01b7 a4bd f6d9 05be
000002f0: 2fea ea3d 42d5 e13d 9ad3 fabc 9949 f8bd
00000300: e24c 843d b34a f43d 36c5 9bbc f9c0 e3bd
00000310: 3cf5 ebbb e5dc 0fbe f80c c9bd f174 803d
00000320: ef35 a73d e832 a0bd a701 0c3e 9cf5 493d
00000330: 3d2d 193e 50f6 c73d a0c8 5d3c d1c8 cf3d
00000340: 2f0f 633d d9b5 933d f769 ce3d 1bb5 b1bd
00000350: 007d 09be e30a 143e 4a9f a13b bb6d 85bc
00000360: 1716 8c3d 25a5 013e 7767 7c3d 8adf 77be
00000370: fbd2 e53c 7aea 203c e166 bbbd 5cb8 45be
00000380: 6245 203d b602 973d 6252 263e 9502 313e
00000390: 5b6a f1bd e633 9a3b 69f0 91bd 774f 06bd
000003a0: 073c cc3b c4a8 2abd 9421 0e3e 829c 33be
000003b0: fa65 623d 16ba 85bd 54f7 c7bd 1d5c babd
000003c0: 3a25 293d a09e c9bd 6a63 78be 1935 613e
000003d0: ed52 6d3d 73c4 603d 5c93 e83d e725 d9ba
000003e0: c8e2 19be 3ad7 dfbd fe89 523e 1636 ccbd
000003f0: 183b 983d 2d4f fc3d 22b0 9abd da4c 5fbe

li3.bias f4 [4]
-0.022713251 -0.008774026 -0.07828812 -0.050946746
00000000: 2411 babc efc0 0fbc 8655 a0bd 89ad 50bd
