lang_model.pth (torch, 533497 bytes, 6 tensors)

li1.weight f4 [256, 256]
0	0xbdb3cede	-0.08779691
1	0x3bb1c338	0.005424883
2	0x3d09c364	0.033633605
3	0x3e002073	0.12512378
4	0x3dc12ed5	0.094327606
5	0xbbc9eade	-0.0061620316
6	0x3c4ccfed	0.012500745
7	0xbd3f68c1	-0.04673076
8	0xbd656e18	-0.056013197
9	0x3ddb3474	0.10703364
10	0x3c3f9719	0.011693739
11	0xbb927280	-0.004469216
12	0xbd80a005	-0.06280521
13	0x3d58c8a6	0.05292573
14	0x3d8ebcb4	0.06969586
15	0x3d2b3e86	0.041807674
16	0x3cdfac76	0.027303915
17	0x3df4ac7b	0.119469605
18	0x3acc5589	0.0015589456
19	0x3d0b8494	0.034061983
20	0xbda570a8	-0.08078128
21	0xbcb23d1a	-0.021757651
22	0x3d48af9e	0.048995607
23	0xbc89338a	-0.016748209
24	0x3e2604f2	0.16212824
25	0xbbac728d	-0.005262679
26	0x3d2f8ff7	0.042861905
27	0x3d4b4fb8	0.049636573
28	0x3d9898b8	0.07451004
29	0xbd9bf45a	-0.07614966
30	0xbda5f1ee	-0.08102785
31	0xbc837f4c	-0.01605191
32	0x3c9a4f06	0.01883651
33	0xbbee41df	-0.007271036
34	0xbdf9c0df	-0.1219499
35	0xbe11a155	-0.142217
36	0xbdb4cdea	-0.088283375
37	0xbcdffdfa	-0.027342785
38	0xbd0cd46b	-0.034382265
39	0x3a90bc25	0.00110424
40	0x3d5d466a	0.05402223
41	0xbca18adf	-0.01971954
42	0x3d45980e	0.048240714
43	0xbd834afd	-0.06410787
44	0xbcbc59a7	-0.022991968
45	0xbd466d35	-0.04844399
46	0xbdd658e6	-0.10466175
47	0x3da69770	0.08134353
48	0x3d92a9ff	0.071613304
49	0xbc06d9ed	-0.0082306685
50	0xbd884ad0	-0.06654894
51	0xbd9e683a	-0.077347234
52	0xbc86146c	-0.01636716
53	0xbd915ad6	-0.07097404
54	0x3cdeae5c	0.02718275
55	0xbac36390	-0.0014906991
56	0xbc97b7e6	-0.018520307
57	0x3d05ef96	0.03269919
58	0xbc1ad743	-0.009450736
59	0x3d483f02	0.048888214
60	0x3bc57927	0.0060264054
61	0xbdad88a3	-0.08473327
62	0x3cb32058	0.021866009
63	0x3d9b5281	0.07584096
64	0x3c9e68c4	0.019337066
65	0xbcbdd40d	-0.023172403
66	0x3cb98e16	0.02265076
67	0xbe11efc3	-0.14251618
68	0xbdaa8a32	-0.0832714
69	0x3dc8b17f	0.0979948
70	0xbc100bbb	-0.008791859
71	0xbd9b33e7	-0.07578259
72	0x3d942028	0.07232696
73	0x3cc00aad	0.02344259
74	0x3d893fe3	0.067016385
75	0xbd652e98	-0.05595264
76	0x3de0a33b	0.10968634
77	0xbdfa375a	-0.12217589
78	0xbd095078	-0.033524007
79	0x3d8a604e	0.0675665
80	0xbc82fc4f	-0.01598945
81	0x3cf0fe13	0.029418027
82	0x3d9957e9	0.07487471
83	0xbd26ab21	-0.040690545
84	0x3ade11ab	0.0016942521
85	0xbacd637c	-0.0015669907
86	0x3dc9e9c7	0.098590426
87	0xbdc5a608	-0.096508086
88	0xbcc564a3	-0.024095839
89	0x3c739508	0.014867075
90	0x3d174f9a	0.03694115
91	0xbbf2a8dd	-0.007405384
92	0xbd556b9b	-0.052104574
93	0xbcdb346d	-0.026758397
94	0x3c37bcb9	0.011214429
95	0x3ddf78f4	0.10911742
96	0x3c920cfc	0.017828457
97	0xbdefd0ec	-0.117097706
98	0xbd5d10c5	-0.05397107
99	0x3c6917a5	0.014226829
100	0xbd2db1ee	-0.042406015
101	0x3dab8eee	0.08376871
102	0xbd7b4f84	-0.06135513
103	0x3db050bb	0.08609148
104	0xbd8a2675	-0.06745616
105	0x3d9ba181	0.07599164
106	0x3bbb6098	0.005718302
107	0xbd9ce0d0	-0.07660067
108	0x3dbdb94c	0.09263858
109	0x3da3373e	0.07969521
110	0xba870d71	-0.0010303688
111	0xba707672	-0.0009172923
112	0x3d87b611	0.06626523
113	0x3dac07a8	0.08399898
114	0xbd1f3c8b	-0.038876098
115	0xbd985ff8	-0.074401796
116	0x3b982ccc	0.004644012
117	0x3cf9151d	0.030405575
118	0xbbba96f9	-0.005694267
119	0x3d0c5ed9	0.03427014
120	0xbda89ce5	-0.0823305
121	0xbde01670	-0.109417796
122	0xbd8763b7	-0.06610816
123	0x3d81dd8f	0.06341087
124	0xbdabc2fa	-0.08386798
125	0x3c9f81e8	0.019471124
126	0xbc96192f	-0.018322555
127	0xbd7b1e11	-0.06130797
128	0x3db3d8ce	0.087815866
129	0x3c701350	0.014653042
130	0xbd25150c	-0.040303275
131	0x3de24236	0.11047785
132	0x3cca4238	0.024689779
133	0xbc6e6b3a	-0.014551932
134	0x3df94ec1	0.12173224
135	0xbd780c23	-0.06055845
136	0xbcff6a6b	-0.031178674
137	0x3ad92d2e	0.0016569251
138	0x3d548f67	0.05189457
139	0x3c995cb2	0.018720958
140	0xbd0395c6	-0.032125257
141	0x3dad7082	0.08468725
142	0xbdd9c65d	-0.10633538
143	0xbdf67b8c	-0.120352834
144	0xbb753efd	-0.0037421577
145	0x3cc86e51	0.024466665
146	0xbd8a3e34	-0.067501456
147	0xbd483264	-0.04887618
148	0x3db5407b	0.08850189
149	0x3d96bdf1	0.07360447
150	0x3d208d68	0.039197356
151	0xbcdd0500	-0.026979923
152	0x3dae9cc1	0.08525992
153	0xbc232886	-0.009958392
154	0x3c1b4441	0.009476722
155	0xbc9ad685	-0.018901119
156	0x3d848092	0.06469835
157	0xbd037251	-0.032091442
158	0xbdbb2c62	-0.09139325
159	0x3d6f0481	0.058353905
160	0x3d96ac22	0.073570505
161	0xbcfc89c1	-0.030827405
162	0x3da1e41a	0.07904835
163	0xbde862d0	-0.11346972
164	0x3ddf7a49	0.10911996
165	0xbd1a31a2	-0.03764499
166	0xbd1e5f77	-0.03866526
167	0x3dda384f	0.10655271
168	0xbd34cc45	-0.04414012
169	0x3dd43f16	0.10363595
170	0x3dd773ba	0.1052012
171	0x3bf4d60e	0.0074718064
172	0x3d89932f	0.06717526
173	0xbd5a8424	-0.053348675
174	0x3d382ec0	0.04496646
175	0x3d14e7e4	0.03635396
176	0x3d9c5e60	0.07635188
177	0xbc720428	-0.014771499
178	0xbd36c2c5	-0.04461934
179	0x3c84debc	0.01621949
180	0x3c9e923f	0.019356845
181	0x3c13099c	0.008974459
182	0xbd62a50c	-0.055333182
183	0x3d91b87b	0.07115265
184	0xbdfb4512	-0.122690335
185	0xbcae72e6	-0.021295022
186	0x3b7d03d1	0.003860701
187	0xbd69b6a7	-0.057058956
188	0x3dded7d9	0.108810134
189	0x3d142c4b	0.036175054
190	0x3daae56c	0.0834454
191	0xbe17eaf5	-0.14835723
192	0x3dfb5f76	0.12274067
193	0x3c5b835e	0.01339802
194	0x3d323365	0.043506045
195	0x3db817d6	0.08988921
196	0x3d9a64b3	0.07538738
197	0xbd7e045d	-0.06201588
198	0xbb5a5c96	-0.0033319346
199	0x3c998a62	0.018742744
200	0xbc33b266	-0.0109678265
201	0x39a6684e	0.000317397
202	0x3ceae90b	0.028675577
203	0x3ccc6fcd	0.024955655
204	0xbdcdb21c	-0.10043737
205	0x3ca4fef6	0.020141106
206	0xbde054c5	-0.109536685
207	0xbd79d136	-0.060990535
208	0xbda980fe	-0.082765564
209	0x3ce28a4f	0.027653841
210	0xbd84d7dd	-0.06486485
211	0xbdb664f1	-0.08905972
212	0xbbf66f6d	-0.007520607
213	0x3d55134a	0.05202035
214	0xbd1f3a19	-0.038873766
215	0x3d6e21fe	0.058137886
216	0x3dc55519	0.09635372
217	0xbb49628c	-0.0030728905
218	0xbd55b4a5	-0.05217423
219	0x3c93aed2	0.018027697
220	0xbd42acbe	-0.04752802
221	0xbc65e496	-0.01403155
222	0xbd2c5ac3	-0.042078745
223	0xbb8df6ae	-0.004332385
224	0xbd97aa0c	-0.07405481
225	0xbdb78022	-0.08959986
226	0xbc1597ab	-0.009130399
227	0x3dd1b96f	0.10240447
228	0x3bbfbca8	0.005851347
229	0x3d877715	0.0661451
230	0xbd87b172	-0.06625642
231	0x3c9d5790	0.019206792
232	0xbbc6e821	-0.0060701524
233	0x3d867b87	0.0656653
234	0x3cf9b9b2	0.030484054
235	0x3aee4fef	0.0018181781
236	0xbd8fdff9	-0.07025141
237	0xbe12f8a8	-0.14352667
238	0x3d5cf73e	0.053946726
239	0xbd9c06e3	-0.07618501
240	0xbcd020fb	-0.025406351
241	0xbd6ef7ed	-0.05834191
242	0x3da1c975	0.07899753
243	0x3d0cfd03	0.03442098
244	0x3d89054d	0.06690464
245	0x3d35934d	0.04432993
246	0x3a89160f	0.0010458844
247	0x3ccd0618	0.02502732
248	0xbd3087df	-0.043098327
249	0x3d08f78e	0.03343921
250	0xbd812eb9	-0.0630774
251	0x3bd9c79d	0.00664611
252	0x3e273cfd	0.16331859
253	0xbd09a3bc	-0.033603415
254	0xbc0eb532	-0.0087101925
255	0x3d9adac9	0.07561261

li1.bias f4 [256]
0	0xbcd61ef3	-0.026137805
1	0x3d7ba079	0.061432336
2	0xbd069db2	-0.032865234
3	0xbca9ad87	-0.020712627
4	0x3d16c882	0.036812313
5	0xbd861d4d	-0.065485574
6	0x3c11316f	0.008861884
7	0xbc1ef8ae	-0.009702845
8	0x3d1733fe	0.036914818
9	0xbc6fe02f	-0.014640852
10	0x3d54fafc	0.05199717
11	0xbc45971b	-0.012059952
12	0x3c304ff7	0.010761253
13	0xba9d6d53	-0.001201073
14	0x3c8b8498	0.017030999
15	0xbd842cc5	-0.064538516
16	0x3cab7122	0.02092797
17	0xbd2acc05	-0.041698474
18	0xba9404df	-0.0011292956
19	0xbc75acb1	-0.014994786
20	0x3d6e0427	0.05810943
21	0x3d23f4b8	0.040028304
22	0xbd0c90ed	-0.0343179
23	0xbd43592d	-0.047692467
24	0xbd4264ee	-0.047459535
25	0xbd2cf2eb	-0.042223852
26	0x3b11ca4e	0.0022245827
27	0x3c65a1e8	0.014015652
28	0x3d2a8c3b	0.04163764
29	0xbd00b9a8	-0.031427056
30	0x3cd2c641	0.0257293
31	0xbc9890d4	-0.018623747
32	0xbd076722	-0.03305734
33	0x39ba207e	0.00035500893
34	0x3c92fe67	0.017943574
35	0x3d755142	0.059891947
36	0x3d7d90d0	0.061905682
37	0x3be41d6a	0.0069615142
38	0xbd2778a1	-0.040886525
39	0x3d2b6905	0.0418482
40	0xbd49e1d2	-0.049287625
41	0x3d04f3d7	0.032459106
42	0xbc04420f	-0.00807239
43	0xbc324653	-0.010881024
44	0x3ba5c718	0.005059134
45	0xbd13e154	-0.03610356
46	0xbd7d258d	-0.06180339
47	0x3d70170c	0.05861573
48	0x3d81a584	0.06330398
49	0x3ce168d5	0.027515808
50	0x3d012e3f	0.031538244
51	0x3d0f3d21	0.034970406
52	0x3ba14b71	0.0049223234
53	0xbcbdcc3f	-0.023168681
54	0xbd67a6d8	-0.0565556
55	0xbc297b8b	-0.010344396
56	0x3c7eb280	0.015545487
57	0xbc088289	-0.008331903
58	0x3d31cb2f	0.04340666
59	0x3c8bfbaa	0.017087776
60	0xbd883fc0	-0.06652784
61	0xbd570fbe	-0.052505247
62	0xbd2f74c6	-0.042835973
63	0xbc111874	-0.008855928
64	0xbd6c8b2d	-0.057749916
65	0xbd15873c	-0.036505923
66	0xbd69f843	-0.057121526
67	0xbd06e93e	-0.03293728
68	0xbd13859b	-0.036016088
69	0xbcf260f3	-0.029587245
70	0xbd25785c	-0.040397987
71	0xbd839e8c	-0.06426725
72	0xbd1be235	-0.038057525
73	0xbc427c8d	-0.0118705155
74	0xbd3c016b	-0.04589979
75	0xbd1083c2	-0.035281904
76	0x3d0ea704	0.034827247
77	0x3ccf8174	0.025330283
78	0xbc149f49	-0.00907118
79	0xbd802c1a	-0.06258412
80	0xbc82bfba	-0.015960563
81	0x3d2f0cd2	0.042736836
82	0x3bf254f9	0.0073953834
83	0x3d60f3d6	0.05492004
84	0x3b6960aa	0.0035610595
85	0xbc9d57c6	-0.019206893
86	0xbd42e03d	-0.04757713
87	0x3d164b55	0.036692936
88	0x3b3a2de0	0.0028408691
89	0xbc285f4c	-0.010276627
90	0x3d58c0fd	0.052918423
91	0x3cf440a9	0.029815989
92	0xbc5466c6	-0.012963956
93	0x3d57f064	0.05271949
94	0x3d5b6bc0	0.053569555
95	0xbd2a8302	-0.041628845
96	0xbd546e81	-0.051863197
97	0x3d6d2071	0.057892267
98	0x3d016e19	0.031599138
99	0x3d70fa02	0.058832176
100	0x3ccb9a54	0.024853863
101	0x3c18fbf5	0.009337415
102	0x3a20465c	0.0006114
103	0x3d4c3ab3	0.049860667
104	0xbc295354	-0.010334808
105	0x3d395908	0.045250922
106	0x3d4274dc	0.047474727
107	0xbc8fa125	-0.017532894
108	0x3d1f2186	0.03885033
109	0xbd086b06	-0.03330519
110	0xbd6d6739	-0.05795977
111	0x3cf89818	0.030345961
112	0xbbe23d6b	-0.0069042942
113	0xbd23cdf8	-0.03999135
114	0xbd6606f1	-0.056158964
115	0xbbceb3fc	-0.006308077
116	0xbcea705f	-0.028618036
117	0x3c7d68cc	0.01546688
118	0xbcc6e1c9	-0.024277585
119	0xbcdf1719	-0.027232694
120	0x3d057d03	0.032589924
121	0x3d857647	0.065167
122	0x3d6e61cd	0.05819874
123	0x3d1d641c	0.03842555
124	0xbd876a71	-0.06612099
125	0xbc5b71da	-0.013393844
126	0xbab0bcf4	-0.0013484047
127	0xbd88eb76	-0.066855356
128	0x3d782170	0.060578763
129	0x3d05240e	0.032505088
130	0xbd9757c3	-0.07389786
131	0x3d650be6	0.05591955
132	0x3ce9639f	0.028489886
133	0xbd1320ee	-0.035920076
134	0x3c09cbbe	0.008410392
135	0x3b2f1a04	0.0026718387
136	0x3d6a1658	0.057150215
137	0xbd57124c	-0.052507684
138	0xbd302ca5	-0.043011326
139	0x3d09dedb	0.033659797
140	0x37bfae6d	2.2850198e-05
141	0xbca69acb	-0.020337483
142	0xbd1261dc	-0.035737857
143	0xbc93e561	-0.018053712
144	0x3d130cc5	0.03590085
145	0xbd0420cb	-0.032257836
146	0x3cef8030	0.02923593
147	0x3cf83714	0.0302997
148	0xbd758a17	-0.059946146
149	0xbd7b5425	-0.061359543
150	0x3c8468ce	0.016163256
151	0xbd0a0a7c	-0.033701405
152	0xbc0ff1b7	-0.008785657
153	0xbd4583b1	-0.048221294
154	0xbbf01805	-0.007327082
155	0xbd220f48	-0.039565355
156	0x3c8fdba5	0.01756079
157	0xbcb2e253	-0.021836435
158	0x3d7ae252	0.061250992
159	0x3d69b819	0.057060335
160	0x3d219c3b	0.039455634
161	0xbb911c37	-0.0044284123
162	0x3b21b97f	0.0024677215
163	0xbd444d7c	-0.047925457
164	0x3bb6a8e5	0.005574333
165	0xbc86824e	-0.016419556
166	0x3c911a84	0.017712839
167	0x3ce5e242	0.02806199
168	0xbcb6c1ca	-0.022309203
169	0xbd5c22de	-0.05374419
170	0x3bdc040b	0.006714349
171	0xbd651be1	-0.05593479
172	0x3cda6261	0.026658239
173	0xbc590a89	-0.013247141
174	0xbd3a6571	-0.0455069
175	0xbce24023	-0.027618473
176	0xbc46f072	-0.012142288
177	0x3d2b6fda	0.041854717
178	0x3d594473	0.053043794
179	0xbd693251	-0.05693275
180	0x3c8f8958	0.017521545
181	0xbd132a9a	-0.0359293
182	0xbd234fa7	-0.039870884
183	0x3c3f5679	0.0116783315
184	0x3caea5df	0.021319328
185	0x3d437f38	0.047728747
186	0xbc2c713d	-0.010525045
187	0xba827276	-0.0009952325
188	0x3c263b89	0.01014603
189	0xbd547a3e	-0.05187439
190	0x3d7c7bbc	0.06164144
191	0x3c16ffcf	0.009216263
192	0x3d815537	0.063150816
193	0x3bd56fd2	0.006513574
194	0xbd27e475	-0.040989358
195	0x3d44636c	0.04794638
196	0x3d1e046d	0.03857844
197	0x3d80b503	0.06284525
198	0xbcac8b71	-0.021062585
199	0x3d0dd1c5	0.03462388
200	0xbc413c34	-0.011794139
201	0x3d3c9cb7	0.046047892
202	0x3c83ccf4	0.01608894
203	0xbd5d0c76	-0.05396696
204	0x3d8152cf	0.063146226
205	0x3d397e23	0.04528631
206	0xbd276590	-0.040868342
207	0xbc8de2e5	-0.017320106
208	0x3c9b482d	0.018955315
209	0x3d403bc3	0.046931993
210	0xbc199714	-0.009374399
211	0xbcdcba15	-0.0269442
212	0xbd2e2196	-0.0425125
213	0x3d3b68da	0.04575429
214	0xbc0243bc	-0.007950719
215	0xbcfa4988	-0.03055264
216	0xbc7784c7	-0.01510734
217	0x3d89b76c	0.06724438
218	0x3bc6cdf7	0.0060670334
219	0x3d4862c1	0.048922304
220	0x3c15465a	0.009111011
221	0xbcb8127f	-0.022469757
222	0x3c69f91a	0.014280582
223	0x3c224738	0.009904675
224	0x3d224b66	0.039622687
225	0x3d4f4014	0.05059822
226	0xbc79fd86	-0.015258199
227	0x3b058e65	0.0020379063
228	0xbd3c1859	-0.045921657
229	0x3cd36863	0.025806611
230	0x388eecfb	6.815229e-05
231	0x3a602b64	0.00085513876
232	0xbd7c3675	-0.06157537
233	0xbd6f22c4	-0.058382764
234	0x3c84c04b	0.016204974
235	0x3d17001f	0.03686535
236	0xbd50b998	-0.050958246
237	0xbd7cd2ea	-0.06172458
238	0x3d310c00	0.043224335
239	0xbd241ed5	-0.040068466
240	0x3c342f36	0.010997584
241	0xbcd652d3	-0.02616254
242	0xbc01648e	-0.007897509
243	0x3cd3e2e5	0.025865028
244	0x38a9cec2	8.0970596e-05
245	0xbd41442a	-0.047184147
246	0xbd744ee6	-0.059645556
247	0xbbc500ec	-0.006012073
248	0x3d4061c0	0.04696822
249	0xbc11080f	-0.008852019
250	0xbc093c67	-0.008376217
251	0x3d09b24c	0.033617303
252	0xbbb84efb	-0.0056246496
253	0x3c481527	0.012212074
254	0x3c5610b4	0.013065506
255	0x3d166b35	0.036723334

li2.weight f4 [256, 256]
0	0xba1054cc	-0.00055058
1	0xbb6bef61	-0.0036000835
2	0xbda986be	-0.08277653
3	0x3d7e5892	0.062096186
4	0x3d2c70f2	0.0420999
5	0xbcb41c4b	-0.021986147
6	0x3d623b89	0.05523256
7	0xbdd81c9a	-0.1055233
8	0x3e0b3dde	0.13597819
9	0x3e0eb31a	0.1393551
10	0x3d8f6194	0.070010334
11	0xbd982f6f	-0.07430922
12	0x3d003e2f	0.031309303
13	0xbdae6984	-0.08516219
14	0x3e0a9737	0.13534246
15	0xbd88b920	-0.06675935
16	0xbda9bc9c	-0.082879275
17	0x3e3a5eb3	0.18200187
18	0xbd16b693	-0.03679521
19	0x3de48707	0.11158567
20	0x3e0de878	0.13858211
21	0xbc628aee	-0.013827069
22	0x3d8867d8	0.066604316
23	0xbd0c0556	-0.034184776
24	0x3c5cb902	0.013471844
25	0xbcb9928f	-0.022652892
26	0xbd4864eb	-0.048924368
27	0x3d241fa6	0.040069245
28	0xbc115e4b	-0.008872579
29	0x3cb4b7a1	0.022060217
30	0xbdaeeade	-0.08540891
31	0x3d46e2b0	0.04855603
32	0x3a240de2	0.0006258172
33	0xbc571f36	-0.01313
34	0xbc052742	-0.008127036
35	0xbe13f09a	-0.14447251
36	0xbd579378	-0.05263087
37	0xbce7a9e5	-0.028279254
38	0x3c2c4dcb	0.010516594
39	0x3e269cfe	0.16270825
40	0x3da219e4	0.079150945
41	0x3d2c9f59	0.042144153
42	0x3d3b9f3f	0.045806166
43	0xbd155e9f	-0.03646719
44	0xbe3122d4	-0.17298442
45	0xbdaf0bc5	-0.08547167
46	0x3da756d4	0.08170858
47	0x3db40c8e	0.08791457
48	0x3dde3fff	0.1085205
49	0x3e349101	0.1763344
50	0x3d5899e7	0.052881148
51	0xbe032f05	-0.12810905
52	0x3d27dc16	0.040981375
53	0xbb954f0c	-0.0045565423
54	0x3d3fefd0	0.046859562
55	0xbd3a3b53	-0.045466732
56	0xbcf261ff	-0.029587744
57	0xbcc11e05	-0.023573885
58	0xbde42126	-0.11139135
59	0x3d8d4359	0.06897611
60	0x3deb762a	0.114971474
61	0xbda1e9e4	-0.07905939
62	0x3d412632	0.047155567
63	0x3deb60cb	0.11493071
64	0xbd65bfcc	-0.056091115
65	0x3dd65625	0.104656495
66	0xbb1a3a06	-0.002353312
67	0xbdae5f34	-0.08514252
68	0xbcd32384	-0.025773771
69	0x3d2ba8e0	0.0419091
70	0x3bdf6f9e	0.0068187257
71	0x3e250ac2	0.16117385
72	0x3dd2aa1b	0.10286351
73	0x3de1c2c5	0.110234775
74	0x3e002a9b	0.12516253
75	0xbda4b0f9	-0.08041567
76	0x3d7815ff	0.060567852
77	0xbc9c1d50	-0.019056946
78	0xbc096a5a	-0.008387173
79	0xbd23bc55	-0.03997453
80	0x3d9048f3	0.07045164
81	0x3c80fc29	0.01574524
82	0xbcbe25e0	-0.02321142
83	0xbd8a5a91	-0.067555554
84	0xbddec53a	-0.10877462
85	0x3c794b0f	0.015215649
86	0x3b579bd6	0.0032899282
87	0x3cb41dd5	0.021986881
88	0xbbce2b28	-0.0062917657
89	0x3e10ff09	0.14159788
90	0xbce8e7b5	-0.028430799
91	0x3d3dbed2	0.04632456
92	0x3d705838	0.058677882
93	0xbcfbd5f7	-0.030741675
94	0x3d2bbf63	0.041930567
95	0xbccfc5ae	-0.025362816
96	0xbc95b023	-0.018272465
97	0xbd21f1fc	-0.039537415
98	0x3bf8e6ff	0.0075958963
99	0xbddefffa	-0.108886674
100	0xbd26ef93	-0.04075582
101	0x3e0c949e	0.13728568
102	0xbc3db470	-0.011578664
103	0xbdbfc75d	-0.093641974
104	0xbd751bd4	-0.059840992
105	0x3db1c428	0.08679992
106	0x3ce843b2	0.028352592
107	0xbcc7cb96	-0.02438907
108	0x3b29ee59	0.002592942
109	0xbd8751a8	-0.066073716
110	0xbcd8e247	-0.026475085
111	0x3c88b6f8	0.016688809
112	0xbd8edbc9	-0.069755144
113	0x3de1d72a	0.110273674
114	0xbcd62d9d	-0.026144797
115	0x3d91fbb1	0.071280845
116	0xbd966015	-0.07342545
117	0x3cd7d55d	0.026346857
118	0xbd80dc70	-0.06292045
119	0xbd318246	-0.04333713
120	0xbdb917c8	-0.09037739
121	0xbce9a208	-0.028519645
122	0xbc989272	-0.018624518
123	0xbd83c596	-0.06434171
124	0xbdb2675d	-0.08711121
125	0xbdfb1b26	-0.122610375
126	0xbd01c65a	-0.031683303
127	0xbe2c0aeb	-0.1680104
128	0xbdff8067	-0.12475663
129	0x3cea36ef	0.028590648
130	0xbb73f252	-0.0037223292
131	0xbd8a2555	-0.06745402
132	0x3d9ac6a2	0.075574175
133	0xbd141158	-0.036149353
134	0x3cc5b91e	0.024136122
135	0xbdedf5dc	-0.116191596
136	0xbd955571	-0.07291687
137	0xbddbdb82	-0.10735227
138	0x3def0e1f	0.11672615
139	0x3e0a2e80	0.13494301
140	0xbd1b7e91	-0.0379625
141	0xbd013657	-0.031545963
142	0x3e0bbbce	0.1364586
143	0xbd47effa	-0.048812844
144	0xbd5f3174	-0.05449052
145	0x3d3ddb22	0.04635156
146	0x3d5ff2c0	0.054674864
147	0x3bfcd230	0.007715486
148	0xbbabf0fc	-0.0052472334
149	0xbc740a4d	-0.014895034
150	0x3bf43c61	0.007453487
151	0xbb49a7b0	-0.0030770116
152	0xbbf6db61	-0.007533476
153	0xbd8f460b	-0.069957815
154	0xbd30a43d	-0.04312538
155	0xbd02b436	-0.031910144
156	0x3dc4c88a	0.09608562
157	0xbd617576	-0.05504366
158	0x3c1fff17	0.009765408
159	0x3da67340	0.08127451
160	0xbc796af8	-0.015223257
161	0x3d4b3dc5	0.049619455
162	0xbc9635e9	-0.018336253
163	0x3c9a08ae	0.018802967
164	0xbda87c36	-0.08226816
165	0x3e65baf1	0.22434594
166	0xbc6f400c	-0.014602672
167	0xbd165f3f	-0.036711928
168	0xbd464063	-0.048401248
169	0x3e045ae0	0.12925291
170	0xbd18d8dc	-0.03731619
171	0xbd5504bb	-0.052006464
172	0xbda604db	-0.08106395
173	0x3cb83038	0.02248393
174	0xbd24fb07	-0.04027846
175	0x3da15d7a	0.07879157
176	0xbc78cb0a	-0.015185127
177	0x3be08ed1	0.0068529625
178	0x3d4a0c94	0.0493284
179	0x3d593a22	0.053033955
180	0xbe143865	-0.14474638
181	0xbd773b57	-0.060359325
182	0x3db168a0	0.08662534
183	0x3dafcf61	0.08584476
184	0x3d91594d	0.07097111
185	0xbdafa522	-0.085764185
186	0x3dc00ebb	0.093778096
187	0xb98b6780	-0.0002658926
188	0x3d884492	0.06653704
189	0xbdbcad1e	-0.09212707
190	0x3dfa60f5	0.12225524
191	0x3dd18f6d	0.102324344
192	0xbd649c09	-0.05581287
193	0xbd8ce2f8	-0.06879228
194	0xbdb3475e	-0.087538466
195	0xbd369a93	-0.044581007
196	0xbdb55a66	-0.08855133
197	0x3d12c1ee	0.035829477
198	0xbdc806d7	-0.097669296
199	0x3d756de7	0.059919264
200	0xbdb60696	-0.08887975
201	0xbd98469a	-0.07435341
202	0x3a8b72ab	0.0010639032
203	0xbba22dde	-0.0049493155
204	0x3d58549e	0.052815072
205	0x3cb6e35a	0.022325207
206	0x3c4346df	0.011918752
207	0x3e00cc4c	0.12577933
208	0x3e17b595	0.14815362
209	0xbe0eb261	-0.13935234
210	0xbd342698	-0.04398212
211	0x3cc1cb68	0.023656562
212	0x3d0af0f6	0.033921205
213	0x3d8f0443	0.06983235
214	0xbde6e54d	-0.112742044
215	0xbd5ce270	-0.053926885
216	0xbd880bb4	-0.06642857
217	0xbd9c9343	-0.076452754
218	0x3cf7f162	0.030266467
219	0x3d2375da	0.039907314
220	0x3d28c3bc	0.04120229
221	0xbd6bc05a	-0.057556488
222	0xbda906f4	-0.08253279
223	0x3c5d5619	0.013509297
224	0x3d0701be	0.032960646
225	0xbd8b3bd1	-0.067985184
226	0x3bff7807	0.007796291
227	0x3c89fbf2	0.01684377
228	0xbcea903f	-0.028633235
229	0x3e2cbcb5	0.16868861
230	0xbd9fabc6	-0.07796435
231	0xbdd91a83	-0.1060076
232	0xbbc37acb	-0.005965566
233	0xbdaf95b4	-0.085734755
234	0xbdce89f3	-0.100849055
235	0xbdaa6907	-0.083208136
236	0xbca18ea7	-0.019721342
237	0x3d911395	0.07083813
238	0xbc3890ba	-0.011264974
239	0xbd9d532b	-0.07681879
240	0xbdbd5538	-0.0924477
241	0xbd64acf1	-0.055828992
242	0xbc175762	-0.009237142
243	0x3db43d3b	0.08800741
244	0x3dbc563c	0.091961354
245	0xbd4340ed	-0.04766934
246	0xbd455a93	-0.04818208
247	0xb9d6611b	-0.0004088961
248	0xbd46f559	-0.048573826
249	0xbd859786	-0.065230414
250	0xbd5e768d	-0.054312278
251	0xbda53c5f	-0.080681555
252	0x3ac37d14	0.0014914596
253	0x3c55a6f4	0.013040293
254	0x3c617e5c	0.013763037
255	0xbdc1b0b4	-0.094575316

li2.bias f4 [256]
0	0xbd710eab	-0.05885188
1	0xbcd51f75	-0.026015976
2	0x3c291219	0.010319256
3	0xbcb7be0c	-0.022429489
4	0x3c4758ca	0.012167165
5	0x3d65085f	0.055916186
6	0xba9b4132	-0.0011844991
7	0xbd02718c	-0.031846568
8	0xbd0c26de	-0.034216754
9	0x3c84950a	0.016184349
10	0x3c491a3a	0.012274319
11	0xbcc1ab79	-0.023641335
12	0xbd4c5749	-0.04988793
13	0xbac84d32	-0.0015281795
14	0xbd841e38	-0.06451076
15	0x3cdbb83f	0.026821254
16	0xbcea870c	-0.028628848
17	0x3d2bea66	0.041971587
18	0xbce6b388	-0.028161779
19	0x3d022b9a	0.031779863
20	0xbd41a665	-0.047277827
21	0xbc1ab76a	-0.009443143
22	0x3c79b602	0.015241148
23	0xbd0c8d1b	-0.034314256
24	0x3cd413f7	0.025888426
25	0xbc14c917	-0.009081147
26	0x3d54fb70	0.051997602
27	0xbd554c6f	-0.052074846
28	0x3cecb0b2	0.028892849
29	0xbd7a27d7	-0.06107315
30	0x3bc68996	0.006058882
31	0x3d3bd234	0.045854762
32	0xbd67c0a8	-0.056580216
33	0xbcebaf3b	-0.02877008
34	0xbcd8e9da	-0.026478697
35	0xbd711b5d	-0.058863986
36	0x3be1ebea	0.006894578
37	0x3cdcdb94	0.026960172
38	0xbd4b9e08	-0.049711257
39	0x3cf2d48f	0.029642371
40	0xbd109e1b	-0.03530703
41	0xbce498d8	-0.027904913
42	0xbc1f78db	-0.009733404
43	0x3c00148e	0.007817401
44	0xbbdb4bc9	-0.006692384
45	0xbd3e73d3	-0.046497177
46	0xbd44d488	-0.048054248
47	0x3afa1b0c	0.0019081547
48	0x3beca407	0.007221702
49	0x3d6670ed	0.05626004
50	0x3cd80181	0.026367905
51	0xbd3d7ade	-0.046259753
52	0xbcf53c43	-0.029935962
53	0x3d240936	0.040047847
54	0x3d51e763	0.05124606
55	0xbd9c3938	-0.07628101
56	0x3cc36a4b	0.023854395
57	0xbd0201e8	-0.0317401
58	0xbd5808ac	-0.052742645
59	0xbd4dd728	-0.050254017
60	0x3d159675	0.03652044
61	0xbc0e4938	-0.008684449
62	0x3d928129	0.071535416
63	0xbd5a46fb	-0.05329035
64	0x3d8328fc	0.064043015
65	0xbbb529ff	-0.005528688
66	0x3d784768	0.060614973
67	0xbd6f3b2f	-0.05840605
68	0x3c817ebb	0.0158075
69	0xbc146cc8	-0.009059139
70	0xbcd1f1fe	-0.025628086
71	0xbd6e75a7	-0.05821767
72	0xbaefbede	-0.0018291136
73	0x3c5f6c62	0.01363668
74	0xbc616a79	-0.013758295
75	0xbd298157	-0.041383114
76	0xbd3b3d8c	-0.045712993
77	0xbcaecf18	-0.021338984
78	0xbd3a65da	-0.04550729
79	0x3c32060f	0.010865702
80	0xbd41c9fe	-0.047311775
81	0xbd14fc92	-0.036373682
82	0xbb6bd865	-0.0035987135
83	0xbc9da2c2	-0.019242648
84	0xbcf486e2	-0.029849473
85	0xbc85efe0	-0.016349733
86	0xbcf5b83e	-0.02999508
87	0x3bf4e469	0.0074735177
88	0x3c3d37dd	0.011548963
89	0x3cbca728	0.023028925
90	0xbd4eb5bc	-0.050466284
91	0x3d2b8d65	0.04188289
92	0x3d4d039b	0.050052267
93	0x3d52e408	0.051487
94	0xbd36c83e	-0.04462456
95	0x3cd3b06a	0.025840957
96	0xbc2c6adc	-0.010523524
97	0xbd1d4e44	-0.038404718
98	0x3c88536c	0.016641341
99	0x3c25bb8c	0.010115515
100	0xbc4ebd4d	-0.012618375
101	0x3cfa44ed	0.030550444
102	0x3d08ff6b	0.03344671
103	0xbc79aaec	-0.015238505
104	0xbc06e8a7	-0.00823418
105	0xbb782b3e	-0.0037867571
106	0x3bb7af8e	0.0056056445
107	0x3d4d0d51	0.050061528
108	0xbc63e5f8	-0.013909809
109	0x3c6b9fc4	0.014381353
110	0x3d156eed	0.03648274
111	0xbd42e581	-0.047582153
112	0x3c991b01	0.018689634
113	0xbbadbb2f	-0.005301855
114	0xbd7f6f13	-0.062361788
115	0x3d060b1a	0.03272543
116	0x3cbbdb4b	0.022931715
117	0xbd1419db	-0.03615747
118	0xbb1b7d3a	-0.0023725764
119	0xbd378a96	-0.0448099
120	0x3d7451f3	0.059648465
121	0x3d5c7d47	0.05383041
122	0xbd7708ee	-0.06031125
123	0xbcc272e3	-0.023736423
124	0xbd2c1f7a	-0.042022206
125	0xbccbcabf	-0.02487695
126	0x3d47d67d	0.048788536
127	0xbc6433a6	-0.01392833
128	0x3d07cd43	0.033154737
129	0x3bc3e777	0.0059785205
130	0xbc5906ae	-0.0132462215
131	0x3d90e7a9	0.07075436
132	0xbcb308ee	-0.021854844
133	0x3b831781	0.0040006046
134	0x3cb9526e	0.022622313
135	0xbd315dc5	-0.043302316
136	0xbd61cb9b	-0.055125814
137	0xbd82b5a8	-0.063823044
138	0x3d451c28	0.048122555
139	0x3c74a56b	0.014932017
140	0x3ceb2992	0.028706346
141	0x3b95d366	0.00457232
142	0x3bf45d46	0.007457408
143	0xbc1d11c9	-0.00958676
144	0xbcdf329c	-0.027245812
145	0x3ccb0ec3	0.024787312
146	0x3c539ed9	0.01291629
147	0xbaae92a2	-0.0013318846
148	0xbcebf385	-0.028802643
149	0xbccbba98	-0.024869248
150	0xbd9c54ae	-0.07633339
151	0xbcfae4a8	-0.03062661
152	0xbd4f6718	-0.050635427
153	0x3ca9e89b	0.020740798
154	0x3d634018	0.055481046
155	0x3cff971e	0.031199988
156	0xbd37145f	-0.04469716
157	0xbc35fcf7	-0.011107675
158	0x3cf27baf	0.029599993
159	0x3d66351f	0.056203004
160	0xbd506ec8	-0.0508869
161	0x3b98d259	0.0046637473
162	0x3d231e67	0.039823916
163	0x3d613477	0.054981675
164	0x3c0ad284	0.008473042
165	0xbc9ee202	-0.019394878
166	0x3c67115d	0.014103261
167	0xbd354cf7	-0.044262853
168	0x3b1f1ac2	0.0024277424
169	0x3d44c84d	0.048042584
170	0x3bf0f516	0.0073534353
171	0x3d43824d	0.047731686
172	0x3d04be4c	0.032408044
173	0x3cb6fcfd	0.022337431
174	0xbd291b6e	-0.041285925
175	0x3c8fa999	0.017536925
176	0x3d0205f7	0.03174397
177	0xbd52fd07	-0.051510837
178	0xbc2387e2	-0.009981127
179	0x3ced4dcf	0.028967766
180	0xbd32da23	-0.043665063
181	0x3cbfaf76	0.023399096
182	0xbd81cb9a	-0.06337662
183	0x3c97dce2	0.018537942
184	0xbcf9d298	-0.030495927
185	0x3d182599	0.03714523
186	0x3d1a4cb9	0.037670825
187	0x3d699450	0.057026207
188	0x3d2e6006	0.042572044
189	0xbd6a7905	-0.05724432
190	0xbc844fff	-0.016151426
191	0xbcbc9807	-0.023021711
192	0xbd0ee23f	-0.034883734
193	0xbcd4cf79	-0.025977837
194	0x3c5c690c	0.0134527795
195	0x3d0ae752	0.03391201
196	0x3d6a9b61	0.057277087
197	0xbbaf7044	-0.0053539593
198	0xbd1c833c	-0.038211092
199	0x3d1e5673	0.038656663
200	0xbcb685f2	-0.022280667
201	0x3d1e8283	0.038698684
202	0x3a8cca04	0.0010741358
203	0xbbd11e8a	-0.0063818144
204	0x3c62545b	0.013814057
205	0xbd432076	-0.04763838
206	0x3d20c99a	0.039254762
207	0xbd8722ad	-0.06598411
208	0x3ae38919	0.0017359584
209	0xbd5f0a6f	-0.05445331
210	0x3a82432a	0.0009938229
211	0xbd47cf15	-0.048781473
212	0x3cddd618	0.027079627
213	0xbd4e4ca6	-0.050366066
214	0xbd0742ee	-0.033022813
215	0xbbfef08d	-0.0077801407
216	0xbd48fe6e	-0.049070768
217	0xbd021667	-0.031759646
218	0x3d5bcbe0	0.053661227
219	0x3cabac1e	0.020956095
220	0xbb40d463	-0.0029423467
221	0xbd250eee	-0.04029744
222	0x3d058ca6	0.032604836
223	0xbd2ebc50	-0.042660058
224	0xbd1c5acc	-0.03817253
225	0x3d6b96a2	0.0575167
226	0xbc911525	-0.017710278
227	0xbc9495e4	-0.01813788
228	0xbd4a3fc3	-0.049377214
229	0xbcafb762	-0.021449748
230	0xbc978127	-0.018494202
231	0x3d191f79	0.03738353
232	0xbab80d51	-0.0014042055
233	0xbd47dd8a	-0.04879526
234	0x3c66681f	0.01406291
235	0xbd6b9a9f	-0.057520505
236	0x3cde2a9d	0.027119929
237	0xbcea5c66	-0.028608512
238	0xbd248fe4	-0.040176287
239	0x3c7099b3	0.014685082
240	0x3ccb64b4	0.024828292
241	0x3cdeb03f	0.02718365
242	0x3d113801	0.0354538
243	0xbc98a000	-0.018630981
244	0x3d5772de	0.05259978
245	0xbd1b9c6f	-0.037990984
246	0x3d7a1c77	0.061062302
247	0x3d843e60	0.064572096
248	0xbc9eedf6	-0.019400578
249	0xbd0c2d85	-0.0342231
250	0xbc7b38b9	-0.015333348
251	0xbb975b3f	-0.0046190317
252	0x3d0d6a28	0.034525067
253	0x3a5c5602	0.000840515
254	0x3cfbbdf7	0.03073023
255	0x3d80451b	0.06263181

li3.weight f4 [4, 256]
0	0xbe9f7747	-0.3114569
1	0xbf0b07df	-0.54308885
2	0xbeff23e4	-0.4983207
3	0xbd3c8233	-0.046022605
4	0xbe13ce38	-0.14434135
5	0xbe875860	-0.26434612
6	0x3cb7945b	0.022409609
7	0x3edb8695	0.42876115
8	0x3bae571a	0.005320442
9	0xbf070d49	-0.52754647
10	0x3e955e7d	0.2917365
11	0xbf313a5f	-0.6922969
12	0xbed9acc9	-0.42514637
13	0x3ebcc62a	0.36869937
14	0x3e7cfd38	0.2470597
15	0xbe8e18cc	-0.27753294
16	0xbe19cb05	-0.15018852
17	0xbef16065	-0.47143856
18	0x3e454f0a	0.19268432
19	0xbe290c02	-0.16508487
20	0x3f0cd1e7	0.55007786
21	0xbeca27bc	-0.3948344
22	0x3e6a578b	0.22884957
23	0x3e831b45	0.25606743
24	0xbe011854	-0.12606937
25	0x3eaeda20	0.3415079
26	0x3f191b1f	0.5980701
27	0x3ec447d8	0.38336062
28	0x3f016a60	0.5055294
29	0x3e8738b4	0.2641045
30	0xb97f7cb3	-0.00024365149
31	0x3ec46d62	0.38364702
32	0x3ea2fb23	0.31832227
33	0x3ca6cf0f	0.020362405
34	0xbce14b8f	-0.02750185
35	0x3d51263b	0.05106185
36	0xbdbc7f3a	-0.09203954
37	0x3dbcd0b0	0.092194915
38	0xbe2b35d0	-0.16719747
39	0x3cc3a571	0.0238826
40	0x3f1a9394	0.60381436
41	0x3eb1e974	0.34748423
42	0xbeae0f22	-0.3399592
43	0x3ed6c0df	0.41944024
44	0xbea049fc	-0.31306446
45	0xbeb5bf70	-0.35497618
46	0x3e99d999	0.30048826
47	0x3e8a4053	0.270022
48	0x3eedfd79	0.46482447
49	0xbe90242f	-0.28152606
50	0x3eb47e49	0.35252598
51	0xbf2bb8a8	-0.6707864
52	0x3ee5082b	0.44732794
53	0x3e9829ed	0.29719487
54	0x3efb4d02	0.4908219
55	0xbec4888f	-0.38385436
56	0x3e9de737	0.30840465
57	0xbee522df	-0.44753167
58	0x3e32349c	0.17402881
59	0x3e315e47	0.1732112
60	0xbf379959	-0.71718365
61	0x3dc561c7	0.0963779
62	0x3eda3fe4	0.4262687
63	0xbed1e2a8	-0.40993237
64	0xbe4e6a00	-0.20157623
65	0xbec1e460	-0.3786955
66	0x3ea970fd	0.33094016
67	0xbec4d1fb	-0.38441452
68	0x3e571f0a	0.21007934
69	0x3eda06a4	0.4258319
70	0x3e954955	0.2915751
71	0x3ecc6872	0.39923435
72	0xbeaa7cbf	-0.332983
73	0xbe3531d5	-0.1769479
74	0x3dd2bb9b	0.10289689
75	0x3eca1713	0.3947073
76	0x3e0dcab7	0.13846861
77	0x3e8f7f91	0.28027013
78	0xbecb2639	-0.396776
79	0xbeda71de	-0.42665
80	0xbd7cb22b	-0.06169335
81	0xbe63e55e	-0.22255465
82	0x3e0569d2	0.13028648
83	0x3f222710	0.63340855
84	0x3ef30ae5	0.4746925
85	0x3f042b32	0.5162841
86	0xbf2dbedc	-0.67869353
87	0xbeea8855	-0.45807138
88	0x3eb0eeae	0.34557098
89	0x3ea40424	0.3203441
90	0xbf2a3d99	-0.6650024
91	0xbed17c21	-0.40915015
92	0x3e6ce0ad	0.23132582
93	0x3e985195	0.29749742
94	0xbed9252b	-0.4241117
95	0x3f14d100	0.5813141
96	0xbe9158c9	-0.2838805
97	0x3e602769	0.21890034
98	0x3e1d0d85	0.15337189
99	0x3f1fa9c8	0.6236844
100	0xbd2dda55	-0.042444546
101	0xbeb37b09	-0.35054806
102	0x3e9f0801	0.31060794
103	0x3ea1c017	0.31591865
104	0xbd7a57ce	-0.061118893
105	0xbec6121c	-0.3868569
106	0x3edec881	0.43512347
107	0xbe8118bf	-0.25214192
108	0xbe699c98	-0.22813642
109	0x3ebd2c16	0.36947697
110	0xbe2579dd	-0.16159768
111	0x3ee495af	0.4464545
112	0xbedb1444	-0.427889
113	0xbf3ec0c6	-0.745129
114	0x3f10dfb7	0.5659136
115	0xbeb8aed0	-0.3607087
116	0x3dea148f	0.114297025
117	0xbf09cf82	-0.53832257
118	0xbee8cb8c	-0.45467794
119	0x3e22a342	0.1588259
120	0xbe158015	-0.1459964
121	0x3d53133c	0.051532015
122	0xbe016ec5	-0.12639911
123	0x3f369697	0.7132353
124	0xbd2237e2	-0.039604075
125	0x3e9c4f01	0.30529025
126	0xbe4c38c1	-0.19943525
127	0xbeaa49eb	-0.3325952
128	0xbe72a34e	-0.23695108
129	0xbf2b1d30	-0.6684141
130	0xbe7ce1f0	-0.24695563
131	0x3ed7a07e	0.42114633
132	0x3abaecd8	0.0014261259
133	0xbeb1e39e	-0.3474397
134	0x3ea40e12	0.32041985
135	0x3e41b132	0.18915251
136	0xbf26bb7d	-0.65129834
137	0x3ecfa857	0.4055812
138	0xbe542bbc	-0.20719808
139	0x3e753729	0.23946823
140	0x3f3c3e71	0.7353278
141	0x3f07918a	0.5295645
142	0xbec001e7	-0.3750145
143	0xbe89eac6	-0.2693693
144	0x3d2675fa	0.040639855
145	0xbeb6cfb2	-0.35705334
146	0xbed1ef6f	-0.41002986
147	0x3d8cdc07	0.068779044
148	0xbc9503cc	-0.018190287
149	0x3f08cba2	0.5343572
150	0xbecf3ea0	-0.40477467
151	0x3eaad14e	0.33362812
152	0xbf31a72a	-0.693957
153	0xbea402c5	-0.32033363
154	0xbf532c77	-0.8248972
155	0x3eb40bfd	0.35165396
156	0x3e7d2535	0.24721225
157	0xbe6e9003	-0.23297124
158	0xbe5ded5a	-0.21672574
159	0xbda3aa71	-0.079914935
160	0x3eaee064	0.3415557
161	0x3d169ebd	0.03677248
162	0x3e01d04a	0.12677112
163	0xbdcf2812	-0.10115065
164	0x3e966fde	0.29382223
165	0xbee49a4b	-0.44648966
166	0x3e25ea86	0.16202745
167	0x3e99b60a	0.30021697
168	0xbec729b3	-0.38899
169	0xbee767ee	-0.4519648
170	0x3edaffa8	0.42773175
171	0x3e4eac46	0.20182905
172	0x3e58b6e7	0.21163522
173	0xbf1dd1d7	-0.61648315
174	0xbf4d8d7e	-0.80294025
175	0xbee59b1d	-0.44844905
176	0x3f174d33	0.5910217
177	0x3e81664f	0.25273368
178	0xbe2edf2c	-0.17077321
179	0x3e9b590d	0.30341378
180	0xbcce2999	-0.02516632
181	0xbe62f207	-0.22162639
182	0x3d516108	0.051117927
183	0x3e929cc0	0.28635216
184	0xbe8b9b61	-0.27266982
185	0x3f1cb78b	0.61217564
186	0xbe2a226c	-0.16614693
187	0x3e761d27	0.24034558
188	0x3f0fb670	0.5613775
189	0xbc866f0f	-0.016410379
190	0x3c8875df	0.016657768
191	0x3f30d3cc	0.69073176
192	0x3e01ab9c	0.1266312
193	0x3e9f53ef	0.31118724
194	0x3db90dc6	0.0903583
195	0x3dd069f6	0.101764604
196	0xbf0fd885	-0.5618976
197	0xbef8c774	-0.4858967
198	0xbde27786	-0.110579535
199	0x3f252665	0.6451171
200	0x3e6ca3b3	0.23109321
201	0x3d24c94a	0.040231027
202	0x3e1a34cb	0.15059201
203	0x3e9d7e28	0.30760312
204	0x3e786a62	0.24259332
205	0xbea0d1dd	-0.31410113
206	0x3d129b33	0.03579254
207	0x3f12b5bb	0.5730855
208	0x3ca20744	0.019778855
209	0xbdaee182	-0.08539106
210	0x3e81ffc4	0.25390446
211	0xbe223519	-0.15840568
212	0xbf09325f	-0.53592485
213	0x3e439783	0.19100766
214	0x3e975118	0.29554057
215	0xbf20350a	-0.6258093
216	0x3effa916	0.4993369
217	0xbef2022e	-0.47267288
218	0x3f16f4eb	0.58967465
219	0x3ef25e96	0.47337788
220	0xbe6ff690	-0.234339
221	0xbea69a1b	-0.32539448
222	0x3edef488	0.43545938
223	0xbed748ac	-0.42047632
224	0x3dcf14b4	0.10111371
225	0xbb03b583	-0.0020097203
226	0x3f27ea60	0.65592
227	0x3e889a44	0.26680195
228	0xbf0ad1dc	-0.5422647
229	0x3f292b0c	0.6608131
230	0xbdab3fb8	-0.08361763
231	0xbd0dece7	-0.034649756
232	0xbebc5994	-0.36787093
233	0xbe781420	-0.24226427
234	0x3de6caab	0.112691246
235	0xbeabda67	-0.33565065
236	0xbd8dad9e	-0.069178805
237	0xbf021354	-0.5081074
238	0x3f5900ec	0.8476703
239	0xbec6271f	-0.38701722
240	0xbf047105	-0.51734954
241	0xbf3a48eb	-0.72767514
242	0xbee916fe	-0.45525354
243	0x3f2459a1	0.6419926
244	0x3f02cad7	0.5109076
245	0xbe5ef6b4	-0.21773797
246	0x3ebbb775	0.36663404
247	0x3f3b90c7	0.7326779
248	0x3e25db78	0.16197002
249	0xbf5125c8	-0.81698275
250	0xbe72119c	-0.2363953
251	0xbecd1f31	-0.4006286
252	0xbeb91867	-0.3615143
253	0xbf1b4028	-0.6064477
254	0xbf09ccd6	-0.5382818
255	0xbef45775	-0.47722974

li3.bias f4 [4]
0	0x3ed93094	0.42419875
1	0xbc2dd7b9	-0.010610514
2	0xbf4266ca	-0.75938094
3	0x3eba8e7c	0.36436832
