lang_model.pth (torch, 335989 bytes, 10 tensors)

mlp.0.weight f4 [128, 256]
000000 71 cd 9d 3d d8 f7 ce 3c 8c 97 43 bd 6c e9 10 3e
       0.077052005 0.025264665 -0.04775195 0.14151543
000010 74 c2 90 3d be d4 eb bb 4e 60 bf bd 30 07 10 3e
       0.07068339 -0.0071969917 -0.093445405 0.14065242
000020 af 01 77 3d a2 de d8 bd 7f fe 03 3e df c6 92 3d
       0.06030434 -0.10589339 0.12890051 0.07166838
000030 5f b3 66 ba c1 c4 c9 bb 9a 86 d6 bc d1 67 db 3c
       -0.0008800532 -0.006157488 -0.02618723 0.026782902
000040 6e 3f e7 3c 0d 50 79 bd 2c e5 10 3e b4 17 ba bd
       0.028228488 -0.060867358 0.14149922 -0.09086552
000050 a8 ce a6 3c 0b 36 64 3d 66 3c 9d 3d a4 87 ba 3b
       0.020362213 0.055715602 0.07677536 0.005692439
000060 56 11 f6 3d eb 54 d6 bc fa 3b aa bd 60 6e 14 3d
       0.12015025 -0.026163539 -0.08312221 0.036238074
000070 77 5e 31 3e 10 df 81 bc 31 2d 26 3a 31 44 64 3d
       0.17321192 -0.015853435 0.00063391315 0.055729095
000080 2b ec 19 be f4 ca ba 3d d1 33 4e 3d fb 53 10 3c
       -0.15031497 0.091207415 0.050342385 0.008809085
000090 93 7f fc bc 4f f4 2e 3e 98 39 fa bd 75 89 a6 3d
       -0.03082255 0.17085384 -0.122180164 0.081316866
0000a0 04 e3 8e bd b5 59 1f bd 67 e8 07 3c 6e f7 f5 3d
       -0.069768935 -0.03890391 0.008295155 0.12010084
0000b0 75 5b 00 3b 04 50 95 bd 26 ae b9 3c e9 68 08 be
       0.0019585763 -0.072906524 0.022666048 -0.1332127
0000c0 59 bc 3c bc af a6 d9 3d 55 dc f6 bc f5 c8 06 3d
       -0.011519515 0.106274955 -0.03013436 0.03290649
0000d0 4d 14 1a 3e f2 0c 9d bd 95 eb 88 bc 1c 1d 96 3d
       0.15046807 -0.07668485 -0.016713897 0.07329771
0000e0 49 09 57 bd 91 4b 2c bc b2 10 6e bd 6a 68 1d 3d
       -0.05249909 -0.010516063 -0.05812139 0.038429655
0000f0 98 57 04 bd 25 f7 12 be 47 d7 85 bc 7e 24 fa 3d
       -0.0323101 -0.1435209 -0.016338004 0.122139916
000100 e1 0a d8 bd 5f 9e 61 3d fa ff 1d be b3 11 ae bd
       -0.1054895 0.055082675 -0.15429679 -0.084994696
000110 5a 04 21 3e cf 37 c5 3d 0c af e3 bd 92 ca a0 3d
       0.15724316 0.09629785 -0.11117372 0.07851137
000120 91 9f 39 be 4b 8c a2 3c 84 1b b8 bd d1 a3 3a 3d
       -0.18127276 0.019842288 -0.08989623 0.045566384
000130 76 29 13 3e 75 4b 01 bd de c8 47 3d 63 8e 6e 3e
       0.14371285 -0.031566102 0.048775546 0.23296504
000140 6b 49 fe 3c ec 49 fc 3b 76 a9 b7 3c f0 dd e5 bd
       0.031040868 0.007699242 0.022419672 -0.11223972
000150 83 b2 59 3d 22 16 6e bd 38 aa c7 3d b5 d5 ed bd
       0.053148758 -0.058126576 0.097492635 -0.11613027
000160 cd 48 54 3e 67 1b 55 be 8e 97 43 3e 01 c5 23 be
       0.20730896 -0.20811234 0.19100782 -0.1599312
000170 91 89 69 bc c8 e8 42 be 66 06 3e 3d 6f ad 26 3d
       -0.01425399 -0.19034111 0.04639282 0.040692743
000180 a1 d0 2b be ad 19 0d 3e 7c 72 0b 3d 81 79 62 bd
       -0.16778804 0.13779326 0.034044728 -0.055291656
000190 27 e8 4c be f5 79 7c 3c d8 8e af 3c 5a ad 6c bd
       -0.20010434 0.015409936 0.021430418 -0.05778251
0001a0 fc 60 96 3d a1 79 cf bd b1 80 c9 bd 33 46 03 bd
       0.07342717 -0.10130621 -0.09838999 -0.03204937
0001b0 7e 40 08 be 1b a9 18 3c ce 49 9e bd 4d 8f 40 be
       -0.13305852 0.009317662 -0.07728921 -0.18804665
0001c0 0e 1b 8a 3d dc 1e 77 bd 15 47 3a bc cc f2 f9 bc
       0.067434415 -0.060332164 -0.011369486 -0.030511282
0001d0 fa 8b 23 be f1 c7 bb 3d ec 7b ea bd 13 1e e7 3d
       -0.15971366 0.09168995 -0.114494175 0.11285033
0001e0 b0 a4 18 bd 89 35 13 bd 29 f3 55 3e 55 c7 5f be
       -0.037266433 -0.035939727 0.2089354 -0.21853383
0001f0 22 65 c4 bc 2b ce 43 be 77 ea b0 bc 17 0d 1e 3e
       -0.023974005 -0.19121616 -0.021596177 0.15434681
000200 b5 e8 c5 3b ea 6b 42 be c0 09 fe 3d 90 d4 50 bd
       0.0060397037 -0.18986478 0.124042034 -0.050983965
000210 80 7a 0c 3e 16 92 76 3d 9a e0 50 3b 65 d5 51 be
       0.13718605 0.060197912 0.0031872154 -0.2049156
000220 a6 bf 16 bd 2a 3d 30 bd fd 06 df 3d 3e 12 17 be
       -0.036803864 -0.04302708 0.10890005 -0.14753053
000230 c3 bb fe bd 14 df 1c be a0 cd 82 bc d7 55 21 3c
       -0.124381565 -0.15319473 -0.01596719 0.009847126
000240 cd 4c 39 3e 72 06 b9 bd c6 58 0a be 21 bf 6f ba
       0.18095703 -0.090344325 -0.13510427 -0.0009145607
000250 56 d3 e6 bd 18 cb 90 3d c9 76 07 3b eb 26 c8 bd
       -0.11270778 0.07069987 0.0020670167 -0.09773048
000260 cf 9d ca bd 88 b0 d9 bd af ac 8a bc e0 95 2a 3e
       -0.09893381 -0.10629374 -0.016928045 0.16658735
000270 43 d1 94 3d 45 0a 09 3e dd 04 c4 3d af 64 65 bd
       0.07266476 0.13382824 0.0957124 -0.056004222
000280 b9 85 84 3d 7d e8 04 bd 81 54 e0 bd a9 9b ee 3c
       0.06470818 -0.03244828 -0.10953618 0.029126959
000290 e0 eb 8e bd ee 48 d5 bd 08 5c 26 3c 40 67 1a be
       -0.06978583 -0.10414301 0.010153778 -0.15078449
0002a0 52 bf 35 3c 0f 1c 7b 3c 17 2d 63 3d 31 d9 08 be
       0.011092978 0.015326514 0.055462923 -0.13364102
0002b0 65 aa df 3d 9b c1 4b bd d2 7b 78 bd 64 62 ae bd
       0.10921172 -0.049745183 -0.06066496 -0.0851486
0002c0 d3 52 f7 3d b6 75 8c 3d 22 8d 21 3e 51 4f 47 bd
       0.12076344 0.06858389 0.15776494 -0.048659626
0002d0 d4 c2 e0 3c 04 99 47 3d 66 84 ea bd 02 a3 f5 3d
       0.027436651 0.04872991 -0.11451034 0.11993982
0002e0 eb 78 31 3c af 84 10 be 1a d7 43 3e 13 4c b4 bd
       0.010832052 -0.14113115 0.19125023 -0.088035725
0002f0 37 cd e7 3c 30 6c ce 3a 2d ad 5a be 00 74 c5 3d
       0.028296096 0.0015748795 -0.21355124 0.09641266
000300 b7 79 f4 3c 67 15 28 3e 6a c5 c6 bd bf d8 bc bd
       0.029843194 0.16414414 -0.097056225 -0.092210285
000310 1d ee 25 bd 88 34 0d 3e d8 dd cd 3c cb 77 ed 3d
       -0.040510286 0.1378957 0.025130197 0.11595114
000320 fe 02 9a 3d 8f 2e 70 be b2 32 99 3d b6 0e 1b 3d
       0.07520102 -0.2345526 0.074803725 0.037855826
000330 88 d0 13 be e5 4c d9 bc c5 1c 72 3c 13 27 2a 3d
       -0.14435017 -0.026525924 0.014777367 0.04154117
000340 aa c9 96 3d 7a b3 b1 3d fe ed 60 3d 95 59 09 bd
       0.07362683 0.086768106 0.054914467 -0.033532698
000350 86 37 04 3c ff 99 9c bd e2 21 d1 3c 80 3c e8 bc
       0.008069878 -0.0764656 0.025528852 -0.028349161
000360 6b d5 f3 bd 37 50 a2 3d d5 2a 02 3e 16 7f ea bd
       -0.119059406 0.07925456 0.12711652 -0.11450021
000370 ba 82 e2 bc 11 70 de bd e2 9f 13 3e 25 88 86 bb
       -0.027650226 -0.10861219 0.14416459 -0.004105585
000380 e9 37 a7 3d 6b 6c 64 be 70 13 f6 3c 61 80 1f 3e
       0.08164961 -0.22306983 0.030038565 0.15576316
000390 d0 c6 59 3b d2 da e2 3d 63 ee f0 3d 84 48 32 3e
       0.0033230074 0.11076893 0.11764219 0.17410475
0003a0 8c c0 97 3d f0 48 13 3a da f2 3c bd b7 17 91 3c
       0.07409772 0.00056184735 -0.04613004 0.017711503
0003b0 23 f7 d0 3d bc a7 75 3d bc 88 17 3d 44 43 01 be
       0.102033876 0.059974417 0.036995634 -0.12623316
0003c0 dc c8 b6 3d e4 d8 02 3e 3b 28 2d 3e 67 72 9d 3c
       0.0892503 0.1277805 0.16909878 0.01921959
0003d0 61 53 67 be b2 b2 e2 3d 8a d0 66 3c b5 22 25 3d
       -0.225904 0.1106924 0.0140878055 0.040316302
0003e0 29 fe 26 3e 91 ec 9d 3d ca 38 c3 3d 63 10 52 3d
       0.16307892 0.07711137 0.09532316 0.05128516
0003f0 cc bb ba bd 44 e2 a8 3d e7 d8 54 bd 85 d6 c2 bd
       -0.09117851 0.08246282 -0.051964667 -0.095135726

mlp.0.bias f4 [128]
000000 b6 c1 5c bd ff 3b c2 bd 34 ee c1 bc 57 f3 95 3b
       -0.053895675 -0.094840996 -0.023673154 0.0045761275
000010 08 51 21 bb 5f 1c dd bb 67 e2 8d 3b b1 92 c0 bc
       -0.0024614949 -0.006747767 0.004329968 -0.023507448
000020 e8 97 01 bd f1 c2 9c bd cd a7 27 bd 3b 98 31 bd
       -0.03163901 -0.076543696 -0.04093151 -0.04335807
000030 ea 35 45 bd 48 50 55 bc e0 ce 12 3c c4 2c d0 39
       -0.04814712 -0.013019629 0.008960456 0.00039706205
000040 b2 79 2d bd 45 e8 05 bd 12 8e 53 3c 1f 27 8c bd
       -0.042352386 -0.032692213 0.01291229 -0.06843399
000050 30 20 35 3d 2c 43 63 bd 96 31 51 bb 6d a6 8a bb
       0.04422015 -0.055483982 -0.0031920425 -0.0042312653
000060 a2 4c c7 3c ed 00 48 bd b3 90 99 bd 22 77 72 bd
       0.024328534 -0.048829008 -0.07498302 -0.059195645
000070 80 1f 8a 3c f7 0d be 3c 1b ad 94 bd 5b 0f 17 bd
       0.016860723 0.023200018 -0.0725958 -0.03687988
000080 be 74 38 3b bc 75 90 bc e7 37 3a bd 3c 99 01 3b
       0.0028145756 -0.017634265 -0.04546347 0.0019775173
000090 34 0c 34 3c ff 97 96 3d 74 e0 a4 bc 69 6a 87 bc
       0.010989238 0.0735321 -0.020126559 -0.016530233
0000a0 64 1f 8f bd 43 b7 4a bd 24 13 53 3d 92 59 82 bd
       -0.06988409 -0.04949118 0.051531926 -0.063647404
0000b0 33 b8 59 bd 5f 50 3a 3d 78 c0 de 3c 8c 0c 43 3d
       -0.05315418 0.045486804 0.027191386 0.047619388
0000c0 8f d9 8d bc 0f 15 b8 3b 66 39 5a 3c ad 07 b9 bc
       -0.017315654 0.0056177448 0.013319349 -0.022586668
0000d0 7a 0f 91 bd a8 9e b4 3c 38 25 4f bd fd 80 88 bd
       -0.0708303 0.02204831 -0.050572604 -0.066652276
0000e0 cd 7a cb 3c 67 9d 58 bd f0 ce 11 bd cf 10 fe 3c
       0.02483883 -0.052884486 -0.03559774 0.031013874
0000f0 15 ca ff 3c dc ca b0 bd 1a 6f e8 3c 4d ce f5 3b
       0.03122429 -0.08632442 0.02837329 0.0075013996
000100 2f 2f 71 bc c9 4f 07 bc cc 05 c1 bc f7 c6 c9 39
       -0.014720722 -0.008258768 -0.023562334 0.00038485948
000110 9b b5 0f be 13 3b 59 bc 98 05 11 3d dc 10 cd bc
       -0.1403412 -0.013258713 0.035405725 -0.025032453
000120 ac 42 18 3d 45 36 83 bc 02 f7 e5 3d f3 85 58 3d
       0.03717296 -0.016017089 0.112287536 0.05286212
000130 83 13 69 bd 2d 42 77 bc e5 17 67 bd 5e 7c 6a bd
       -0.056903373 -0.015091461 -0.056419272 -0.057247512
000140 f5 dc 8f bd 4a ec 6f bd 7f 4f eb bc a6 47 11 bd
       -0.07024566 -0.058574952 -0.02872443 -0.03546872
000150 11 fd 6b bd b3 aa 1c bb 79 83 ff bc 35 b0 88 3d
       -0.05761439 -0.0023905456 -0.03119062 0.06674234
000160 33 16 52 bd d0 c2 4c bd 2a d9 63 bb 7e ae e0 bc
       -0.051290702 -0.049990475 -0.003476689 -0.027426954
000170 22 c4 e4 3c 77 fe 3e 3d cc 04 f5 bc b7 87 7e 3a
       0.027925555 0.046629395 -0.029909514 0.0009709554
000180 15 55 a1 bd 8d ce 51 3c 7a 09 44 bd fd 9c 5e 3d
       -0.07877556 0.012805593 -0.0478606 0.054348934
000190 9d fc 9b bd 0f 83 f8 bb 4a aa 16 bd 55 3a 20 3d
       -0.076165415 -0.007583983 -0.036783494 0.03911813
0001a0 50 0b 74 3a 48 74 e9 3c c9 c3 20 bd ab 63 0f 3d
       0.0009309547 0.02849783 -0.039249215 0.03500716
0001b0 d9 6c 86 3a 55 d9 83 bc a4 92 c5 3d 0d 90 44 bd
       0.0010255828 -0.016094843 0.0964711 -0.04798894
0001c0 e5 8e ce 3c 79 63 d5 bc 56 f1 ca bc f8 ba 81 3d
       0.025214622 -0.026048409 -0.024773281 0.063344896
0001d0 b9 af b0 bc ed 6f d1 bc be 6b 32 3d 91 76 23 bd
       -0.021568166 -0.025566066 0.043559782 -0.039907996
0001e0 d3 ae ac 3c 85 01 6c bd 2d 00 bc bc 78 66 4f bd
       0.021079456 -0.057618637 -0.022949303 -0.05063483
0001f0 3d 29 0d 3d 14 1c 8c bc d4 72 a0 3c 7e 36 d8 bb
       0.034463156 -0.017103232 0.019586004 -0.006598293

mlp.2.weight f4 [128, 128]
000000 ea d3 9a bd c9 d8 87 3d 92 f1 1e 3c 8a e1 2c be
       -0.07559951 0.06633145 0.00970115 -0.16882911
000010 48 79 85 3d ce 64 90 3e 5f 75 10 3e 3b ed 08 3e
       0.06517273 0.28201908 0.14107274 0.13371746
000020 ee 65 85 3d 9a c5 88 bd e0 86 1a 3d d7 52 d5 3d
       0.06513582 -0.066783145 0.037726283 0.10416191
000030 7c ab 05 3c a0 b2 42 3d 57 8c fc bd 58 f7 e4 3d
       0.008158561 0.04753363 -0.12331455 0.111799896
000040 87 17 ce 3c 43 f1 88 bd 13 39 e9 3d f1 c6 3d be
       0.025157703 -0.06686642 0.11387839 -0.18532921
000050 40 36 3b bd f7 6a 28 3d 0c 64 27 be 7a 21 f4 bd
       -0.045706034 0.041117635 -0.16346759 -0.11920448
000060 2e 95 c4 bd 9e e2 fa bb 2f b3 4d bb c6 83 1c be
       -0.09598766 -0.0076564094 -0.003138732 -0.15284643
000070 40 ce 1f be c9 59 42 be d5 0d e9 bc 7e 0a 30 3e
       -0.15606022 -0.18979563 -0.028448978 0.17191502
000080 bc 89 16 bd 1c b9 a3 bd 8c ad 1f bd 28 92 aa 3c
       -0.036752447 -0.07994291 -0.038983867 0.020821646
000090 f9 51 d3 3d f1 ab a8 3d b5 10 c1 be 3f 03 05 be
       0.103183694 0.0823592 -0.3770806 -0.1298952
0000a0 06 59 d7 bb a1 77 a8 bc 2a 61 e4 3d 1a 4d c4 3d
       -0.0065718917 -0.020564856 0.11151345 0.095850185
0000b0 eb 18 13 bd 25 2b db 3d 71 30 2d bb 49 46 16 3d
       -0.035912436 0.107015885 -0.0026426578 0.036688123
0000c0 cd bc ce bc 10 8f f1 3d d0 f0 91 be a3 95 2b be
       -0.025236512 0.11794865 -0.28504038 -0.167563
0000d0 1d 1d 41 3e 36 ad 8c be 29 d3 fa bd 30 68 ff bd
       0.18858762 -0.274759 -0.12247307 -0.12471044
0000e0 09 35 1e be 7f 0f b8 3c df 44 97 3d 13 d6 8a 3e
       -0.15449919 0.022468327 0.07386183 0.2711645
0000f0 5c 94 82 3c 23 18 21 be 77 4f 15 3e aa 23 ab bd
       0.015939884 -0.15731864 0.14581095 -0.08356412
000100 4a 6a 11 3e fb 33 61 ba 04 d8 ff bd 60 52 c8 bd
       0.14200702 -0.00085908145 -0.124923736 -0.09781337
000110 9b e7 9f be a3 19 1c 3e f4 db 1e 3e 50 f8 2e bc
       -0.31231388 0.15244155 0.15513593 -0.0106793195
000120 d6 86 d8 3d 7d 33 b6 3d f3 ff 32 3c dd 18 8c be
       0.10572593 0.08896539 0.010925281 -0.2736272
000130 fc a4 6c bd 32 52 2a be ee 03 00 3e a3 de 69 be
       -0.05777453 -0.16632918 0.12501499 -0.22838835
000140 1e c1 eb bb 63 f2 16 be 50 d2 6b 3e 40 12 60 be
       -0.007194652 -0.147409 0.23029447 -0.21881962
000150 6f 5d cd bb 8a aa 7c be 66 bb 2a 3e 51 dd b8 3d
       -0.0062672417 -0.2467443 0.1667305 0.09026588
000160 ea de b2 3d d5 4b 51 be ad ea 02 3e 31 e0 b0 ba
       0.08733924 -0.20439084 0.12784834 -0.0013494549
000170 fe 15 74 3e 4d 47 8a 3e 74 4b 18 be 09 0b 48 be
       0.23836514 0.27007523 -0.14872533 -0.1953546
000180 9f 5a dd 3d ae dd 04 3d ce 44 3d 3d 1f a0 a8 bc
       0.108083 0.032437973 0.046208195 -0.020584164
000190 9c ba 0b 3e 89 76 1e 3d d6 af bc bd 3d 9b 0a 3a
       0.13645405 0.038687263 -0.092132255 0.00052874145
0001a0 a5 dc 1b 3e 8e 3c 2f 3d 77 84 c7 bd 20 da 5a 3d
       0.15220888 0.04278236 -0.097420625 0.053430676
0001b0 7d ca c5 3c 21 10 8f bd 8d 86 5e be bf 02 96 bd
       0.024144405 -0.06985498 -0.21731015 -0.073247425
0001c0 d0 f0 21 bd 0a a4 5a 3d 57 f5 a5 3d 66 6d 42 3d
       -0.039536297 0.053379096 0.081034355 0.04746761
0001d0 d9 23 48 be ea 98 34 3d 6d 21 92 3d a4 c8 7c 3e
       -0.19544925 0.044091143 0.07135282 0.24685913
0001e0 4e f3 40 be 4d 8a 3c bd 19 0e 32 bd 77 9a 5a 3d
       -0.18842813 -0.04603033 -0.043470476 0.053369965
0001f0 f2 84 22 be 14 4f fc 3d 10 4a d9 3d 06 cc 60 3d
       -0.15871027 0.123197705 0.106098294 0.054882072
000200 ad 26 8e be 63 74 93 3d a6 c5 0b 3e 8b 0b f7 bd
       -0.27763882 0.071999334 0.13649616 -0.120627485
000210 fb db 84 3e a4 a8 08 be 2f c5 c5 3d b6 e7 37 3d
       0.25949082 -0.13345581 0.096567504 0.04489871
000220 9c 41 07 3e 23 b5 f6 bd 31 50 49 3e d7 e8 75 3e
       0.13208622 -0.12046268 0.19659497 0.24014603
000230 e5 93 29 3e 22 aa 1f 3e d4 1e 28 bd 11 4e 71 3d
       0.16560324 0.15592244 -0.041045025 0.05891234
000240 37 5c 2c 3e 11 ee 63 bd a5 98 96 3d 28 44 8a 3e
       0.16832052 -0.05564696 0.073533334 0.27005124
000250 2c 20 18 3e d0 ce 6a be fc 14 78 bc 0d 18 62 be
       0.14856023 -0.22930455 -0.015141722 -0.22079487
000260 3c 68 73 bc fe 68 05 3e 0f 78 08 3d a4 39 98 bd
       -0.014856394 0.13028333 0.03331762 -0.07432869
000270 42 42 b2 bd ee 10 a1 be 42 53 0d be 75 e3 45 be
       -0.08704044 -0.3145823 -0.13801292 -0.19325049
000280 10 ba f8 3c 69 32 0c be b2 7b 42 be 92 ad 22 3e
       0.030362159 -0.13691105 -0.18992499 0.15886524
000290 ca 16 95 3e a4 f6 94 bd 59 54 f3 3d e7 02 7b bd
       0.2911895 -0.072736055 0.118813224 -0.061282065
0002a0 13 b5 30 bd dd f4 c5 3d 97 82 1c 3e 7e af 01 bd
       -0.043141436 0.096658446 0.15284191 -0.031661503
0002b0 22 27 14 be f6 f5 51 3d 11 10 90 3c 01 ed 12 be
       -0.14468053 0.051259957 0.017585786 -0.14348222
0002c0 a9 04 8b 3d 4a 13 76 be 69 01 80 be 8f ba c0 bc
       0.06787998 -0.24030796 -0.25001076 -0.023526458
0002d0 cb b2 82 3e bc 42 bc 3d 47 57 98 bd 0e 67 a2 be
       0.25527033 0.09192416 -0.07438522 -0.3171925
0002e0 68 1c d7 3d fd 92 e1 bc 50 e6 6e bd d6 ae 11 be
       0.10503465 -0.02753591 -0.058325112 -0.14226851
0002f0 bd e7 48 3d 3d 07 01 3e 12 18 79 bd 5e 60 0c be
       0.049049128 0.12600417 -0.06081397 -0.13708636
000300 76 12 0c 3e b0 de 08 3e 88 d0 5e bc 93 d6 f0 3d
       0.13678917 0.13366199 -0.013599522 0.11759677
000310 21 05 45 3e d9 43 56 3e a2 e7 87 bc 45 bd cd 3d
       0.19240238 0.2092432 -0.016589943 0.10045866
000320 ba 71 07 3e b8 1b 15 3e 6f a3 c9 bd 08 97 ba be
       0.13226977 0.14561355 -0.098456256 -0.36443353
000330 7c 80 1b 3e 4e 00 fc 3d 18 2c e8 3c fb db 3f be
       0.15185732 0.123047456 0.028341338 -0.1873626
000340 c0 d0 1c be df 76 23 be 35 bc d2 bd 8f ba 00 bc
       -0.15314007 -0.15963314 -0.10289804 -0.007856979
000350 70 95 9c 3d 8b 64 35 be 90 71 22 3d 2b a4 eb 3c
       0.076456904 -0.17714135 0.039659083 0.028764805
000360 43 e3 24 be eb 89 5e bd 87 ff dc bd 6b a6 b1 3d
       -0.16102318 -0.054330748 -0.107909255 0.0867432
000370 de 3b e5 bc 4f fe 2e 3d 7e fb 98 bd 7d e4 8b bc
       -0.027982648 0.042722996 -0.07469843 -0.017076725
000380 38 df 34 3e 1d 50 dd 3d 10 73 89 bd e5 4c e5 bd
       0.17663276 0.10806296 -0.067113996 -0.11196307
000390 7f 0f 74 be 0b a8 a4 3d 30 de 6a be 6e df d8 bd
       -0.23834036 0.08039864 -0.2293632 -0.10589491
0003a0 e9 cd f5 bd a2 0c 86 3e 9f f8 f1 3d 95 20 86 3e
       -0.12002165 0.26181513 0.11814999 0.26196733
0003b0 3f 78 0a 3d 53 ed 30 be a9 b8 8c 3e 72 67 88 be
       0.03380608 -0.17278032 0.27484635 -0.26641423
0003c0 f1 a7 a1 3d 8f d9 1b be 04 e8 6c 3d 89 7e 94 3e
       0.078933604 -0.15219711 0.057838455 0.2900279
0003d0 2b a8 0f be cb c8 83 be 11 a0 09 3e 1d c8 85 be
       -0.14028995 -0.2573913 0.13439967 -0.26129237
0003e0 05 7e 3f bd e2 2d 9f 3d 8e 0d 1a 3e 17 e5 8b 3d
       -0.04675104 0.07772423 0.15044233 0.06830805
0003f0 db 1f bf bd 5c 67 a3 bb 7e 44 a8 3d 15 d8 3e bd
       -0.09332248 -0.0049866866 0.08216189 -0.04659279

mlp.2.bias f4 [128]
000000 b7 0d 9f bd b1 bb 96 bd f4 f7 a9 bb 01 90 68 bd
       -0.07766288 -0.07360018 -0.005187029 -0.056777958
000010 40 60 dd bd b7 fb 37 be 14 15 ba 3b 38 b7 bc bd
       -0.10809374 -0.17967115 0.0056787822 -0.09214634
000020 04 31 5d 3d 49 04 dd 3d 02 eb e8 3d 76 4b 00 be
       0.054001823 0.10791833 0.11372949 -0.12528786
000030 2e b3 88 3d fd 0c 3a 3d 1e 81 0a 3d de f8 ea 3b
       0.06674801 0.045422543 0.033814542 0.0071707806
000040 5b 8c a5 3d ac 4f 62 3d 1a d6 c9 bd ae 00 85 bd
       0.08083411 0.055251762 -0.0985529 -0.0649427
000050 ad 4f c2 bd 63 80 17 bd 00 18 03 3b b7 79 20 bd
       -0.09487853 -0.036987673 0.0020003319 -0.039178576
000060 0e f2 be 3d ab 21 06 3d 4b db 2b bc d3 f1 01 3e
       0.09323512 0.032746952 -0.010489295 0.12689905
000070 7e 2e b5 bd cb c2 a3 3c 80 ea bb 3d 31 c2 ab bd
       -0.08846758 0.019990345 0.09175587 -0.083866484
000080 a4 33 ff bc 25 d0 a6 bd 7f e9 94 bd 1a 18 8d bd
       -0.031152554 -0.08145169 -0.07271098 -0.06889363
000090 a2 e5 31 3d 95 b7 99 3d 1f 63 61 bd d0 2e 5d bd
       0.043431886 0.075057186 -0.05502617 -0.053999722
0000a0 48 95 b0 3c aa 36 b4 3d dd 61 89 bd b5 f8 23 bc
       0.021555558 0.08799489 -0.06708119 -0.010008027
0000b0 ed bd ef bc 9b 41 55 ba be 8b af bd 92 a7 ae bc
       -0.029265368 -0.0008135081 -0.085715756 -0.021320138
0000c0 85 4d 27 3d 86 28 f9 bc 95 88 6d 3d d3 a6 dc 3d
       0.040845413 -0.03041483 0.057991583 0.10774007
0000d0 74 3b 1b bc da 23 f8 bc 09 cc df 3c b1 a7 e5 bd
       -0.009474624 -0.030290533 0.027318971 -0.11213625
0000e0 7f 75 de 3d 64 04 c6 bd 74 46 15 bd 9d cd f5 3d
       0.10862254 -0.09668806 -0.036444142 0.12002108
0000f0 59 88 21 3d 26 d5 44 bd 52 06 50 3c 2a 85 12 bc
       0.039436672 -0.048054837 0.012696819 -0.008942882
000100 9f 54 e9 3d 8e 58 88 bd c8 8c df bd 37 79 95 3c
       0.11393093 -0.066575155 -0.10915524 0.018246276
000110 90 69 9d bd 78 b3 eb bc 43 ac d9 3d 52 6b 20 3d
       -0.0768615 -0.0287721 0.106285594 0.03916485
000120 a1 62 c1 bc 98 9d 21 3e 60 9f 68 bd 32 a4 c3 bd
       -0.0236066 0.15782773 -0.056792617 -0.09552802
000130 5d 8a c8 bd f7 7c b4 bc 33 de 13 bd cd 55 8d bd
       -0.09792016 -0.022032244 -0.036100578 -0.06901131
000140 1a 3a a7 bd 77 ee 88 3d 67 1b 48 3d 05 74 95 3d
       -0.08165379 0.066861086 0.048854258 0.072975196
000150 6f 95 80 3d 52 05 da 3c a6 50 d5 3c db 29 f4 bc
       0.06278502 0.026613865 0.026039433 -0.029805114
000160 c0 8a 9b 3d 47 9e 16 bd 65 20 4f bd da ce 8f bb
       0.07594824 -0.03677204 -0.050568003 -0.0043886723
000170 98 de 07 3d 85 ad 40 3c cd 00 d1 bd 1a 53 c9 3b
       0.033171266 0.01176012 -0.10205231 0.0061439397
000180 cc 60 0d bd e7 2f 80 3c a7 0c c6 3c 49 b6 1f bd
       -0.03451614 0.015647842 0.024175955 -0.0389922
000190 41 65 5b 3d bb 34 07 3e c1 02 2f 3d 89 28 0a bd
       0.05356336 0.13203709 0.042727236 -0.033730064
0001a0 ce 9f df 3d 0c c0 a4 3d 43 c6 ef 3d f2 b9 59 3d
       0.10919152 0.080444425 0.11707737 0.053155847
0001b0 4d 02 08 3e 2a 8f 8d 3d 98 83 7f 3d 80 c2 56 3d
       0.13282128 0.06912072 0.062381357 0.052431583
0001c0 8b c7 92 3d 2e c5 a2 3d 79 95 c8 3d 71 f3 84 ba
       0.07166966 0.07947765 0.09794135 -0.0010143352
0001d0 d1 8f 0c 3d aa f2 36 3d a7 18 8b bd 71 a2 a8 3c
       0.03431684 0.044665016 -0.067918114 0.02058527
0001e0 62 d7 1f 3d 6a af 79 3d 58 86 22 3b 37 e2 0d 3b
       0.039023764 0.060958304 0.0024799313 0.0021649727
0001f0 52 ee d7 3c 69 44 04 3e b4 3a 77 3d d6 48 b4 bc
       0.026358757 0.12916721 0.060358718 -0.022007387

mlp.4.weight f4 [128, 128]
000000 1e d8 10 3e fd 5f 11 3e a3 14 83 3d 2c 4e 7f bd
       0.14144942 0.14196773 0.064004205 -0.06233041
000010 85 a1 46 3d 61 10 9a bd 8b 7c a4 3d 75 27 5b bc
       0.04849388 -0.07522655 0.08031567 -0.0133761065
000020 57 24 4c be c1 94 61 be da 2b d1 3d 76 93 d4 3b
       -0.19935738 -0.22029401 0.10213442 0.0064873053
000030 0e 1c e0 3d 9e 1a ad 3d 6d 47 83 bd bc 38 f2 3c
       0.10942851 0.084523425 -0.06410108 0.029568069
000040 c1 82 44 3d 6b 45 18 3e 18 cc d6 3c 8b 30 d6 bc
       0.04797626 0.14870231 0.026220366 -0.026146194
000050 ff d9 21 3e 0b 63 51 3e 90 d0 4f 3d 31 e2 1e 3e
       0.15805815 0.20447938 0.05073601 0.15515973
000060 54 42 cc bd 22 29 54 3c 3a bd 30 3e 25 fa 8f be
       -0.099735886 0.01294926 0.17259684 -0.28120533
000070 ca 0f 31 3e 52 2b 87 bc 5b a9 04 3d 33 6e c6 bc
       0.1729118 -0.016500149 0.032388072 -0.024222469
000080 b1 fd fe bc af 26 db bd 0d 41 0c 3e 84 87 4a 3d
       -0.031126829 -0.10700738 0.1369669 0.049445644
000090 0b a2 9b bd dc 3c 62 3d 54 de 82 3a 00 25 68 3c
       -0.075992666 0.05523382 0.0009984472 0.014168978
0000a0 6f ba da bd ac 95 86 3d c8 ee ed 3d da af 33 be
       -0.10680091 0.065715164 0.116178095 -0.17547551
0000b0 90 09 08 be 54 69 22 bd 46 f2 90 3d fc 18 9c 3d
       -0.13284898 -0.03965123 0.0707746 0.07621953
0000c0 ee 72 97 3d d7 f4 e3 3d 66 cd 00 bd 89 73 19 bd
       0.07394968 0.11130684 -0.031445883 -0.0374637
0000d0 6c 1e be 3d 23 27 2d 3d 7b c0 b9 bd c2 7b 96 3e
       0.09283146 0.04227365 -0.09069916 0.29391295
0000e0 6c ac 71 bd 2c f8 16 3e 77 f3 65 3d b6 3d 07 3d
       -0.059002325 0.14743108 0.05614039 0.033017837
0000f0 94 f0 9b 3d 2d 32 8c 3d 96 cb 21 3e f5 d4 d8 3d
       0.07614246 0.06845508 0.15800318 0.10587493
000100 c0 24 33 3d 6c 55 41 3d fb d4 40 3e c6 a5 58 3c
       0.04373622 0.047200605 0.18831246 0.013223117
000110 ef 3d d4 3d 74 bc 81 bd a5 fc b4 3d d9 33 ce 3c
       0.103633754 -0.06334773 0.088372506 0.025171207
000120 a8 f4 58 bd 1f a2 fc bd ee 66 ef bd 97 27 12 3e
       -0.052967697 -0.1233561 -0.11689554 0.14272915
000130 22 77 45 3d ab 0a 2a 3e 9c fa bb bd a1 c4 ed 3d
       0.048209317 0.16605632 -0.09178659 0.116097696
000140 99 f4 2a 3e 26 a2 72 be eb 0d 14 3c 34 7b a1 bb
       0.16694869 -0.23694667 0.009036521 -0.004928017
000150 1d 69 e2 bd 74 c0 2d be 09 14 2a 3e 8b 41 93 3d
       -0.11055205 -0.16967946 0.16609205 0.07190236
000160 70 1e 87 bc c0 94 78 3d 6b 95 a1 bd f3 5b 1c 3e
       -0.016494006 0.060688734 -0.07889827 0.15269451
000170 ed bd 3b 3e 89 8d 3b be f4 dd 5a 3d 8e 42 aa 3c
       0.1833417 -0.1831571 0.053434327 0.020783689
000180 33 13 ae bd b2 1a 31 be 83 f9 3d bd 4a 72 26 be
       -0.08499756 -0.1729534 -0.04638053 -0.16254535
000190 7b 2f 19 3e 5b 18 43 be bf e3 32 be 1c c0 73 3c
       0.14959519 -0.1905226 -0.1746969 0.014877345
0001a0 87 9b bc 3b d2 29 11 be 1e e2 87 be 33 21 4e 3b
       0.005755845 -0.1417611 -0.265397 0.0031452894
0001b0 88 13 db bd fc e0 04 be 4a 0e e8 3d 0d f8 a4 3d
       -0.10697085 -0.1297645 0.113308504 0.080551244
0001c0 62 8e 8d bd 0a 7b 9c 3c e5 8b e6 bc 2a b8 88 3e
       -0.06911923 0.019101638 -0.028142879 0.26703006
0001d0 e4 63 81 bd 19 38 3b be 57 90 ce 3d 7c 80 47 3d
       -0.06317881 -0.18283118 0.100861244 0.048706517
0001e0 4d 83 39 3d 48 6d 68 bd 8a cb 00 be 88 d5 7a b9
       0.045291234 -0.056744844 -0.12577644 -0.00023921404
0001f0 c8 9b b9 3d b2 1b 51 be 24 a5 de 3c 76 88 26 3e
       0.09062916 -0.20420721 0.027178355 0.16262993
000200 ab 88 0c be 43 a2 82 3d 01 33 71 bd 9a 8e a3 3b
       -0.1372401 0.06378605 -0.05888653 0.0049913647
000210 19 55 d4 bd ba b9 0d 3b d2 21 b8 bc 96 51 e6 3d
       -0.103677936 0.0021625594 -0.022477064 0.1124603
000220 a2 1f 95 3d 6d 7e 43 3b f6 e3 b3 3c ed 29 21 3d
       0.07281424 0.0029829994 0.021959286 0.039346624
000230 27 36 95 3d 29 0a 1e 3e 3d 8f ea bc cc 98 6b bd
       0.07285719 0.15433563 -0.028632754 -0.057518765
000240 f4 4a 10 be b9 6a 72 bd bc 7d 9a bb c8 2d 32 bd
       -0.14091092 -0.05918381 -0.0047146957 -0.04350069
000250 bc aa d7 bd 86 5e 49 bd 28 c0 ad bc 05 e0 11 3d
       -0.10530612 -0.04916241 -0.021209791 0.035614032
000260 21 60 1b bc 23 b5 94 ba 75 5f 00 bc 5b 29 80 3d
       -0.009483368 -0.0011345487 -0.007835259 0.06257888
000270 c7 81 ba bd 5c 4c 93 3d fe a5 f6 bd 7a 76 c3 bb
       -0.09106784 0.07192299 -0.12043379 -0.0059650512
000280 aa 7c 90 3b ab 44 0d bd 21 a6 ab bd d3 29 01 bd
       0.0044093924 -0.034489315 -0.08381296 -0.031534027
000290 9e 23 15 3e 43 c4 50 3c 11 df 63 bc 81 a9 83 3c
       0.14564368 0.012742105 -0.013908164 0.016072037
0002a0 0e 15 72 bd b5 85 cc bd 37 04 d3 3d 29 3f 14 ba
       -0.05910211 -0.0998644 0.10303538 -0.00056551635
0002b0 f1 36 06 3e 7e b3 0a 3d 66 2d e7 3c 4d 91 0a be
       0.13106896 0.033862583 0.02821989 -0.1353199
0002c0 c5 1f bc 3d bd 37 cc 3b 76 e5 06 be 55 bf dd 3c
       0.09185747 0.0062322305 -0.1317347 0.027068773
0002d0 19 2b 88 bd 9b b2 50 bd dd d6 d1 bd 36 c6 c6 bb
       -0.06648845 -0.05095158 -0.1024606 -0.006066109
0002e0 36 96 b0 3d 4b 49 d0 3d 0e ff 86 3d 38 42 be bd
       0.086224005 0.101702295 0.065916166 -0.09289974
0002f0 f3 17 ff bc ae 24 20 bd d0 04 43 3d 5b 07 aa bd
       -0.03113935 -0.03909748 0.04761201 -0.08302184
000300 92 c9 64 3d 5e 24 04 3d b7 e8 fe 3c 3a 41 16 ba
       0.055856295 0.032261245 0.031116826 -0.00057317654
000310 af 55 2f bd 31 bb 91 3d 75 8f c2 bb 8b 16 7e 3d
       -0.042806324 0.07115782 -0.0059375116 0.062033217
000320 59 80 52 bd b4 47 96 bd 26 26 8a 3d d3 b3 8b bd
       -0.051391933 -0.07337895 0.067455575 -0.06821408
000330 9b 8d 26 3d 74 6b 33 3d 96 ed b6 3d ad df 80 bb
       0.04066239 0.043803647 0.08932035 -0.003932914
000340 22 3d a3 bc d9 24 ef 3d 18 95 16 bd b7 04 c0 3d
       -0.019926611 0.1167695 -0.03676328 0.09375899
000350 5b a7 7a bc 67 f8 a8 3d b3 66 11 3e 39 56 29 bb
       -0.01529869 0.08250504 0.14199333 -0.0025838746
000360 3e 20 24 bc 8b 8d 59 bd 28 e3 ea bd 8b 1b ac 3b
       -0.010017453 -0.0531135 -0.11469108 0.005252307
000370 5b 74 9b bc 75 57 8f 3d 7f 6b 63 3b 51 f1 cf bd
       -0.018976381 0.06999103 0.0034701524 -0.10153449
000380 b3 da 5f 3d 6f 1a f4 bb 20 75 41 3d 52 3c 1b bd
       0.054651927 -0.00744944 0.04723084 -0.037899323
000390 23 5f ad 3d ba cd e0 bd fd b3 02 bd 41 da dd bd
       0.084654115 -0.10976739 -0.03190993 -0.10832644
0003a0 5e 6a d6 3b 13 26 c3 bd 4e df 22 3e d2 6e 1a bd
       0.0065434417 -0.095287465 0.15905496 -0.037703343
0003b0 aa bb c0 bc 5f 9b a2 bd 23 ea 1a 3d d0 e5 89 3d
       -0.023526985 -0.07939791 0.037820946 0.067332864
0003c0 2b 4f 84 3c 04 c9 9f 3c 69 34 1e 3d 8f 85 45 bd
       0.016151031 0.019505031 0.0386242 -0.048223075
0003d0 68 a3 c7 bd 08 b3 5e 3d da ca ab 3d 63 7f 4d bd
       -0.09747964 0.054369956 0.083883 -0.050170314
0003e0 0a 75 db 3d 6a e2 39 3d 78 75 a0 bd 53 d1 e4 bc
       0.10715683 0.04538194 -0.078349054 -0.027931845
0003f0 8b f9 5a 3c fd 17 d6 bd 78 13 20 bc 7c 78 80 bd
       0.01336516 -0.10453794 -0.009770267 -0.062729806

mlp.4.bias f4 [128]
000000 ee dc aa bc 34 b0 81 bb d2 7c 05 3b 23 f6 a4 3d
       -0.0208573 -0.0039577726 0.0020368588 0.08054759
000010 45 0f 28 3e 40 49 13 3e 4f 3c 6f 3d 1d bd 1a bd
       0.16412075 0.14383411 0.058407124 -0.03777801
000020 2c 12 a4 bd 1e b1 0e bd 05 50 f6 bd 84 06 a0 bc
       -0.080112785 -0.03483688 -0.12026981 -0.019534357
000030 72 8f 0f 3d 40 01 e2 bc ec 75 2a 3d 37 3a 8a bc
       0.03504891 -0.027588487 0.041616365 -0.016873462
000040 13 c6 b6 3c f1 dc 60 bd 43 7f 9d bb 62 70 0e 3e
       0.022311246 -0.054898206 -0.0048064305 0.13910058
000050 c1 76 7c bd 62 7b a7 bc 43 59 c5 bd ae 16 8a 3d
       -0.06163669 -0.020444576 -0.09636166 0.06742607
000060 90 14 2d bd a4 bb 66 bd 81 71 0e be 22 e9 24 3d
       -0.042255938 -0.05633129 -0.13910486 0.040261395
000070 ff 8e 88 bc a7 b6 47 3d 78 ef 12 3e c3 d1 81 3d
       -0.016669748 0.048758175 0.14349163 0.06338837
000080 e7 9c 82 bd 90 c9 d6 bb 9f 20 d8 bc 8d 39 6c bc
       -0.06377583 -0.00655479 -0.026382742 -0.014418018
000090 9c 06 8d 3d ca 20 8a be 71 f2 44 bd b6 ef 76 bd
       0.06886026 -0.2697814 -0.048082773 -0.0602872
0000a0 55 9f eb 3c e9 bc f8 3d fd 3a d9 3d 7e eb 13 3e
       0.028762499 0.12145407 0.10606954 0.14445302
0000b0 89 4c 7e 3d 09 36 44 3d 99 0e 1c bd 01 bb f4 3d
       0.06208471 0.047903094 -0.03809986 0.11949731
0000c0 9b 6c 5a 3d b0 88 28 3d e3 5b 8d bd 9a ba f4 3c
       0.05332623 0.04114598 -0.069022916 0.029874135
0000d0 4c 47 b6 3a 33 0c 13 3e 7e a8 47 be f3 29 aa bd
       0.0013906746 0.14360122 -0.19497868 -0.083087824
0000e0 e4 bd a7 3d d5 9d 80 bd 24 13 63 bd e2 21 88 3d
       0.08190516 -0.06280104 -0.055438176 0.06647088
0000f0 dc 70 26 bd 05 09 83 3d 4f 8b bb bc 85 e3 c7 bb
       -0.040634975 0.06398205 -0.022893576 -0.0061001205
000100 a4 e8 d6 bd f4 d3 b4 3d 2a bc 15 3e e3 18 5e be
       -0.104935914 0.08829489 0.1462256 -0.21689181
000110 a6 dd 1a be 67 c6 7e 3c ec 41 b5 3d 86 bc e6 bc
       -0.15123615 0.0155502325 0.08850464 -0.028166067
000120 cc a9 85 3d d0 54 a3 bd 78 ed 22 3e 1e 7b 0d bd
       0.06526527 -0.07975161 0.159109 -0.03454124
000130 0f 1e 81 bd 7e f5 83 bd 62 4e 1a 3e 1f fc bb 3d
       -0.06304561 -0.06443308 0.15068963 0.09178948
000140 d3 85 8e bd 46 a7 71 bd 2b 66 09 ba e4 ec 97 bc
       -0.06959119 -0.058997415 -0.00052413595 -0.018545575
000150 f3 1d 2d 3d b3 65 8d 3d 17 aa e7 3d 5a 67 84 bd
       0.04226489 0.06904163 0.11311739 -0.06465025
000160 c5 46 67 bb 3f 01 1f 3d a9 ef 38 bd 50 2e 64 3c
       -0.0035289985 0.038819548 -0.045150433 0.013927057
000170 f1 f3 03 be 5d 4c 0a 3e 9d 4b 57 3e 16 22 2e be
       -0.12886025 0.13505693 0.21024938 -0.1700519
000180 9e de 87 3d c5 b0 9e bd a9 42 bf bd 16 29 c4 bd
       0.06634258 -0.0774856 -0.09338886 -0.09578149
000190 61 ab e9 bb 0f 30 ef 3d ca df 2d bb f9 9a 75 3d
       -0.0071310257 0.11679088 -0.0026531094 0.059962247
0001a0 c3 86 07 3d db 12 11 bd 53 0c 0c 3e 2f fe 11 3e
       0.033087503 -0.035418373 0.13676576 0.1425712
0001b0 92 4e 11 3d da 34 ef 3b 53 20 83 3d ea b8 b7 3c
       0.03547532 0.0073000016 0.0640265 0.022427041
0001c0 bf 6f 1b 3c 5f 9d 95 bd 52 47 82 bd 8e e8 1c 3d
       0.009487092 -0.07305407 -0.063612595 0.03830772
0001d0 a2 06 18 bc 50 65 ae 3d 3c 51 04 bd e8 ed af bd
       -0.009278925 0.085154176 -0.032304034 -0.08590299
0001e0 e5 ae 26 bd 7b dd 48 3d 7e a8 d5 bc c9 02 3e bd
       -0.040694136 0.049039345 -0.02608132 -0.046389375
0001f0 2a d7 f6 bc d9 29 d6 bc e0 2a 89 3d 76 e4 ba 3d
       -0.030131895 -0.026143001 0.06697631 0.09125607

mlp.6.weight f4 [128, 128]
000000 59 4b 17 3e 31 ae 87 bd 37 b5 85 3b b0 be 0a 3e
       0.14774837 -0.06625021 0.0040804404 0.13549304
000010 6b ce 53 3d ec aa 70 be 96 66 11 be 52 68 0f bd
       0.051710527 -0.23502702 -0.1419929 -0.035011597
000020 dc 2c 0c be 1a 8f 0c 3e 33 a8 b3 bd 44 2d e5 b9
       -0.13688987 0.13726464 -0.08772316 -0.0004371201
000030 88 b7 62 bd 80 33 e3 bd 48 58 cf bd f8 a5 d5 3d
       -0.05535081 -0.11093807 -0.1012426 0.10432047
000040 6d 08 77 3d 5d c9 13 3e 12 25 1a be 61 f3 0d 3e
       0.06031077 0.14432283 -0.15053204 0.13862373
000050 b6 bb 75 bc e5 98 ae 3d 30 4d 88 be 5b 29 a5 3d
       -0.014998367 0.08525256 -0.2662139 0.080645286
000060 3d e7 d9 3b 10 de 3b 3e 16 45 3c be e7 dc f1 3c
       0.00664988 0.18346429 -0.18385729 0.02952428
000070 46 01 ca bd d3 0f de bd 1e 5d 16 3d de 74 3c 3e
       -0.09863524 -0.10842862 0.036709897 0.18403956
000080 e4 82 5b 3c 9e fe e3 3d 56 47 e3 3d de e1 65 be
       0.013397906 0.11132549 0.110975906 -0.22449443
000090 28 14 45 be 41 c3 47 3e ef 4b 08 be 63 18 66 bc
       -0.1924597 0.19508077 -0.13310216 -0.0140439
0000a0 05 11 37 bd f9 56 89 3c 9a 09 24 bc 43 3c 35 3e
       -0.044693965 0.016765105 -0.010012055 0.1769877
0000b0 09 64 61 3d 58 ba 38 bd 40 48 18 be 90 9b 04 bd
       0.05502704 -0.045099586 -0.14871311 -0.03237492
0000c0 22 ae 39 bc bd 15 83 be 2f f7 8a bd 3e 56 52 bc
       -0.01133302 -0.25602522 -0.06785428 -0.012837945
0000d0 73 22 0c be c9 2a 0f bd 44 2a d3 bd a4 f1 04 be
       -0.13685016 -0.034952912 -0.10310796 -0.12982804
0000e0 1a 1d 82 bc 05 39 05 3e e1 89 81 3d df 2d 66 be
       -0.015883017 0.13010032 0.063251264 -0.22478436
0000f0 4e 43 98 bd 30 89 89 3d 99 07 c3 3c 60 1c f7 3d
       -0.07434712 0.067156196 0.023807334 0.12065959
000100 96 83 2d be bb 6f 68 bb e5 30 18 3e 38 64 36 3d
       -0.16944727 -0.0035466987 0.14862402 0.04452917
000110 29 a8 4c 3e 97 2f 82 3e fe 2c 84 3d 3a 04 c3 bd
       0.19986023 0.25426933 0.06453894 -0.095222905
000120 89 59 b5 bd c1 86 2a be 5e 97 28 be c6 13 cf 3d
       -0.08854968 -0.16652967 -0.16463992 0.10111193
000130 3b f6 04 3e b4 66 38 3d a6 04 34 3d f2 fa 3b be
       0.12984554 0.04501982 0.043949746 -0.18357447
000140 b8 93 02 3e d3 4d 91 bd 7d 7e f0 3d e7 9a ed bd
       0.12751663 -0.07094922 0.11742876 -0.11601811
000150 0a 3b 0b be cf f6 1e 3e 74 99 93 bd 82 94 4c be
       -0.1359674 0.15523838 -0.07207003 -0.19978526
000160 c8 b9 53 be 79 04 b8 3d c5 56 be bd 6c cb 89 bd
       -0.20676339 0.08985228 -0.09293894 -0.06728253
000170 84 0e 3c 3d 56 53 ce bd 2b 88 0e 3e f9 79 ba 3d
       0.04591228 -0.10074489 0.13919131 0.09105296
000180 2d 6c bf 3e 9b 58 05 3d 8f 42 69 3e 3a 7f 2c be
       0.3738722 0.032555204 0.22779296 -0.16845408
000190 bd b5 08 3e b1 d8 5f 3d 32 6d 33 3d 4e bd 09 3d
       0.13350578 0.054650012 0.04380531 0.0336278
0001a0 f2 57 03 3d db 73 35 bd 95 33 56 bb 59 7e ea bc
       0.032066293 -0.04429994 -0.0032684554 -0.0286247
0001b0 e2 99 44 bd fb 24 0f be d9 32 8d 3d 6d 2a 10 3e
       -0.047998317 -0.1397895 0.06894464 0.14078684
0001c0 9e 5c fa 3c f4 5c 6f bd 1c 58 8a 3d c7 7f 47 be
       0.030561741 -0.058438256 0.06755087 -0.19482337
0001d0 60 87 f1 3c ee a4 99 3d 0e 36 b5 bd c0 cc bd bd
       0.029483497 0.07502161 -0.08848201 -0.092675686
0001e0 1f 13 82 bd 57 58 4f 3d 35 f4 f2 3d b4 65 ce bc
       -0.06351303 0.050621357 0.11862985 -0.02519498
0001f0 17 47 6f 3e 1c 3a e5 bd b3 75 c6 3d 9b 0f 03 3e
       0.23366962 -0.11192724 0.09690418 0.12798922
000200 7d 0b f8 3d 95 34 24 3e 9a e3 54 be 33 67 af bb
       0.12111566 0.16035683 -0.20789948 -0.0053528785
000210 16 3a 14 be 25 51 24 be c3 41 cc 3d 2b 8a 3a bd
       -0.14475283 -0.16046579 0.099734806 -0.045541923
000220 65 75 28 3e 95 fc ee 3d 5f ad da bd dc c0 86 be
       0.16451032 0.1166927 -0.10677599 -0.26319015
000230 ba 4a 86 bd 32 ea 26 be f0 d4 66 be 5f ab 1a 3d
       -0.06557222 -0.16300276 -0.22542167 0.03776109
000240 77 5c a1 3d 09 3f a1 3e 04 d6 ca 3e 85 fb 52 3d
       0.078789644 0.31493405 0.39616406 0.0515094
000250 48 f5 71 3d 30 98 71 be 7d 89 6b 3e d7 ad f9 bd
       0.05907181 -0.23593211 0.23001666 -0.121913604
000260 d9 3f 1d bd 4d 0d 99 3e a4 ea 96 3e c0 4d 5e bd
       -0.038390968 0.2989296 0.29475892 -0.054273367
000270 d0 aa 1b 3e 2c d4 2a 3c 8a 66 38 bd 18 92 07 bd
       0.15201879 0.010426562 -0.045019664 -0.03309831
000280 7e 63 b3 bd 24 d4 9b 3d e8 5f 15 3e b1 ba b7 3d
       -0.08759211 0.07608822 0.14587367 0.089711554
000290 2e 3f ba 3d 9c d1 07 bf c1 f1 c8 3e 80 ec 25 3e
       0.09094082 -0.53054214 0.39246944 0.16203499
0002a0 7f c2 9d be b7 75 c6 bd a6 49 e2 3e 58 43 9b 3d
       -0.3081245 -0.09690421 0.44196814 0.07581204
0002b0 0b 6c 12 bd 28 6f 5b bd 77 2d 49 3e bf 62 85 be
       -0.03574757 -0.053572804 0.1964625 -0.260519
0002c0 0d 22 b5 3e aa 82 e2 bc 5f 90 82 be 14 6f d0 3d
       0.3537754 -0.027650196 -0.2550077 0.101774365
0002d0 cb 0b 9a be 8d 88 e0 3d bc 83 eb bc 25 b7 a9 bc
       -0.30087122 0.10963545 -0.02874934 -0.020717213
0002e0 f6 f6 cb bc ed a9 87 3e 07 37 50 3e c6 ab ec bd
       -0.024898034 0.2649683 0.20333491 -0.11556201
0002f0 e9 59 d1 3d ac cf 80 3e e3 32 7f 3c 73 33 bd bd
       0.10222227 0.2515844 0.015576097 -0.09238329
000300 f9 c4 c4 bd 96 d6 8a 3d de 22 67 be e4 0c 77 3d
       -0.09607882 0.0677921 -0.22571895 0.060315028
000310 78 e6 20 bd 93 88 17 3e db a0 3f 3e e2 15 a6 3c
       -0.039282292 0.14798193 0.18713705 0.020274106
000320 0a 92 01 3f 65 fb 58 3e 44 b4 b3 be 8f c6 e7 bd
       0.5061346 0.2118965 -0.3509847 -0.11317169
000330 25 9f d7 bd 04 04 d3 bd 2a 39 95 3d a7 25 a9 bd
       -0.10528401 -0.103035 0.07286294 -0.08259135
000340 47 d2 f8 3d 7b 40 42 3d 8d bb 35 3d fb f6 f8 3d
       0.12149482 0.047424775 0.044368315 0.12156483
000350 07 cf 8e 3d b6 f8 1e 3e ba 0c 9b 3d 12 b7 43 3e
       0.06973081 0.15524563 0.07570787 0.19112805
000360 ff f5 a0 be 9f 94 aa 3e e4 96 a1 be c8 34 3d bd
       -0.3143768 0.33316514 -0.31560433 -0.046192914
000370 da 7a 75 3e f6 b7 79 be 5b 13 d5 3d 2f 9e a3 bd
       0.23972645 -0.24386582 0.104040824 -0.079891555
000380 dc 29 55 3e 52 83 af 3d 49 f2 40 be ee a1 85 3e
       0.2081675 0.08569969 -0.18842424 0.26100105
000390 a1 ed c6 3c 15 3b d5 bd 7d 04 62 3e 87 17 1d 3e
       0.024283232 -0.1041166 0.22072025 0.15341006
0003a0 99 74 99 3d ae 63 eb 3c 29 c3 e8 3c 3f 7a d2 bd
       0.07492942 0.028734054 0.028413372 -0.10277223
0003b0 7a 4d 20 3e 4a 72 90 3e 18 80 2d bd 53 23 43 be
       0.15654555 0.28212196 -0.042358488 -0.19056444
0003c0 d6 da 08 3e b2 1a 35 be 01 c5 47 3e d7 59 64 bd
       0.1336473 -0.17685965 0.19508745 -0.05574974
0003d0 e4 c7 60 3d c9 3b 80 bd ec 46 67 3e c4 ff 8f be
       0.05487813 -0.06261403 0.22585648 -0.2812482
0003e0 a4 e9 87 bd b1 f0 8d 3e 42 b8 06 bd 2f fb 89 3d
       -0.0663636 0.27722695 -0.032890566 0.067373626
0003f0 8b 0e 1d 3d a9 f1 92 be 5a b3 91 be 34 a6 8a be
       0.038343947 -0.28699997 -0.28457147 -0.27079928

mlp.6.bias f4 [128]
000000 1f 01 28 3e 0f 48 41 be 42 5b ad bd 09 cb d6 3d
       0.16406678 -0.18875144 -0.08464672 0.10487945
000010 d6 89 c4 3d 6c ad 95 bc 1e be f9 3a 5f 2e 03 3c
       0.095966026 -0.01827117 0.0019053852 0.008006661
000020 6b 3f 18 bd 9e ad d7 bc df ab 70 3d 5b a2 32 3e
       -0.037169855 -0.026327904 0.05875766 0.17444746
000030 a7 3e 22 be ac 6a c2 3d fd de f1 bd 5f cc 6e bd
       -0.15844212 0.09493002 -0.1181011 -0.058300372
000040 bf c3 9a 3d 10 07 46 3d 82 b7 34 3c 42 55 36 be
       0.07556867 0.04834658 0.01103008 -0.17805961
000050 9a 01 85 bd 76 49 55 bb 05 22 2c 3d 9d dd c3 bd
       -0.06494446 -0.0032545007 0.04202463 -0.09563754
000060 ee 99 8d 3d 54 f4 a6 bd 90 6a 1a 3d 84 43 7a 3b
       0.069141254 -0.08152071 0.037699282 0.0038187215
000070 4f 21 09 3d 43 49 cc bd f9 87 76 bc 28 25 ca 3d
       0.03347903 -0.09974911 -0.015047067 0.09870368
000080 85 c3 95 3d 24 bd b1 3d 1f 96 d0 bd 1a c5 81 3e
       0.07312683 0.08678654 -0.10184883 0.2534569
000090 68 f1 57 3d 33 d4 eb bd 7b 7d 10 be 2e 85 49 3e
       0.052720457 -0.11515083 -0.14110367 0.1967971
0000a0 15 c6 36 bd 0f 1d 54 3d a5 5b c7 3d 79 2d 68 3d
       -0.0446225 0.051785525 0.09734277 0.05668399
0000b0 17 bd 21 3d 5a 6e 88 3d dd c7 d8 3d 88 1c dc 37
       0.03948697 0.06661673 0.10584996 2.623933e-05
0000c0 71 eb 07 3e c5 4f 3c 3d e0 64 95 bd d3 93 46 bd
       0.13273408 0.04597451 -0.07294631 -0.04848082
0000d0 d8 b7 9c 3d 7c 9e 95 3c 2d a8 ac 3c c1 93 41 bd
       0.07652253 0.018264048 0.021076286 -0.04726005
0000e0 54 92 c4 bc 75 e7 7a bd 6f e4 a1 3b 51 29 23 3c
       -0.023995556 -0.06125589 0.0049405615 0.009958581
0000f0 6a e1 51 3d 73 79 ce be d1 d1 a8 3d 62 85 e6 bc
       0.051240362 -0.40327033 0.08243144 -0.028139774
000100 38 99 a2 bc 61 ff 93 3d 62 37 a9 3d bb 84 eb 3b
       -0.019848451 0.07226444 0.082625166 0.0071874536
000110 7e 4b a7 3d ef c4 22 bd c3 0a 2d bd ca 96 2a 3e
       0.08168696 -0.03973859 -0.04224659 0.16659084
000120 09 fb 9f 3d 6c 33 44 bc 62 4b 3d 3c 6b e6 61 bc
       0.07811553 -0.011975151 0.011553617 -0.013787846
000130 f9 15 12 3e dc e6 89 bd ce 80 95 ba 82 46 21 bd
       0.14266194 -0.06733486 -0.0011406185 -0.039373882
000140 bd e4 c4 bc 30 b1 ed bc 01 56 7e 3d 00 4c 46 3e
       -0.024034852 -0.029015154 0.06209374 0.19364929
000150 8c e0 0b bb 04 96 88 3d de 62 78 bd 98 89 46 bd
       -0.0021343557 0.06669238 -0.060641162 -0.048471063
000160 77 14 3b bc b1 bf b4 bc b1 a2 9e 3d 4b 8a 04 3d
       -0.011418453 -0.022064062 0.07745875 0.03235845
000170 46 e7 35 3d 59 3e 96 3d ea 5d 67 3d 3d 59 52 3e
       0.044410013 0.073361106 0.056486048 0.20541854
000180 89 b3 bc 3d 93 55 4a 3e 08 22 31 3e 88 a6 88 3d
       0.09213931 0.19759206 0.17298138 0.06672388
000190 52 b1 ce bb f1 e6 91 3d a5 cf d7 bd 03 f7 5a bd
       -0.0063077593 0.07124127 -0.10537652 -0.053458225
0001a0 34 48 80 bd 5f af 2f bd b7 2b 43 bd f6 ac a2 3b
       -0.06263772 -0.042891856 -0.04764911 0.004964466
0001b0 40 bf b7 bb a5 30 1a 3d 22 c4 76 bd b3 63 03 3e
       -0.0056075156 0.037644047 -0.06024564 0.12831001
0001c0 51 cb 15 bd d4 1d 28 3a 81 0e 3e bd 51 72 9c bd
       -0.03657085 0.0006413136 -0.04640055 -0.076389916
0001d0 9b 41 11 3e 29 39 fc bd 53 78 3a 3d a8 2d 03 3b
       0.14185183 -0.1231559 0.045524906 0.0020016227
0001e0 d0 5e 94 3b 10 02 f5 ba 40 f9 01 3e f7 8e 8a 3d
       0.004527904 -0.0018692631 0.12692738 0.0676555
0001f0 aa 44 3d 3c 47 b9 c3 bd 1c cb 80 3e d1 e1 12 bd
       0.011552015 -0.09556823 0.2515496 -0.035859887

mlp.8.weight f4 [4, 128]
000000 02 54 4d bf 82 71 9d 3f e9 83 a1 3e 51 eb 62 3e
       -0.8020631 1.2300265 0.31545952 0.22160079
000010 ba 37 23 3e fe af 08 3a 95 47 90 3e 56 9e 29 be
       0.15939227 0.0005214213 0.28179613 -0.16564307
000020 93 7f 23 be be c9 e6 3d f3 53 d7 bd dc 45 b9 3e
       -0.15966634 0.11268948 -0.10514059 0.3618611
000030 12 30 1c 3e a8 b4 19 3e fe f2 c3 be 77 b3 c2 3a
       0.15252712 0.15010321 -0.38271326 0.001485451
000040 52 91 ac ba 98 2c 14 3f 2a e1 51 be 22 f5 5e be
       -0.0013165867 0.57880545 -0.2049605 -0.21773198
000050 8d c4 91 3e 4a e0 a9 bc eb 69 b0 3d 38 43 f9 bd
       0.2847027 -0.020736832 0.08613952 -0.12171024
000060 6f a6 8a 3e 41 55 bc bc 3a c4 66 3e b5 03 5a be
       0.27080104 -0.022989871 0.22535792 -0.21290477
000070 c3 87 a1 3d 0f fe 4a 3f 74 7e 2a 3e 64 48 f3 bc
       0.078872226 0.7929391 0.166498 -0.029697604
000080 93 c3 2f 3e b3 0d 59 be f1 c8 c0 bc 61 e1 2a 3f
       0.1716445 -0.21196632 -0.023533316 0.6675015
000090 fe 6c 30 be 7c df a6 3e 88 cd 06 3e 00 e9 1a bf
       -0.17229077 0.3259238 0.13164341 -0.6051178
0000a0 09 97 30 3e 17 b6 22 3e 8b 4b 47 3f f2 44 29 3e
       0.17245115 0.15889774 0.77849644 0.16530207
0000b0 22 7c b5 bc 34 b3 4a bf 1e 72 61 3e 1f 6f ae 3e
       -0.022153918 -0.7917969 0.22016189 0.34069154
0000c0 eb f0 15 3d bf 69 a1 3d 84 34 9d 3d b7 e1 9a bd
       0.03660671 0.078814976 0.07676032 -0.07562583
0000d0 51 a2 4a 3d 4e 87 47 bd 15 5c 3a be 5c da 39 be
       0.049471203 -0.04871302 -0.18199189 -0.18149704
0000e0 ec 54 98 3e 0a 9d 06 3e 1d 05 c0 be 23 53 26 be
       0.2975229 0.13145843 -0.375039 -0.16242652
0000f0 e2 9f 9e be ac 15 4d bf 4c 06 9a 3e 65 2c 45 3d
       -0.30981356 -0.80111194 0.3008293 0.04813804
000100 dd 1a 9b 3e 71 40 a8 3d 67 c6 98 3c 72 49 ba 3d
       0.30293933 0.08215416 0.018649293 0.0909604
000110 cf cf c2 bd 48 a8 39 be 8c a3 f7 3e 30 b1 a7 3e
       -0.095122926 -0.181306 0.48366964 0.3275237
000120 0f c8 5a be c8 16 fe bc 0e 98 99 bd 0b e4 77 be
       -0.21365379 -0.031016722 -0.07499705 -0.24208085
000130 2e 47 9e bd d3 37 3f 3e 5d cf 65 be 9c c1 df bd
       -0.0772842 0.18673639 -0.22442384 -0.109256
000140 b3 c2 90 3e 60 d5 e2 bd 6a ea 1b be 56 0a 56 bd
       0.28273544 -0.11075854 -0.1522614 -0.05225595
000150 72 bd b8 3e e5 d3 ee bc 61 62 2e 3f 9a b7 8e be
       0.36082035 -0.029153774 0.68118864 -0.27874452
000160 15 21 be 3c 5c a5 b3 3e a3 a3 43 be 9d 2f 9e 3d
       0.023209134 0.35087097 -0.19105391 0.07723925
000170 7c af aa 3e 5b 3c 77 3e c5 55 0d 3e 65 5b ed bd
       0.3333701 0.24144118 0.1380225 -0.11589698
000180 24 e5 1b 3e fc 87 9e 3e 70 03 00 3e 09 d0 b4 3c
       0.15224129 0.30963123 0.12501311 0.022071855
000190 9e 97 00 be ca 39 d3 bd a5 c6 53 bd 9e e0 88 be
       -0.12557837 -0.10313757 -0.051703114 -0.2673387
0001a0 fb a6 52 3e e6 0d 91 3e 8e 26 b2 3d ec c5 c5 bd
       0.2057151 0.28330916 0.0869876 -0.09656891
0001b0 3e 22 05 bf aa 34 29 be 79 80 a3 3d 6a bc db 3e
       -0.52005374 -0.16523996 0.079834886 0.42917186
0001c0 12 69 8e 3d b6 58 e5 bd 87 7b 55 3d ec 61 79 bd
       0.06953634 -0.11198561 0.052119758 -0.0608844
0001d0 3a 9b c6 3d 87 9d a0 be 60 1b fa be ea f6 e0 bd
       0.09697576 -0.31370184 -0.4884901 -0.10984595
0001e0 4a 1c a3 3e 9c 3a 89 3d f3 9c d7 be 68 ff e0 3d
       0.3185752 0.06700632 -0.4211193 0.10986215
0001f0 fd f3 c2 3d 5d ac 7f bd 5c 6e 4d 3f e5 c1 d8 bd
       0.09519193 -0.062420238 0.8024652 -0.105838574
000200 29 89 a3 3e 35 b1 83 3b aa 41 1e be dd de a8 be
       0.31940582 0.0040189275 -0.15454736 -0.3298253
000210 f7 2e 61 3e 65 3d 96 3e 61 9b 08 3f dc 67 7d bc
       0.21990572 0.29343715 0.5336209 -0.015466657
000220 c8 97 fb bd 32 43 8a 3d f1 04 0d 3d 72 69 ba be
       -0.12284809 0.06751098 0.03442854 -0.36408573
000230 69 02 32 3f 9b f7 6f 3e fc 21 8d 3e 92 28 67 3e
       0.6953493 0.23434298 0.2756499 0.2257407
000240 4c 42 ec 3d d0 ff 39 3e d0 fa eb 3c 9a 01 5c 3f
       0.115360826 0.18163991 0.02880612 0.85939944
000250 92 57 28 be 7a 26 90 3e 54 0f ae 3d 75 97 4a 3e
       -0.16439655 0.28154355 0.08499017 0.19784339
000260 96 42 05 be 79 f0 bb 3d c1 78 44 be 23 d4 b2 be
       -0.13013682 0.09176726 -0.19186689 -0.34927472
000270 b5 2c 9f be 17 32 d7 3e 6d 3a 96 be 6a 5c 5c be
       -0.31088796 0.42030403 -0.2934145 -0.21519628
000280 1e e8 31 be 7b 5f 83 3e 04 02 09 3f 3f bc 09 bf
       -0.17373702 0.25658783 0.535187 -0.53802866
000290 9e b6 d7 3d 4d 48 6d 3e c6 c5 3a 3f d1 63 fb 3d
       0.10532878 0.23172112 0.7295803 0.12274898
0002a0 bb 37 0b be d9 05 39 3d 80 0a e9 be a6 33 6c be
       -0.13595478 0.045171592 -0.45515823 -0.23066577
0002b0 08 c8 8f 3c 01 b2 5d bf bc c2 87 3e 7d c4 2e 3e
       0.017551437 -0.8659974 0.26515758 0.17067142
0002c0 d2 57 14 3d 1c 44 d0 be e1 40 83 3c 2c c9 ae bd
       0.036216564 -0.40676963 0.016022148 -0.08534464
0002d0 b3 e5 06 bd 33 f6 2a be e5 a6 a2 be 24 2e 11 bd
       -0.032933902 -0.1669548 -0.31767955 -0.035444394
0002e0 09 c8 84 3d 3a 16 b9 3d 15 5d c2 3d 79 a5 53 3e
       0.06483466 0.090374425 0.0949041 0.20668592
0002f0 f3 91 aa bd e3 ff ae 3f 53 19 bb bd ab 2f 1f 3e
       -0.08328619 1.367184 -0.091356896 0.15545528
000300 e7 f9 30 3e 59 5c 23 be 04 d6 1c 3e 99 70 89 be
       0.1728283 -0.15953197 0.15316015 -0.26843718
000310 25 60 7a 3e 7d ba b9 bd 81 43 3a 3f 01 fe b1 be
       0.24450739 -0.09068773 0.7275925 -0.34764102
000320 e5 e2 f7 3d 85 c5 e3 be e3 90 2f 3e 0a e4 74 3e
       0.121038236 -0.44486633 0.17145114 0.23915115
000330 27 9d 18 3f 9e 3a cb be a2 c6 d5 3e fe 58 2a 3e
       0.59614795 -0.3969316 0.41753107 0.1663551
000340 2d f1 7a be fa 35 e9 3d 2d 07 43 be 0e b9 4a 3f
       -0.24506064 0.11387248 -0.19045706 0.7918862
000350 e0 da 92 3e f6 9e 21 3e df 5f 02 3e 52 10 fc bd
       0.28682613 0.15783295 0.12731884 -0.123078
000360 87 f4 b9 bd aa 30 d9 bc a6 ba c6 3e 34 fe a9 3e
       -0.09079843 -0.026512463 0.38814276 0.33201754
000370 ac 95 53 3d 3e 0a 70 b9 22 bf 69 3e d1 4d c3 3d
       0.05165641 -0.00022891999 0.22826818 0.09536327
000380 96 9f eb be c3 c7 5b bf 4c da 5c 3e 74 f3 30 be
       -0.46020192 -0.8585169 0.21567649 -0.1728037
000390 36 4f 93 3d d0 31 82 be d9 7c cc 3d 82 88 03 bd
       0.07192843 -0.2542863 0.0998475 -0.032112606
0003a0 f0 fb a4 bd 4e c5 ec bd 35 80 66 3d a2 8d 00 3e
       -0.08055866 -0.115610704 0.05627461 0.12554029
0003b0 6a 83 87 3f c6 a6 83 3e 99 0c 3c 3f 26 94 2f be
       1.0586979 0.25713176 0.7345672 -0.17146358
0003c0 f8 64 dc 3d db 86 5c 3e cb cf 21 bf 4a ad c0 3e
       0.10761446 0.21535818 -0.6320769 0.3763221
0003d0 64 1a f0 be 1a 4f eb 3e 06 9b 64 be 5f 8f d7 bc
       -0.46895134 0.45958787 -0.22324762 -0.026313482
0003e0 e2 ad f1 be 00 43 2e be 77 ac 98 3e bc 5d 9f 3d
       -0.47202975 -0.17017746 0.2981908 0.0778155
0003f0 32 e9 1c 3e f5 e6 1b 3c 30 18 c2 bf 70 a5 8d 3c
       0.15323332 0.009515514 -1.5163631 0.0172908

mlp.8.bias f4 [4]
000000 d9 b5 89 3c db af 5c be c7 cd 5f 3c 40 75 bb 3e
       0.016810345 -0.21551459 0.013659901 0.36612892
