lang_model.pth (torch, 86521 bytes, 6 tensors)

li1.weight f4 [64, 256]
00000000: 4ff7 a43b b29c 47bd 5bf8 0ebd 0e84 673d
00000010: 6996 2cbd 4313 a4bc b0a7 a33d 989b 08bd
00000020: 476e 49bd ba0e 383c c89b 653d 0dd2 0c3d
00000030: 7fa7 ecbc 2a14 6abd 0a2f 94bd 2a03 763b
00000040: a6c1 ba3c dfab 10bd 7c27 963c fe7c c0bc
00000050: 15d2 003d b5ea 533d 734f 10bc 6d1e 70bd
00000060: 4b10 913d c65b 36bd 1b00 34bd 606d 6aba
00000070: 571f d7bc 6d64 e2bb 2e54 a93c 8620 e23a
00000080: 23a8 893d a200 ef3c b5f1 0bbd d115 eabb
00000090: d1cf 723d 173d 14bd fbe8 0f3d f572 7c3d
000000a0: b3e0 5d3d d5b5 83bd 12c2 afbc de68 25bd
000000b0: 2c22 1c3d 3ae2 373d 10e6 24bd 760c 3abc
000000c0: 73ee ea3c facc eebc 34d6 84bd 2bea 803d
000000d0: b412 15bd 8e06 8bb9 88a2 a53c 1b11 653c
000000e0: 1bac 263c 23a6 913d f7b2 53bd 5a92 65bc
000000f0: 092c 243c 3b27 68bd e681 313d 3435 c6bc
00000100: d649 693d 12cb 82bd 1088 76bd 38d3 5d3d
00000110: 10c4 973d 49ea 6a3d c084 6c3c 5124 c63c
00000120: ecba 343c 4a02 b83b b713 47bd f600 883c
00000130: 99c1 7c3d 24af 753b 7a3e 2f3d c979 78bc
00000140: 903b 5b3b 9ddd 6b3d 2277 3abd 984a 083d
00000150: c931 393d 9316 1e3c cd6a 04bd 6d19 c5bc
00000160: 4c37 6bbd 52bc 33bd e73d 6fbd ede8 523d
00000170: ef23 7fbd c146 e6bc 8cbb b33c 4ba8 0f3d
00000180: 49d9 28bd c83b f83c 1538 84bc 8064 c33c
00000190: 221e 02bd 716d 7abd c476 823c 6b08 c13c
000001a0: cfbc 143d 9f7f 8a3c 1700 52bc 54ea 99bc
000001b0: c99e ee3c 16ce b6ba 9339 5ebc b8e0 f8bc
000001c0: 0bb2 05bd 35e6 c73b bca4 dabc ed2c 8d3d
000001d0: 4138 7a3d 1903 333d e201 103d 83cd cd3c
000001e0: 187c a9bc aace e33b 0d66 53bb 6b57 f3bc
000001f0: eb7e 09bc c155 ec3c 2d20 063d 7994 703d
00000200: 4daa 86bc ca5b 183d 3ac3 7bbd fad9 c33c
00000210: deb1 9fbc 9afd 0e3c b642 223d 5b61 50bd
00000220: 10a8 d73c ddf7 e6bc 7514 7dbd e57a 9fbc
00000230: 0440 4dbd 9c9e a03c dee9 a4bc e425 cb3b
00000240: 7624 a73c 4ea1 edbc 47ca 84bd 4208 0dbd
00000250: b2c1 0e3d 767f 2b3d a800 5c3d 71cc 24bd
00000260: bfd5 0b3d a139 80bd 58fd 573c 346b 053d
00000270: cc67 163d 4905 493c 40cc 5a3c d85c 17bc
00000280: 0029 b03a 1fe6 123d bf76 833c be5b e9bc
00000290: 098c 1fbc 14cb 38bd 45fd 6cbd 5428 383b
000002a0: d2b5 6a3d 3e03 2dbd 9841 adba 7bf5 053d
000002b0: 6e9f c6bc a16c 803d 999b 09bc e2c4 1d3d
000002c0: ba44 a73c 92ac 05bd ae2b b13c 5305 f0bc
000002d0: cc59 b5bc 3b78 0f3d 18a5 453d a2a3 933c
000002e0: 53d7 b5bc 80cb a4bc 725a 82bd 968e 4dbd
000002f0: c414 f6bc a2cc 2cbd 8d41 f5bc a3be 223c
00000300: 0738 5b3d 2653 2cbd db7a faba c881 f43c
00000310: c7c9 7d3d 2752 253c e79a 363d 7ce8 28bc
00000320: 8412 973c 5923 f93c c411 33bd e294 1b3d
00000330: 5303 933b 8172 38bd b59c d4bb f910 0fbd
00000340: ee04 c83c 9f9d 303d cdfe 26bd 3aad dd3c
00000350: b00f f53c 9160 133d 65cf 3c3d d5e8 20bd
00000360: b86e 733d 2620 713c 911c 233d d6b9 013c
00000370: be5f b63c 5c8e 28bc b1c6 e23b e68d d13c
00000380: 4ec0 863b 2fce 2a3d 3532 28bc f359 a6bc
00000390: b266 5bbd 26db 05bd efc1 0dbd 3404 443c
000003a0: bea0 653d 1b2c 453b c32f b63c 6602 273d
000003b0: b9c1 68bd ebcc 84ba f59d 473d 0650 4dbc
000003c0: 5fb0 9c3d 69bb caba 050b 773d 1ec9 cf3c
000003d0: bba2 5ebd a43f 623c 2435 d13b ee9a cc3c
000003e0: 0273 ab3a 51a7 673d 5d00 34bd 834c c6bc
000003f0: 9dd8 713d 01b6 53bc 35bd 86bd a194 24bd
0.0050343643 -0.04873342 -0.03490482 0.05652242 -0.04213563 -0.020028716 0.07990968 -0.03335151
-0.049177434 0.01123398 0.056056768 0.034380008 -0.028888462 -0.057148136 -0.072355345 0.0037538507
0.022797417 -0.03532016 0.018329374 -0.0234971 0.03145035 0.051737506 -0.008808005 -0.058622766
0.07083186 -0.044521116 -0.043945413 -0.000894269 -0.026260061 -0.0069089443 0.020670023 0.0017252124
0.06721523 0.029175106 -0.034166057 -0.007143714 0.05928022 -0.036191072 0.035134297 0.06163307
0.054169368 -0.06431166 -0.021454845 -0.040383212 0.038118526 0.04489348 -0.040258467 -0.01135551
0.028678155 -0.029150475 -0.064861685 0.06294664 -0.03639479 -0.0002651703 0.020219103 0.013981129
0.010172869 0.07111766 -0.051684346 -0.014011944 0.010020264 -0.056678038 0.04333677 -0.024195291
0.05695518 -0.06386389 -0.060188353 0.054156512 0.07410443 0.057352338 0.014435947 0.024187239
0.011030894 0.0056155073 -0.048602786 0.01660202 0.061708067 0.0037488425 0.04278419 -0.015165755
0.003345225 0.057584394 -0.04552377 0.033274263 0.045213494 0.009648937 -0.032328416 -0.024059976
-0.057425782 -0.043880768 -0.058408644 0.051491667 -0.06229013 -0.02810991 0.021940015 0.035072606
-0.041222844 0.030301943 -0.016140023 0.023851633 -0.03176702 -0.061139528 0.015925772 0.023563584
0.036312874 0.016906558 -0.012817404 -0.018788494 0.029128449 -0.0013946916 -0.013563531 -0.030380592
-0.032640498 0.006100441 -0.02668988 0.068933345 0.061088804 0.043704126 0.035158046 0.02512241
-0.020689055 0.0069521265 -0.0032256872 -0.02970477 -0.008392076 0.028849484 0.03274553 0.058735345
-0.016438628 0.037196912 -0.06146548 0.02390765 -0.019493993 0.0087274555 0.0396144 -0.050874095
0.026325256 -0.028194362 -0.061787087 -0.01946778 -0.05010988 0.01960688 -0.020131048 0.0061995853
0.020403128 -0.02900758 -0.06483894 -0.034431703 0.03485269 0.041869603 0.053711563 -0.040234033
0.03413939 -0.06260992 0.01318296 0.03257294 0.036720082 0.0122693265 0.013354361 -0.009238444
0.0013439953 0.03586399 0.016047833 -0.028486129 -0.009737977 -0.045115545 -0.057858724 0.002810021
0.057302304 -0.04223942 -0.0013218401 0.03270481 -0.024245944 0.06270719 -0.008398914 0.03851784
0.020418514 -0.03263528 0.021627273 -0.029299414 -0.022137545 0.03502677 0.04825315 0.018022362
-0.022197401 -0.020116568 -0.06364907 -0.05018481 -0.030039199 -0.04218734 -0.029938484 0.009933147
0.05352023 -0.042071484 -0.00191101 0.02984704 0.061960008 0.010090387 0.04458132 -0.010309335
0.018441446 0.030412363 -0.043718114 0.037983783 0.0044864803 -0.045031074 -0.0064884075 -0.034928296
0.024416413 0.04311907 -0.04077034 0.02706014 0.029914707 0.035980765 0.046096224 -0.039284546
0.05943176 0.014717137 0.039822165 0.007917842 0.02226245 -0.010287847 0.0069206585 0.025580358
0.00411228 0.04170054 -0.010265877 -0.020306563 -0.053564735 -0.0326797 -0.034608778 0.011963893
0.0560615 0.0030086103 0.022239571 0.04077377 -0.056825373 -0.0010131871 0.048734624 -0.012531286
0.076508276 -0.001546723 0.060313243 0.025364455 -0.05435441 0.013809118 0.0063845087 0.02497622
0.001308054 0.05655605 -0.04394566 -0.024206406 0.05904447 -0.012921811 -0.06579057 -0.040180806

li1.bias f4 [64]
00000000: 016b 683d 2e26 693c 07a0 353d 74fa 72bd
00000010: 8e29 e0bc 8ea3 5fbd 011e 86bb 1e89 b23c
00000020: b5e5 9e3c ab5b 40bd d211 3d3d 1d2b 54bd
00000030: 3775 0a3c 6c5b 0b3d b931 343d a151 3c3d
00000040: 1f23 e3bc f847 0ebd f2c4 f2bc 3995 5ebc
00000050: 1f93 a5bc b5a6 743d 6390 0fbd a38c a13c
00000060: 7c88 6b3d a431 1fbd f82a 423d 554a c8bc
00000070: 2d7c 813d 4e60 03bc 6098 90bc 9e01 153d
00000080: e677 233c 7aa6 193d ddee 29bd f37d f2bc
00000090: 5386 31bd 3fbc 85bc 16ca 19bd c04a 143d
000000a0: e0d7 07bd 36ed 5ebd f730 483d 72e8 21bd
000000b0: cbd9 66bd 456c 263c 1435 0d3c f321 c93b
000000c0: 089d 0abd e20c 0b3b 8161 043d 31ba fc3c
000000d0: 99c5 853c 27dc 233d 18db 18bd 5f83 3cbd
000000e0: 4551 c13a ce0a 10bd c485 483d b7bb afbb
000000f0: da2f 2bbd d046 79bc 17f8 b43c 080e 423d
0.056742672 0.014230294 0.044342067 -0.059320882 -0.027363565 -0.054599337 -0.004092932 0.021793898
0.019396642 -0.04696242 0.046159573 -0.05179893 0.008450798 0.034022734 0.04399273 0.045976285
-0.027726708 -0.034736603 -0.029634926 -0.013585382 -0.020211754 0.059729297 -0.035049807 0.019720381
0.05750321 -0.0388657 0.04740426 -0.024449507 0.06322513 -0.008018566 -0.017650783 0.036378495
0.0099773165 0.03751228 -0.041487563 -0.029601073 -0.043340992 -0.016325114 -0.03754624 0.0362041
-0.03316486 -0.05442544 0.04887482 -0.039528318 -0.056360047 0.010157649 0.008618612 0.0061380803
-0.033841163 0.0021217396 0.03231955 0.030850502 0.016329573 0.040004876 -0.03731832 -0.046023723
0.0014748952 -0.035166554 0.048955694 -0.0053629535 -0.04179368 -0.015214637 0.022090955 0.047376662

li2.weight f4 [64, 64]
00000000: b744 babd 5d64 4abc b657 b53a f13c cdbd
00000010: 221e c0bd 1daa bcbd 1701 603d ae91 fa39
00000020: acd9 aabd bc05 1b3c 87c2 b03d 8cf6 77bd
00000030: d872 973d 9d6e 2cbd c952 acbd d177 a2bd
00000040: ddbf df3d d8c5 f1bd 1f51 66bc 80c3 18bd
00000050: 315a 403d 5f1a 633d 0759 e4bc fccc 50bd
00000060: 68c9 2abb fcf6 a13b c9c8 dcbc 9355 1cbd
00000070: cab2 053d 09c0 963c 9a6c de3d d76e d6bd
00000080: 2ea0 81bd 979c 493d c2f8 3c3d 7baf 9b3c
00000090: aad6 15bc 0ad6 aebd 5754 813d 6501 b8ba
000000a0: d346 883d 79fa b63d 176e 003e d6a6 3dbb
000000b0: 2e16 a43d 2a37 243d 9486 1ebd 691b 90bd
000000c0: 8380 babd b466 a7bd e30b 9b3c ec68 5b3d
000000d0: c0f6 3b3c 1599 853d c555 e8bd 6560 66bd
000000e0: 16b9 e8bd 8963 7a3b 41df 20bc 6492 f2bd
000000f0: de74 c9bc 8b7b f53d 63d4 70bd 331a b5bd
00000100: cad3 e53b 68f4 dcbc 9159 82bd 4f0a ef3c
00000110: 1001 fdbd 3cca f63b 9d11 53bd 2e34 a33d
00000120: d637 593d 71d1 243b b12f 323d f951 9abd
00000130: 359f d23d 9c5c b7bb 2411 d9bd d8e3 00be
00000140: 9e57 9d3d f124 de3b 1e7a ef3d 064f 6abd
00000150: a2cf 013d 36c5 a8bc 8cf3 38bd 0e19 f73d
00000160: 4ec6 c0bd 1ff4 b73d df9b 9d3d ecf6 d73d
00000170: 3322 773b 64d8 95bd e577 c8bd d38d 8c3d
00000180: a326 04be 2b2b 5bbd c007 553d c74c 003b
00000190: eb3f 3a3d d4d9 3dbd ebec 59bd 3823 1cbc
000001a0: 844f c6bc c90d 3b3d 0b19 9abd 7632 c5bd
000001b0: e171 cebd c26b 55bc 55c6 8ebd 9b24 f1bd
000001c0: b57d 2fbd 3f21 a7bd 5fb1 cfbc 24a1 723d
000001d0: 53cd dabd 88d0 863d de44 223c 8a11 9abd
000001e0: f941 743d 5da8 64bd e343 fc3d 512a d6bd
000001f0: dd3c 8dbd d518 a63d 55e9 0d3d 26ab 913d
00000200: 43fe e93d a503 09bd fda4 ef3d ba16 9a3c
00000210: 903c be3d ae6e dcbd 4535 053d bb0b de3d
00000220: 6906 473d 248d 313d 08fc 3cbc fd12 22bd
00000230: 7147 9fbd 229d a9bc 2333 9fbc 30c7 00bd
00000240: 6f07 28bd 8f63 093c ac36 f73d d943 e0bb
00000250: 268e 3a3d 2c5f b93d bf9e 69bd 3e64 d6bc
00000260: c6d6 1f3d e42d 58bd 9251 51bd f991 94bd
00000270: 5e71 ef3d 8c1c a13d e0ef dd3d 52b2 853d
00000280: 4cb2 38bd 41a4 493d 549d 4a3d 04e1 863d
00000290: 77a7 bfbc 951c f9bb 2469 49bd 21cd 59bc
000002a0: a0ac 8cbd b92e edbc b04c 8bbd b786 833d
000002b0: 5b88 b9bd b920 d6bd 7d14 253d ebc5 aabd
000002c0: a09d ca3c 6fb7 a03d 97d6 f3bd 6da8 e8bd
000002d0: ca94 a4bd 7f41 413d 2e86 eebc abc3 f93d
000002e0: 7ef4 82bd 2075 d73d e76c 4a3d 30e5 d8bd
000002f0: 3406 d23c d36c 8fbd b4a7 063e 585f ccbd
00000300: c1f9 ec3d 3d97 c5bc ffae 473d 3ab7 463c
00000310: 304a be3d e875 d33d 90bf db3c 63b3 b4bd
00000320: d833 57bd 8748 c2bd 2e1e 473d d107 223d
00000330: e34c b1bd f394 90bd be45 293d 4ae9 5cbd
00000340: ebed b3bd 2e45 59bd 17f5 1e3c ea91 d83b
00000350: a276 e73d ccdd 403d 1e54 343c 3956 823d
00000360: 1cfb 153e 70af 75bd 3d17 debd 9d62 8e3c
00000370: c359 c5bc ef75 323b d403 f6bd 2a41 4c3d
00000380: eb23 dfbc 138e f7bd 7e90 c4bd 7554 a0bc
00000390: c3c6 47bd e90b a2bd 1d4d 80bc 3e39 313d
000003a0: 1cd6 9fbd 79dd 97bd d175 943d 402c cc3b
000003b0: cf13 b73c 2797 90bd ab71 333d 17d2 af3b
000003c0: 4316 8abd 8cae 0b3e 3946 d83d 565e 143d
000003d0: 6325 1c3e f818 07bc 31bd 9cbd 621c 8cbd
000003e0: ce12 cf3b 561d bd3d 8278 dabd b4e9 95bd
000003f0: a066 79bd 88fe 54bd a833 49bd 60a7 1e3e
-0.090951376 -0.01235303 0.0013835344 -0.10021389 -0.093807474 -0.09212134 0.05468854 0.00047792256
-0.08342299 0.009461816 0.08630853 -0.06053786 0.073949516 -0.042097677 -0.084142275 -0.079330094
0.10925267 -0.11805314 -0.014057427 -0.03729582 0.046961013 0.05544507 -0.027874483 -0.05097674
-0.002605999 0.004942773 -0.02695121 -0.038167547 0.03264121 0.018402116 0.10860558 -0.1047036
-0.0632938 0.0492216 0.04613567 0.019004574 -0.009145418 -0.085369185 0.06314915 -0.0014038502
0.06654134 0.089344926 0.12541996 -0.0028938553 0.08012043 0.04009167 -0.038702562 -0.07036478
-0.09106543 -0.08173886 0.018926566 0.05356686 0.011472404 0.06523339 -0.11344484 -0.056244273
-0.11363427 0.00382063 -0.009818853 -0.11844328 -0.02459186 0.119864546 -0.058796298 -0.08842888
0.0070137726 -0.02697201 -0.0636474 0.02917972 -0.12353718 0.0075314324 -0.05153047 0.07968937
0.053031765 0.002514925 0.043502513 -0.07535166 0.102842726 -0.0055957567 -0.105989724 -0.12586915
0.07682727 0.006779306 0.11693214 -0.05720427 0.031692155 -0.02060185 -0.04515414 0.12065326
-0.094128236 0.08982109 0.07695746 0.105451435 0.0037709593 -0.07316664 -0.09788493 0.06862988
-0.12905364 -0.053507965 0.052009344 0.0019577013 0.045471113 -0.046350315 -0.05320446 -0.009529881
-0.024207838 0.045667443 -0.07524308 -0.09628765 -0.100803144 -0.01302618 -0.069714226 -0.1177456
-0.042844493 -0.08160638 -0.025353132 0.059235707 -0.10683694 0.06582743 0.0099041145 -0.075228766
0.05963323 -0.055824626 0.12317636 -0.1045729 -0.068963744 0.08110205 0.03464635 0.07112722
0.1142545 -0.03345074 0.11701391 0.018809665 0.09288895 -0.10763298 0.032521505 0.10842081
0.048590098 0.043347493 -0.011534698 -0.03956889 -0.07777298 -0.02070481 -0.019433564 -0.03143996
-0.041022714 0.008385553 0.12070975 -0.0068440256 0.04554572 0.09051356 -0.057036158 -0.026170846
0.039023183 -0.05277814 -0.051103182 -0.072544046 0.11691545 0.07866773 0.10836768 0.065281525
-0.045091912 0.04922891 0.049466446 0.06585887 -0.023395283 -0.007602284 -0.049172536 -0.013293535
-0.06868863 -0.028952943 -0.06801736 0.06422179 -0.09059211 -0.1045546 0.040302742 -0.08338531
0.024733365 0.07847487 -0.11906164 -0.1136025 -0.08036192 0.047181603 -0.029116716 0.12195524
-0.063942894 0.10520387 0.049420264 -0.10590589 0.025637724 -0.070031784 0.13149911 -0.09979123
0.11571074 -0.024119968 0.048750874 0.012128646 0.09291494 0.10325223 0.026824743 -0.08823278
-0.052539676 -0.0948649 0.048612766 0.039558236 -0.08657243 -0.0705966 0.041326277 -0.05393342
-0.087856136 -0.05304449 0.009701989 0.006609191 0.11301924 0.047086522 0.011006383 0.06364102
0.14646572 -0.059981763 -0.10844276 0.017381007 -0.024090653 0.0027230938 -0.12012449 0.049866833
-0.027238807 -0.120876454 -0.09597872 -0.019571522 -0.04877354 -0.07912428 -0.01566177 0.04326748
-0.0780451 -0.074152894 0.07249034 0.006230861 0.022348313 -0.0706008 0.043809574 0.005365621
-0.06742527 0.13640803 0.10560269 0.03622278 0.15248637 -0.008245699 -0.07653273 -0.06841351
0.0063193804 0.09234111 -0.10667516 -0.07319966 -0.060888886 -0.052000552 -0.04912153 0.15493536

li2.bias f4 [64]
00000000: 86ba 4b3d f652 663d 1735 983d 4ce5 ecbd
00000010: 4667 dd3d 8efd 79bd e4ea 7cbd c0a7 3ebd
00000020: 6589 79bd d0c8 91bc 4a39 2c3d 69d6 e23d
00000030: 8e0d 0b3d 4213 a63d bdd8 b83d 25c1 9e3c
00000040: 311b 9ebd c64f 3e3d 7771 f4bc cbc0 cdbd
00000050: e110 b43d e56e 903c d75c 9539 75a0 023d
00000060: 7c9e aebc fdea 5e3d effa 3dbc 549e b9bb
00000070: 0d4e 09bd 0d9b 6abd f775 b03c 15a8 04bd
00000080: 2689 1f3c d20a a9bd c7dc e33c 8da7 ad3d
00000090: 709f 693d 3fd1 e8bd 5764 91bd 6dff 93bc
000000a0: 4c1a b0bd 310e 64bd 08b6 dfbd a40b 7b3d
000000b0: 5024 dabd 1734 0b3d a7d5 ebbd 66cc 6cbd
000000c0: f714 d0bb 6137 de3c 3220 193d 82cc b7bd
000000d0: d0c3 cdbd 1ff3 fc3c 43be fd3d 6449 dbbd
000000e0: 65d7 37bd 9eb8 73bd 0be2 e5bd c4f0 9bbc
000000f0: 7655 e8bc 8302 d7bd dc94 003e ff33 bfbd
0.04973843 0.05623146 0.07432001 -0.115671724 0.108107135 -0.061032824 -0.061747447 -0.046546698
-0.060922045 -0.01779595 0.042046823 0.11076052 0.033948474 0.08109142 0.090257145 0.019379208
-0.0772003 0.046462797 -0.02983926 -0.10046538 0.08792282 0.017631004 0.00028488666 0.031891305
-0.021315806 0.05442332 -0.011595472 -0.005664626 -0.0335217 -0.057276774 0.021540625 -0.032386858
0.009737289 -0.08254017 0.027815236 0.084792234 0.057036817 -0.113680355 -0.070992164 -0.018066132
-0.08598766 -0.055677596 -0.109233916 0.0612904 -0.10651457 0.033985224 -0.1151536 -0.057812117
-0.0063501555 0.027126016 0.03738422 -0.08974554 -0.10047114 0.030877648 0.12389805 -0.107073575
-0.04488315 -0.059502237 -0.11224755 -0.019035704 -0.028361063 -0.10498526 0.12556785 -0.09336089

li3.weight f4 [4, 64]
00000000: 1b2e b6bc 55e7 14be 4765 e7bd 5fdc 56bd
00000010: 9f6b a43d 4628 57bd fd18 853d 5ca1 323e
00000020: 65d8 ba3d 132c d2bd af03 5dbd 159f d7bd
00000030: 382d b73d cdc3 7f3e 1b78 c93b 9ddd 6ebb
00000040: af2a 14be fdae c43d ab33 26be 68d5 853d
00000050: 8b1e 58be 1423 df3d cc25 1d3e 1ad2 0fbe
00000060: 9ef5 36be 830e 1fbd 8b99 5d3b b937 843a
00000070: 2667 b33d b497 693c 9fdd 2bbd f458 043e
00000080: 65ff efbc 7ef7 b6bd 4688 1ebe 600d febd
00000090: 7a10 b3bd 5eff 38be b61b 153e cdcf 74bc
000000a0: 2488 423e 37f5 603e b349 17be 9246 d3bd
000000b0: 83b7 bdbd 5042 cc3c 2028 b1bd 3245 58be
000000c0: d87a 223d e653 053e 2528 17bc d6b1 833d
000000d0: 18b9 4f3d 6a13 9c3e 80fc e43c 2673 d53d
000000e0: 63f4 b83e a3df 4ebe 767e 0ebe 3833 07be
000000f0: 02d6 bfbd cddb 74bd 5927 62be 39fd 453d
00000100: 3523 6fbd 2038 d4bd 18b3 8e3d 2470 61ba
00000110: d6f3 18be d424 cabd edb2 0fbc 330d 9a3d
00000120: 4ea9 2ebc 8937 d8bd 5839 23bc bc6a 473e
00000130: 4469 01be c27f fc3c f0cc 17be 1065 4a3d
00000140: 6b35 fcbd f26a 653e cad5 6c3d f308 cb3d
00000150: fae3 3f3c b95c 58be 03e7 c6be 9da6 b8bc
00000160: 58f2 1e3e f419 0cbe 3fde 18be b6ef 403e
00000170: fbeb 753c 701a 873d 2eb8 57be 4b7c 073e
00000180: 7c4e b23c 4e0c 9b3d 0223 2bbd ba90 a6bb
00000190: 8a7e f83d 8939 e3bd 0a23 21be 2824 1d3d
000001a0: dd2d 1b3e 76ad e2bc c5a7 18be 78fd 563e
000001b0: 7622 b83d cdf2 16bd 6faa c33d af65 74bd
000001c0: 7676 1dbb baed bd3d 41dc 613e 9c57 723d
000001d0: 8b52 91bd f38e 8d3e 4bb5 0b3e 9c27 37bd
000001e0: 704d 8bbd c3ff 93bc 559e 303e 380c ad3d
000001f0: 0947 91bd 2406 51be afc5 1bbe 963f 973c
00000200: fb72 c3bc a710 043e c1d6 e8bd 32fa 6f3e
00000210: 6677 b6bd 3af0 493d 9d8b 5c3d 3a9e a6be
00000220: d6c0 a1bd 06f8 d63b 1a11 f23d ae00 443d
00000230: f2f1 c7bd 7cd1 5b3d dc9b c2bd 9653 4a3d
00000240: 381e fa3d 7122 93bd b6d3 1d3d b795 37be
00000250: 7828 6f3e e622 983d a0ca 5cbe dd32 053e
00000260: 781f f43d 366f 263e b2ad 2a3e ebee 07bc
00000270: c35d 9ebb 35b9 38be fa83 e4bd f4c5 f8bd
00000280: d844 f1bd 85f6 3ebd 13ca 223e 7030 09be
00000290: 6dcc 64be 719c 2f3d 37f8 a5bd 193f f63d
000002a0: 28aa 313e e381 1dbe 2de4 ea3c 77e1 99bd
000002b0: c6a4 9ebd 5333 bebd 6128 09be 4410 1dbd
000002c0: 797e 02be 66b6 b73c c966 cebd 38d9 703e
000002d0: 8adb 87bd 4e23 fe3d e20b 0abe 19eb 8abd
000002e0: 45c4 113d 6fa8 06bd 3efb a5bd d76c 0bbe
000002f0: 9774 ee3d af77 ec3d b7ad ffbc 546c 02be
00000300: c66e 853d 7267 f83d b749 8bbc da3c e8bd
00000310: 47e5 2abc 05cf 14be a20b cdbd d793 8d3d
00000320: d586 ad3d d49b a3bd 9e6b 0e3e d3f2 513d
00000330: 5ab1 213e 7840 cc3d 3871 683c 6cc9 d73d
00000340: 3401 693d 8fc0 9f3d f528 dd3d 665a b1bd
00000350: 7759 0abe c6e8 1d3e 7d96 c73b 013a 94bc
00000360: e071 933d 5632 023e 0e1e 823d bca0 83be
00000370: 7234 e13c 7e59 783c d598 c2bd 4156 50be
00000380: d3d4 353d 2400 9a3d 8595 2f3e eb68 403e
00000390: eaf2 fdbd 29a1 af3b c037 9ebd 4eef 02bd
000003a0: bff4 02b9 7e43 1bbd 3b3b 193e 18b0 41be
000003b0: c45a 7a3d 020f 8ebd 494e d6bd ca0e c1bd
000003c0: ed1b 2e3d 6e93 cbbd c811 84be d85b 763e
000003d0: 5ce6 733d cc53 6a3d bc8f fc3d 2d5f ceba
000003e0: c186 24be 77c6 e5bd 3013 663e f2dc d1bd
000003f0: 35df 9b3d 3643 023e 6140 aabd 215b 71be
-0.022238782 -0.14541371 -0.11298614 -0.052456256 0.080283396 -0.052528642 0.06498907 0.17444366
0.09123305 -0.10262313 -0.05395859 -0.10528389 0.08944172 0.24977036 0.006148351 -0.003644801
-0.14469407 0.09603689 -0.16230647 0.06534845 -0.21105401 0.108953625 0.1534645 -0.14044991
-0.17867133 -0.0388322 0.0033813443 0.0010087407 0.087599084 0.01425736 -0.0419594 0.12924558
-0.029296586 -0.08933924 -0.15481672 -0.12404895 -0.08743377 -0.18066165 0.14561352 -0.014942122
0.18997246 0.21968542 -0.14774208 -0.103161946 -0.09263518 0.024933964 -0.08650231 -0.21120146
0.039667934 0.13020286 -0.00922588 0.06430404 0.05071363 0.30483562 0.027952433 0.104223534
0.36123952 -0.20202498 -0.13915429 -0.13203132 -0.093669906 -0.05977993 -0.22085322 0.048337195
-0.058383185 -0.103622675 0.06967753 -0.0008599779 -0.14936766 -0.09870306 -0.008770687 0.07522049
-0.010660483 -0.105574675 -0.009962402 0.1947431 -0.12637812 0.030822638 -0.14824271 0.049412787
-0.12314876 0.22404078 0.057821073 0.09913816 0.011712069 -0.21129121 -0.38848123 -0.022540385
0.15522134 -0.13681775 -0.1492853 0.18841442 0.015009875 0.065968394 -0.21066353 0.13231008
0.02176594 0.07570706 -0.041781433 -0.0050831707 0.121335104 -0.11094958 -0.15736023 0.03836456
0.15154214 -0.027670603 -0.14907749 0.20995128 0.08990948 -0.036852647 0.09553992 -0.059667286
-0.0024026907 0.09273858 0.22056676 0.059165582 -0.07095822 0.27648124 0.13643377 -0.04471551
-0.068018794 -0.018066293 0.17247899 0.08449596 -0.07093627 -0.20412499 -0.15212129 0.018462937
-0.023858538 0.12896977 -0.11369086 0.23435286 -0.08909492 0.049301364 0.053844083 -0.32542592
-0.07898109 0.0065603284 0.11819668 0.04785221 -0.09762944 0.053666577 -0.09502384 0.04939612
0.12212795 -0.071843036 0.03853198 -0.17928205 0.23355281 0.07428531 -0.2156167 0.13007684
0.11920065 0.16253361 0.16667822 -0.008296709 -0.0048329546 -0.18039401 -0.11157985 -0.121471316
-0.11780709 -0.046621818 0.15897398 -0.13397384 -0.22343607 0.042873804 -0.08103984 0.12023754
0.17350066 -0.15381579 0.028673256 -0.07513707 -0.07746272 -0.09287133 -0.1339431 -0.03834559
-0.12743558 0.022425842 -0.100781985 0.23520362 -0.06633671 0.124090776 -0.13481095 -0.067831226
0.035587568 -0.032875475 -0.08104561 -0.13615738 0.116433315 0.11546265 -0.031210763 -0.12736636
0.06515269 0.12129106 -0.017002923 -0.113397315 -0.010430641 -0.14532097 -0.100119844 0.06912964
0.08472983 -0.07988706 0.1390824 0.051256966 0.1579031 0.09973234 0.01418715 0.10536465
0.056885913 0.078003995 0.107988276 -0.0865982 -0.1351069 0.15420827 0.0060909376 -0.018094065
0.07199454 0.12714514 0.06353389 -0.25708568 0.027490828 0.015158055 -0.09501807 -0.20345403
0.044392418 0.07519558 0.17146881 0.18790023 -0.12399848 0.005359788 -0.07725477 -0.0319665
-0.00012488941 -0.037906162 0.14964001 -0.1891483 0.061121717 -0.06936456 -0.104641505 -0.09426649
0.0425071 -0.09940229 -0.25794816 0.24058473 0.05954586 0.05720882 0.12332103 -0.0015744917
-0.1606703 -0.11219495 0.22468257 -0.1024722 0.07610933 0.12720951 -0.083130606 -0.23569919

li3.bias f4 [4]
00000000: f2cc bebc 1a2b 11bc affe 9ebd c8d0 51bd
-0.023291085 -0.008860374 -0.07763421 -0.0512245
